pythonProject/EEG_TCNet.pth (torch, 23113 bytes, 18 tensors)

block1.0.weight f4 [16, 1, 1, 32]
0	0x3d322882	0.043495663
1	0x3e0a5cc1	0.13511945
2	0xbde3c8d5	-0.1112229
3	0xbdd56e14	-0.10421386
4	0xbd5b9261	-0.053606395
5	0x3d44620c	0.047945067
6	0xbc8b32ce	-0.016991999
7	0x3deccb87	0.11562257
8	0xbd394054	-0.045227364
9	0x3c981e62	0.018569175
10	0xbd9a7a11	-0.075428136
11	0xbd475295	-0.04866274
12	0xbe331ca8	-0.174914
13	0xbdef057a	-0.116709664
14	0xbd89ed6a	-0.06734736
15	0x3c88104b	0.016609332
16	0x3dac2aeb	0.084066235
17	0x3dfc139a	0.12308426
18	0xbdd11a23	-0.10210063
19	0xbd7c1c99	-0.06155071
20	0x3d99688a	0.07490642
21	0x3e1b9f31	0.15197445
22	0xbd1115ea	-0.03542129
23	0x3e064dc5	0.13115604
24	0xbcf208ee	-0.029545274
25	0x3c91f836	0.017818552
26	0x3e213a17	0.15744816
27	0xbe2f46b1	-0.1711681
28	0xbe012f56	-0.12615713
29	0xbd8ca594	-0.06867519
30	0xbdceff6c	-0.101073116
31	0x3deb1e3a	0.11480375
32	0xbde37bfa	-0.11107631
33	0xbdb03d5c	-0.08605453
34	0xbe0be249	-0.1366054
35	0xbe40545d	-0.18782182
36	0xbe098ffc	-0.13433832
37	0x3deab047	0.114594035
38	0x3d283026	0.041061543
39	0x3d5e4724	0.054267064
40	0xbc2074aa	-0.00979344
41	0xbdc25882	-0.09489538
42	0x3d1ea173	0.03872819
43	0xbe16db9d	-0.14732213
44	0xbdd957f4	-0.10612479
45	0xbd8d9cd9	-0.06914682
46	0x3e0791e0	0.1323924
47	0x3dfc8fe1	0.1233213
48	0xbd76d494	-0.060261324
49	0x3bfc4a79	0.0076993075
50	0x3df5a405	0.11994175
51	0x3e315ccf	0.1732056
52	0x3d6f7f8c	0.058471248
53	0x3bc1098c	0.0058910307
54	0x3dc9c320	0.0985167
55	0xbdfa3450	-0.12217009
56	0x3c9347d5	0.017978588
57	0xbe196975	-0.14981635
58	0xbe0af31c	-0.13569301
59	0xbddb06cb	-0.10694655
60	0x3d7ba9b0	0.061441123
61	0x3d512a60	0.051065803
62	0xbdfdf762	-0.124007
63	0x3d15f63d	0.036611784
64	0x3db39506	0.08768658
65	0xbcf91fb9	-0.030410634
66	0xba2a6881	-0.00065005576
67	0x3d0b3db2	0.033994384
68	0x3dd37753	0.10325494
69	0x3e283fe3	0.16430621
70	0xbe0f3c63	-0.1398788
71	0xbd8815e8	-0.06644803
72	0x3d8ec248	0.0697065
73	0x3e17724e	0.14789698
74	0x3e1f1380	0.15534782
75	0x3e203cf1	0.15648247
76	0x3d0c2a5e	0.034220092
77	0xbe1f756d	-0.15572138
78	0x3c657c94	0.0140067525
79	0xbde4c27d	-0.11169908
80	0xbe27b2f9	-0.16376866
81	0x3e241b17	0.16025959
82	0x3e0ecf81	0.13946344
83	0xbe2e91d8	-0.17047822
84	0x3d1c24ab	0.038120907
85	0xbcd64bab	-0.026159128
86	0xbcdbeabb	-0.026845327
87	0xbda1d4a4	-0.07901886
88	0x3d915c16	0.07097642
89	0xbdcab5e7	-0.09897976
90	0x3d973f0f	0.07385074
91	0x3dd02dfc	0.10165021
92	0x3e1033ce	0.14082262
93	0x3da570c9	0.08078153
94	0xbe253861	-0.16134788
95	0xbdd3e785	-0.10346893
96	0x3df02905	0.11726574
97	0x3d75cd10	0.060010016
98	0xbdfbb0a6	-0.122895524
99	0xbdc34f89	-0.095366545
100	0x3e29d41c	0.1658482
101	0x3decb813	0.11558547
102	0xbda30a4a	-0.07960947
103	0xbd31c86a	-0.04340402
104	0xbe26e0e4	-0.16296726
105	0x3ba04cc8	0.0048919655
106	0xbdff8d63	-0.12478139
107	0xbe053058	-0.13006723
108	0xbbe1610c	-0.006878024
109	0x3cd36f06	0.025809776
110	0xbd9c0e8a	-0.076199606
111	0x3dca10db	0.09866496
112	0xbdeb239a	-0.114814
113	0x3e1cdec6	0.15319356
114	0x3decb410	0.11557782
115	0xbe1b93c0	-0.15193081
116	0xbd36446a	-0.04449884
117	0x3c08aaf3	0.008341539
118	0x3ccadcb6	0.024763446
119	0x3d1ac36e	0.037784033
120	0x3d7e2a9e	0.06205236
121	0x3ae5ccec	0.0017532385
122	0xbdc122fa	-0.094304994
123	0x3d9ea681	0.07746602
124	0xbe325157	-0.17413841
125	0xbde163eb	-0.11005386
126	0xbd57cca1	-0.052685384
127	0xbdca31a4	-0.098727494
128	0xbd887436	-0.066627905
129	0xbe19fe46	-0.15038404
130	0xbd2ec0e1	-0.042664412
131	0x3d0b474a	0.034003533
132	0xbdf132f9	-0.117773004
133	0xbc42a060	-0.011879057
134	0x3dfa0df1	0.1220969
135	0xbccad5b0	-0.024760097
136	0xbb5708a4	-0.0032811547
137	0xbcbf91dd	-0.023384983
138	0x3ceff9fa	0.029294003
139	0x3dddad9e	0.108241305
140	0x3e290f54	0.16509753
141	0x3de2b3ad	0.11069427
142	0x3e2a5a00	0.16635895
143	0xbc5f1d6c	-0.013617855
144	0xbe21ae46	-0.15789136
145	0xbda500f8	-0.080568254
146	0x3e004b1f	0.12528656
147	0x3b7ee895	0.0038895954
148	0xbdad74a4	-0.08469513
149	0xbe0a5308	-0.13508236
150	0xbe2b0ce1	-0.16704132
151	0xbe1a5fdb	-0.15075628
152	0xbd1133fb	-0.035449963
153	0x3dcca505	0.099924125
154	0x3dcd3ba3	0.100211404
155	0xbe29c710	-0.16579843
156	0x3de8410c	0.11340532
157	0xbe0b889c	-0.13626331
158	0xbd0fe4fc	-0.035130486
159	0xbd8a1fdd	-0.06744359
160	0xbd58f5ca	-0.052968778
161	0xbd357e70	-0.044310033
162	0xbe238203	-0.15967564
163	0xbe1596c3	-0.14608292
164	0xbc698d8a	-0.014254937
165	0x3cb0d93e	0.021587964
166	0xbd6a16d9	-0.057150695
167	0x3db8a502	0.09015848
168	0xbe0d8aa0	-0.13822412
169	0x3b900658	0.0043952875
170	0x3e2bbdfe	0.16771695
171	0xbd7b8375	-0.061404664
172	0x3e2f2c18	0.17106664
173	0x3d9ede7d	0.0775728
174	0xbe144251	-0.14478423
175	0x3e003f75	0.12524207
176	0xbc247959	-0.010038697
177	0xbd964315	-0.07337014
178	0x3e0f5a42	0.13999274
179	0xbe1d2b30	-0.15348506
180	0xbb8eceb9	-0.0043581394
181	0xbd99377d	-0.07481287
182	0x3d9a8e42	0.07546665
183	0xbc01e327	-0.0079276925
184	0x3cf9bb4d	0.03048482
185	0x3ca17ac6	0.019711863
186	0xbd8ca43d	-0.068672635
187	0xbd42ff09	-0.0476065
188	0xbe143d52	-0.14476517
189	0x3dd3df99	0.10345382
190	0x3e1d9024	0.15387017
191	0x3e12732c	0.14301747
192	0xbdd80865	-0.10548476
193	0x3ccd3458	0.025049374
194	0xbde2c30d	-0.11072359
195	0xbdaf7be3	-0.085685514
196	0xbdb9b21a	-0.09067173
197	0x3d9ba3bd	0.0759959
198	0xbdb0a522	-0.086252466
199	0x3c796345	0.015221422
200	0x3cab5051	0.020912321
201	0x3defb549	0.11704499
202	0xbe111172	-0.14166811
203	0xbe0c578b	-0.1370527
204	0xbdf56f71	-0.119841464
205	0x3de1560e	0.11002742
206	0xbd936a49	-0.07198007
207	0x3e1303d6	0.14356932
208	0x3d6d1270	0.05787891
209	0x3c5e77a7	0.013578332
210	0xbc42b4b7	-0.011883906
211	0xbd34e443	-0.044163
212	0x3c8bbe59	0.017058538
213	0xbd27e52b	-0.040990036
214	0x3938ab3c	0.00017611397
215	0x3cb9c25b	0.022675684
216	0xbe104039	-0.14086999
217	0xbdc54b96	-0.096335575
218	0x3e10fa75	0.14158042
219	0xbe0e379e	-0.13888404
220	0xbb2a27f2	-0.002596375
221	0x3e3fb0fc	0.18719858
222	0x3d9749f2	0.07387151
223	0x3c1ad030	0.00944905
224	0xbe2a9264	-0.16657406
225	0x3d98a3dd	0.074531294
226	0xbe0be6cf	-0.13662265
227	0xbd6f8b8e	-0.0584827
228	0xbd8827c7	-0.06648212
229	0xbd0c7b60	-0.034297347
230	0xbc0b0070	-0.008483991
231	0x3e090927	0.13382398
232	0x3c42b963	0.01188502
233	0x3e1dafe7	0.15399133
234	0x3de73c36	0.11290781
235	0xbdc76c70	-0.0973748
236	0x3dcd26ba	0.10017152
237	0xbdd24491	-0.10266984
238	0xbd68d1ef	-0.056840833
239	0x3d7df283	0.061998855
240	0x3d70776c	0.05870764
241	0x3dfed60e	0.124431714
242	0xbd91767a	-0.07102676
243	0xbc908adb	-0.017644336
244	0x3d90d7ef	0.07072436
245	0xbe453990	-0.1926024
246	0x3dd71173	0.10501375
247	0xbe2cfc17	-0.1689304
248	0xbc9ba7ce	-0.019000914
249	0xbd43af48	-0.047774583
250	0xbdd5b335	-0.10434572
251	0x3caef1ea	0.021355588
252	0x3e1f5bbe	0.1556234
253	0xbcf47b73	-0.029844021
254	0xbd93ac9a	-0.072106555
255	0xbccb68cd	-0.024830246

block1.1.weight f4 [16]
0	0x3f7fd570	0.99935055
1	0x3f7fd5ac	0.9993541
2	0x3f7fd55e	0.9993495
3	0x3f7fd55e	0.9993495
4	0x3f7fd57a	0.99935114
5	0x3f7fd5ae	0.99935424
6	0x3f7fd565	0.9993499
7	0x3f7fd65a	0.9993645
8	0x3f7fd589	0.99935204
9	0x3f7fd755	0.99937946
10	0x3f7fd599	0.999353
11	0x3f7fd55e	0.9993495
12	0x3f7fd85c	0.99939513
13	0x3f7fd55f	0.99934953
14	0x3f7fd55e	0.9993495
15	0x3f7fd55e	0.9993495

block1.1.bias f4 [16]
0	0xb05991e7	-7.915148e-10
1	0x3015c278	5.448224e-10
2	0x2e35820e	4.1270147e-11
3	0x2d37037c	1.0403119e-11
4	0xb0931fbe	-1.0704679e-09
5	0x2e90314b	6.557118e-11
6	0x3023721e	5.9461225e-10
7	0x300246c2	4.739428e-10
8	0xb024b231	-5.991608e-10
9	0x30791ad3	9.062379e-10
10	0x30a91970	1.2303598e-09
11	0xaf00b309	-1.1705138e-10
12	0x318b9ac1	4.063026e-09
13	0x2e593193	4.938412e-11
14	0xb08d4e02	-1.0281271e-09
15	0xae8e8407	-6.480865e-11

block1.1.running_mean f4 [16]
0	0x38d35e51	0.00010078832
1	0x396a2ee2	0.00022333444
2	0xb94f4f66	-0.00019770637
3	0x398a2c5f	0.0002635447
4	0x38eff373	0.00011441754
5	0xb7b29959	-2.1290662e-05
6	0x394ca9a1	0.00019518148
7	0x3844bb7c	4.690465e-05
8	0x372b82ab	1.0222818e-05
9	0xb9413ade	-0.00018427844
10	0xb9e13baf	-0.00042959812
11	0x380dbc46	3.3792363e-05
12	0xb9211166	-0.00015360638
13	0x399d2d8b	0.00029979306
14	0xb8187d9f	-3.6356618e-05
15	0xb985253e	-0.00025395484

block1.1.running_var f4 [16]
0	0x3ead5325	0.33852497
1	0x3f340a59	0.7032829
2	0x3e9404e8	0.28909993
3	0x3eac1894	0.33612502
4	0x3f36c402	0.71392834
5	0x3eae128b	0.33998522
6	0x3e459eeb	0.19298904
7	0x3eb6b0f0	0.35681868
8	0x3ebe0437	0.3711259
9	0x3dc0c348	0.09412247
10	0x3e85372c	0.26018655
11	0x3f297f31	0.66209704
12	0x3ebfe6c3	0.37480745
13	0x3e49e0ed	0.19714709
14	0x3ea88dd5	0.3292071
15	0x3e4c785c	0.19967788

block2.0.weight f4 [32, 1, 22, 1]
0	0xbd748860	-0.05970037
1	0xbdacb168	-0.08432275
2	0x3d4a1b71	0.049342576
3	0x3da48739	0.08033604
4	0xbdc08284	-0.09399894
5	0x3d0b2d9b	0.03397904
6	0x3dfecefd	0.12441824
7	0xbbb0b441	-0.0053925817
8	0x3d8f8bdd	0.07009099
9	0xbd34e397	-0.04416236
10	0x3da5ad73	0.080897234
11	0xbe1f3851	-0.15548827
12	0xbdd99a6e	-0.10625158
13	0xbda57970	-0.08079803
14	0x3e5a8e86	0.21343431
15	0xbd3a48d7	-0.04547962
16	0x3b0a5ea3	0.0021113537
17	0xbddb7e09	-0.10717399
18	0x3e6688ab	0.22513072
19	0x3e6112cf	0.21979831
20	0xbe176a0c	-0.14786547
21	0xbe22ebbf	-0.15910242
22	0xbe247681	-0.1606083
23	0x3a2e0082	0.0006637649
24	0xbd54c01e	-0.05194103
25	0xbe0c9d8a	-0.13731971
26	0xbd9a7d21	-0.07543398
27	0x3d20f489	0.039295707
28	0xbdd36bda	-0.103233054
29	0x3d55dddb	0.05221353
30	0xbd3a4707	-0.045477893
31	0xbdd14e58	-0.10220021
32	0x3ce67230	0.02813062
33	0x3e2f6fe4	0.17132527
34	0xbe15bcd1	-0.14622809
35	0x3c8e4777	0.017368061
36	0xbd95ce40	-0.0731473
37	0x3e579c7a	0.21055785
38	0xbe5092a3	-0.20368437
39	0xbe550fe6	-0.20806846
40	0x3e5dccb0	0.21660113
41	0xbe066718	-0.13125265
42	0x3d2881ea	0.04113952
43	0xbc46a989	-0.012125381
44	0xbd39b627	-0.04533973
45	0xbd9a42a9	-0.07532246
46	0x3de810fd	0.11331365
47	0x3b1c88f6	0.0023885346
48	0xbe488fa2	-0.19586042
49	0xbddb1aaf	-0.10698449
50	0xbd9b879d	-0.075942256
51	0x3dec368c	0.115338415
52	0xbe139a79	-0.14414395
53	0x3e3a0bc9	0.18168558
54	0xbd5bc8e1	-0.05365837
55	0xbd523d34	-0.0513279
56	0x3e22e3f9	0.15907277
57	0x3e11f5a5	0.14253862
58	0x3e4b4507	0.1985055
59	0x3dedfc29	0.11620361
60	0xbd9b6b68	-0.075888455
61	0xbe1f5964	-0.15561444
62	0x3c1d1162	0.009586664
63	0x3e3a3d8d	0.18187542
64	0xbd920665	-0.07130126
65	0xbe3b3f5a	-0.18285885
66	0x3d829ce8	0.06377584
67	0x3e3d8bfa	0.18510428
68	0xbdaef3ba	-0.08542581
69	0xbe5081ce	-0.20362017
70	0xbe5fbcfb	-0.21849434
71	0x3d0e497b	0.034738045
72	0xbd074f67	-0.03303471
73	0xbe03ff9f	-0.1289048
74	0x3cacaf7a	0.021079767
75	0x3d65a1e2	0.056062587
76	0x3e1d280c	0.15347308
77	0x3e2da9d2	0.16959313
78	0xbd00865d	-0.03137814
79	0xbe532376	-0.20618996
80	0xbe5a096d	-0.21292658
81	0x3e35ec9a	0.17766038
82	0x3db4b3c9	0.08823354
83	0x3dd895bc	0.105754346
84	0xbe52cbd0	-0.20585561
85	0x3e3363d6	0.17518553
86	0x3e427579	0.18990125
87	0x3e227dc8	0.15868294
88	0xbe2fe095	-0.17175515
89	0xbd9cb511	-0.07651723
90	0xbe1076ca	-0.14107814
91	0x3e568431	0.20948865
92	0xbdaaeb20	-0.08345628
93	0xbdb6ce08	-0.08926016
94	0x3deb3f9c	0.11486742
95	0xbdc34f3d	-0.09536598
96	0xbdcf9a09	-0.10136802
97	0xbc615ea9	-0.013755479
98	0xbc64e325	-0.013970171
99	0xbe2154c7	-0.15754996
100	0x3e3c995c	0.18417877
101	0xbdb49e95	-0.088193096
102	0x3da51ffc	0.08062741
103	0x3e430b3a	0.19047251
104	0x3de9542e	0.11393009
105	0x3d1d6d7d	0.038434494
106	0x3e3eeb3e	0.18644425
107	0x3d0916f5	0.03346916
108	0xbdbf13c0	-0.09329939
109	0x3e518ba4	0.20463425
110	0x3d73015d	0.059327472
111	0xbe4cf416	-0.20014986
112	0xbd5284e6	-0.051396273
113	0xbe0b1ab5	-0.13584407
114	0x3e48aa1c	0.19596142
115	0xbcd3e5bf	-0.025866387
116	0xbe43f28e	-0.19135496
117	0xbc45d95b	-0.012075747
118	0x3e0ea989	0.1393186
119	0x3d824946	0.06361632
120	0x3d9dc9bc	0.077044934
121	0x3d02a88e	0.031899028
122	0x3db5e95e	0.08882402
123	0xbd5d56b5	-0.05403777
124	0xbda90f59	-0.082548805
125	0xbe44fb08	-0.19236386
126	0xbe19dd89	-0.15025915
127	0x3dd69f85	0.10479645
128	0xbdfedf55	-0.12444941
129	0x3d16bd4c	0.03680162
130	0x3d9d597f	0.07683086
131	0x3cac711a	0.021050025
132	0xbdfbe8be	-0.123002514
133	0x3e4d74cd	0.20064087
134	0xbdf75a40	-0.12077761
135	0x3e3b9f6a	0.1832253
136	0xbe1506cb	-0.14553373
137	0xbce81875	-0.028331975
138	0x3e0caacb	0.13737027
139	0xbd41e32f	-0.0473358
140	0x3e483108	0.19549954
141	0xbe138699	-0.14406814
142	0xbe2e178c	-0.1700117
143	0xbdcd8c96	-0.1003658
144	0x3d27cc9f	0.040966626
145	0x3e7e9f2e	0.2486541
146	0xbd913d1d	-0.070917346
147	0x3da799ad	0.08183608
148	0xbd7abf45	-0.061217565
149	0xbd7b7f50	-0.06140071
150	0x3e21509f	0.15753411
151	0xbe38186b	-0.17978065
152	0xbb6610c5	-0.003510521
153	0x3e1b3ead	0.15160628
154	0xbcee235e	-0.029069599
155	0x3e2a9ba0	0.16660929
156	0xbd8487ce	-0.06471215
157	0x3e307c88	0.17235005
158	0xbe52c8e0	-0.2058444
159	0xbcf1e7cc	-0.029529475
160	0xbd1eb72c	-0.038748905
161	0x3d8b8836	0.068130895
162	0x3daca7a1	0.0843041
163	0x3e2931b9	0.16522874
164	0xbcf5cb55	-0.030004183
165	0xbbb1e517	-0.005428921
166	0x3e1746a2	0.14773038
167	0xbd751dba	-0.059842803
168	0x3e3eebb4	0.18644601
169	0xbe0f23c9	-0.13978495
170	0xbca3f83b	-0.020015826
171	0xbbf372b9	-0.0074294475
172	0x3dc48d0a	0.095972136
173	0x3e186f23	0.14886145
174	0xbceb69e6	-0.02873702
175	0xbe304ae1	-0.17216064
176	0x3dc9141e	0.0981829
177	0x3d6deb78	0.05808589
178	0x3dab345e	0.083595976
179	0xbdffedd4	-0.12496534
180	0x3e0b78a4	0.1362024
181	0x3e430e85	0.19048508
182	0xba8f5945	-0.0010936639
183	0xbe661213	-0.22467832
184	0x3e131c44	0.14366251
185	0xbe144e96	-0.14483103
186	0x3d4c5291	0.04988343
187	0x3c3397fa	0.010961527
188	0xbdf448e4	-0.11927965
189	0x3cfe3a28	0.03103359
190	0xbe5a56b2	-0.21322134
191	0x3d350b0b	0.044199985
192	0xbe1611e7	-0.14655267
193	0xbd50156d	-0.050801683
194	0xbb4d83df	-0.003135912
195	0x3e25cfea	0.16192594
196	0xbdf1450c	-0.11780748
197	0x3df56042	0.1198125
198	0xbce697af	-0.0281485
199	0xbddab9e4	-0.10679987
200	0xbe451bca	-0.19248882
201	0xbe4abae2	-0.19797853
202	0x3e56c14c	0.20972174
203	0xbd3f5d52	-0.046719857
204	0x3bebc788	0.007195417
205	0x3d56479a	0.05231438
206	0x3e0d3f89	0.13793768
207	0x3e347187	0.17621432
208	0x3e338c7e	0.17534062
209	0xbe18cc11	-0.14921595
210	0xbcd4798e	-0.025936868
211	0xbe049472	-0.12947252
212	0xbdffcdf0	-0.12490451
213	0x3d49a21c	0.049226865
214	0x3e518062	0.2045913
215	0xbe248810	-0.16067529
216	0x3e04fe6e	0.12987682
217	0xbdd722f5	-0.105047144
218	0xbd0121d2	-0.031526394
219	0x3e3824db	0.17982809
220	0xbd4dc611	-0.05023772
221	0x3c953ffa	0.018218983
222	0xbe1d6962	-0.15372232
223	0x3e364657	0.1780027
224	0xbce91d8f	-0.028456477
225	0xbe1d0de2	-0.15337327
226	0x3d8fa4b6	0.07013838
227	0xbe15dd83	-0.14635281
228	0xbe2f135c	-0.17097229
229	0x3c1e9192	0.009678261
230	0x3e2cd129	0.16876663
231	0xbd60dade	-0.054896228
232	0x3dd60072	0.10449304
233	0x3e48449b	0.19557421
234	0x3e15bc23	0.1462255
235	0xbde0e9d9	-0.10982103
236	0xbcb11747	-0.021617545
237	0xbd814370	-0.06311691
238	0xbe285492	-0.16438511
239	0x3aaff9b0	0.0013425853
240	0x3e21dd08	0.15806973
241	0x3e3245cd	0.1740944
242	0x3cf2d176	0.029640894
243	0x3d24e6b3	0.040259074
244	0xbdb89386	-0.09012513
245	0x3e2d3301	0.16913988
246	0xbd6d9621	-0.058004502
247	0xbdf690c1	-0.12039328
248	0x3cec4145	0.028839717
249	0x3e0c1bb6	0.13682446
250	0xbe3beae9	-0.1835133
251	0x3e4c033a	0.19923106
252	0x3dc066c3	0.093946
253	0xbe25ecf4	-0.16203672
254	0xbcb0b40d	-0.02157023
255	0x3e410b71	0.18852021

block2.1.weight f4 [32]
0	0x3f821eab	1.0165609
1	0x3f7d806d	0.9902409
2	0x3f81fa59	1.0154525
3	0x3f8369f8	1.0266714
4	0x3f7dcf89	0.991448
5	0x3f7e2378	0.9927287
6	0x3f847258	1.0347395
7	0x3f7cbeeb	0.9872882
8	0x3f7e079f	0.9923038
9	0x3f7d81ae	0.99026
10	0x3f7dc3f6	0.9912714
11	0x3f845989	1.0339824
12	0x3f7e062b	0.9922816
13	0x3f7c133a	0.9846684
14	0x3f8471f0	1.0347271
15	0x3f7e4952	0.9933063
16	0x3f805065	1.0024534
17	0x3f7dc9db	0.9913613
18	0x3f8c86e8	1.097867
19	0x3f7dfa6e	0.9921025
20	0x3f7ccef4	0.98753285
21	0x3f8010c2	1.0005114
22	0x3f7f178a	0.9964529
23	0x3f7d7da1	0.9901982
24	0x3f7ea50b	0.99470586
25	0x3f9b6bb5	1.2142245
26	0x3f7ae923	0.9801199
27	0x3f7c3084	0.9851153
28	0x3f7c33d3	0.9851658
29	0x3f7d16aa	0.9886271
30	0x3f7d2c04	0.9889529
31	0x3f7e1e2a	0.99264777

block2.1.bias f4 [32]
0	0xbcaecb19	-0.021337079
1	0xbc2993f4	-0.010350216
2	0xbcdb8874	-0.026798464
3	0xbd01a60f	-0.031652506
4	0xbc0f43e8	-0.008744217
5	0xbc0596d5	-0.008153637
6	0xbd15b1b5	-0.036546428
7	0xbbedad48	-0.0072533228
8	0xbcab0f24	-0.020881243
9	0xbc0731a0	-0.008251578
10	0xbc0d3c74	-0.00862037
11	0xbcdfb646	-0.027308594
12	0xbbf17a10	-0.0073692873
13	0xbc3ce272	-0.011528598
14	0xbc8db33e	-0.017297383
15	0xbb7b135b	-0.0038311097
16	0xbca34983	-0.019932514
17	0xbbaacc3c	-0.005212335
18	0xbd8e168e	-0.06937896
19	0xbbe9e5d7	-0.0071379947
20	0xbc396315	-0.011315127
21	0xbc6f8bc0	-0.014620721
22	0xbb1e8952	-0.0024190736
23	0xbba6f972	-0.005095654
24	0xbbb978eb	-0.0056601665
25	0xbe3c011d	-0.183598
26	0xbc557e0b	-0.013030539
27	0xbc113d89	-0.008864769
28	0xbc1a5f6e	-0.009422166
29	0xbba0c0ac	-0.004905781
30	0xbbdc914f	-0.0067311893
31	0xbb93d62c	-0.0045116153

block2.1.running_mean f4 [32]
0	0x389f90bd	7.6086704e-05
1	0xb8c1373a	-9.213244e-05
2	0xb85071af	-4.969694e-05
3	0xb901c644	-0.00012376258
4	0x3921a6da	0.00015416314
5	0x37c223fe	2.3143362e-05
6	0xb8c963c7	-9.603012e-05
7	0x38a39863	7.80083e-05
8	0x38be1564	9.06389e-05
9	0xb747fc4e	-1.1920069e-05
10	0x383ed002	4.5493252e-05
11	0x35e59674	1.7105617e-06
12	0x389ff1bf	7.6267395e-05
13	0x38683ad0	5.5367884e-05
14	0x388a28e9	6.587973e-05
15	0x382cb47e	4.1176092e-05
16	0x3858d9da	5.1701303e-05
17	0xb86653d7	-5.4914355e-05
18	0xb7887dbf	-1.6271018e-05
19	0xb965b0d6	-0.00021905018
20	0x3996f575	0.0002879311
21	0x38a01111	7.6325734e-05
22	0x389b4045	7.402947e-05
23	0x36361d0c	2.713702e-06
24	0xb7ccb253	-2.4401734e-05
25	0xb8986dbb	-7.268364e-05
26	0x3943fba9	0.000186904
27	0xb61cc496	-2.336024e-06
28	0x38723776	5.7748948e-05
29	0x356fca85	8.932914e-07
30	0xb871aa73	-5.761762e-05
31	0xb883b8da	-6.280998e-05

block2.1.running_var f4 [32]
0	0x3dd0e320	0.10199571
1	0x3ec4abe3	0.3841239
2	0x3d922d7d	0.071375825
3	0x3e7bb318	0.24580038
4	0x3e4790a0	0.19488764
5	0x3e204228	0.15650237
6	0x3e40c595	0.18825372
7	0x3e224276	0.15845665
8	0x3d275a24	0.04085745
9	0x3d27db6f	0.040980753
10	0x3d84535a	0.064612105
11	0x3d9320a9	0.07183964
12	0x3e54a6ed	0.20766802
13	0x3d0c0cd9	0.03419194
14	0x3d1d8600	0.03845787
15	0x3e512c3d	0.20427032
16	0x3d498ff9	0.04920957
17	0x3f433b72	0.7626258
18	0x3d247d65	0.040158648
19	0x3f1186dd	0.5684641
20	0x3e369543	0.17830376
21	0x3d097d4c	0.033566758
22	0x3e7bec39	0.2460183
23	0x3e69058a	0.22756019
24	0x3e48aa25	0.19596155
25	0x3d7753d2	0.06038267
26	0x3d38191e	0.04494583
27	0x407c1330	3.938671
28	0x3e80e176	0.25172013
29	0x3e3c73e6	0.18403587
30	0x3e93fa9a	0.2890213
31	0x3f4d45e2	0.8018476

block3.0.weight f4 [32, 1, 1, 16]
0	0x3dfbfb0b	0.12303742
1	0x3e07df78	0.1326884
2	0xbdfb7e5d	-0.12279961
3	0x3d9bd251	0.07608474
4	0x3e4a24a7	0.19740544
5	0x3d53d2af	0.051714595
6	0xbce5f18f	-0.028069286
7	0x3d06be8f	0.032896575
8	0xbbe0cfe8	-0.006860722
9	0x3e1074dc	0.14107078
10	0xbe19039c	-0.14942783
11	0x3e107e1e	0.1411061
12	0x3e203358	0.15644586
13	0xbe08a4aa	-0.13344064
14	0x3e5d6baf	0.2162311
15	0x3e83b506	0.25724047
16	0xbdcc230e	-0.09967624
17	0xbd8a1210	-0.067417264
18	0x3df569ef	0.11983096
19	0xbe426b0d	-0.18986149
20	0x3dcc73ed	0.099830486
21	0x3d65a3d7	0.056064453
22	0x3e16f1b0	0.14740634
23	0xbe5310e1	-0.20611908
24	0xbe4d7280	-0.2006321
25	0x3dd650ee	0.10464655
26	0x3db1f284	0.08688834
27	0xbe67a3c0	-0.2262106
28	0xbe0bbce1	-0.1364627
29	0xbe668b56	-0.2251409
30	0xbe358fbe	-0.17730615
31	0xbdde2127	-0.10846167
32	0x3e6480a1	0.22314693
33	0xbcaed448	-0.021341458
34	0x3e2dc9b8	0.16971481
35	0x3e7ea5df	0.24867962
36	0x3e08d244	0.1336146
37	0xbe3bf7c3	-0.18356232
38	0x3e1571f7	0.14594255
39	0x3de24fd8	0.11050385
40	0x3e5e8e35	0.21733935
41	0xbe581b87	-0.21104251
42	0x3e2b995a	0.16757718
43	0x3e619bc1	0.22032072
44	0xbe4e3520	-0.20137453
45	0x3d457c12	0.048214026
46	0x3e688bf0	0.22709632
47	0xbe21c8d1	-0.15799262
48	0x3dc851c6	0.09781222
49	0x3e00fbdf	0.12596081
50	0x3db12860	0.08650279
51	0x3e8444d2	0.25833756
52	0x3e5c43d6	0.21510252
53	0x3e6abfda	0.22924748
54	0xbbebdc1f	-0.0071978713
55	0x3e5ea09d	0.21740957
56	0xbe5252b3	-0.2053936
57	0xbdded626	-0.10880689
58	0xbd1ffe67	-0.039060976
59	0xbd4bc84f	-0.049751576
60	0x3e7544e1	0.23952056
61	0x3e047be9	0.12937893
62	0x3e369134	0.17828828
63	0x3e35309e	0.17694327
64	0xbe3e5f17	-0.18590961
65	0xbd1498d7	-0.036278572
66	0x3cf02106	0.029312622
67	0x3d4ce964	0.050027266
68	0x3defb739	0.11704869
69	0xbdbe27aa	-0.09284909
70	0xbdaa43ed	-0.08313737
71	0x3e43f057	0.19134651
72	0xbd8ebe41	-0.06969882
73	0xbe32266e	-0.17397472
74	0x3e236037	0.15954672
75	0x3e215da2	0.15758374
76	0xbda81786	-0.08207612
77	0xbd555f9f	-0.052093145
78	0xbe3b2235	-0.18274768
79	0xbe51fe02	-0.20507053
80	0x3dd0eac5	0.10201029
81	0xbdd28392	-0.10279001
82	0x3e4855b5	0.19563945
83	0xbe3d41a2	-0.18482068
84	0xbd039237	-0.032121863
85	0x3c813aa1	0.015775027
86	0x3e03a290	0.12854981
87	0x3e4cea74	0.20011312
88	0x3e33d55d	0.1756186
89	0x3ddf2d42	0.10897304
90	0xbdd10788	-0.102065146
91	0xbe2b084b	-0.16702382
92	0xbe5a6b9b	-0.2133011
93	0x3cab08b5	0.020878175
94	0x3e78c137	0.24292456
95	0xbd1748e8	-0.036934763
96	0xbd615b1e	-0.055018537
97	0xbe4ff3b2	-0.20307806
98	0x3d070597	0.032964315
99	0x3ddacd40	0.106836796
100	0xbe8ad245	-0.27113548
101	0xbe55f7f7	-0.20895372
102	0x3e065664	0.13118893
103	0x3c3e6f76	0.011623254
104	0xbd51361d	-0.051076997
105	0xbab49e9c	-0.001378018
106	0xbdaca8dc	-0.08430645
107	0xbe50f4d2	-0.20405892
108	0xbe88567b	-0.2662848
109	0x3deb86d1	0.115003236
110	0xbd87a319	-0.06622905
111	0xbe043e53	-0.129144
112	0xbd6baa0d	-0.05753522
113	0xbdffc287	-0.12488275
114	0xbd96dce2	-0.07366349
115	0xbe481c44	-0.19542032
116	0x3e3f5870	0.1868608
117	0x3dcacc8e	0.09902297
118	0xbddf3356	-0.108984634
119	0xbd95b393	-0.07309642
120	0x3dddb52e	0.10825573
121	0xbd9fe664	-0.078076154
122	0x3d8d7588	0.06907183
123	0x3d8ede3c	0.069759816
124	0xbe124801	-0.1428528
125	0x3d6f588f	0.058434065
126	0x3cc79aa9	0.02436574
127	0x3e5b66f6	0.21425995
128	0xbd91693c	-0.0710015
129	0xbd5d8984	-0.054086223
130	0x3e58b51d	0.21162839
131	0xbe34f049	-0.17669787
132	0x3ce884b1	0.028383585
133	0x3e6e2af5	0.23258574
134	0xbdba1eeb	-0.090879284
135	0x3e760541	0.24025442
136	0x3e63933d	0.22224136
137	0x3e71f3d5	0.23628171
138	0xbc73acce	-0.014872743
139	0x3e62ee02	0.22161105
140	0xbdbf691a	-0.093462184
141	0xbd996485	-0.07489876
142	0x3dc20e3f	0.094753735
143	0x3d61bbee	0.055110864
144	0x3e064d3e	0.13115403
145	0x3e6a1d0e	0.22862646
146	0xbe1f53b2	-0.15559271
147	0x3e040613	0.12892942
148	0x3d9de4e3	0.07709672
149	0x3dfd80c3	0.12378075
150	0x3de91de7	0.113826565
151	0xbdc27989	-0.09495837
152	0xbe451804	-0.19247442
153	0x3e4071f7	0.18793474
154	0xbe104150	-0.14087415
155	0x3e1f1346	0.15534696
156	0xbe73b443	-0.23799233
157	0xbd36f4c9	-0.04466704
158	0x3b251bd3	0.0025193586
159	0x3d0772eb	0.03306858
160	0x3ced4a6a	0.028966147
161	0x3d944fca	0.07241781
162	0xbcb09618	-0.021555945
163	0x3d8a0169	0.0673855
164	0x3e703f29	0.23461594
165	0xbe190563	-0.14943461
166	0xbc4eccfd	-0.012622115
167	0xbdbdd3ab	-0.09268888
168	0x3e5fe89d	0.21866079
169	0x3e594a75	0.2121981
170	0xbbd31a53	-0.006442347
171	0xbda62b81	-0.081137665
172	0xbe190bb6	-0.14945874
173	0x3e2ff2cc	0.17182463
174	0xbc208b0c	-0.009798776
175	0x3e66dda4	0.22545487
176	0x3e37ea47	0.17960463
177	0x3e85ede7	0.26158068
178	0x3e6b0d7c	0.22954363
179	0xbdd271cb	-0.102756105
180	0x3de75c60	0.11296916
181	0xbd6982c8	-0.05700949
182	0x3e29a760	0.16567755
183	0x3cc8278e	0.024432924
184	0x3d82d7ee	0.063888416
185	0xbdfbdd9e	-0.122981295
186	0xbe3102de	-0.1728625
187	0x3e073dfa	0.13207236
188	0x3dcdae9d	0.100430705
189	0x3d8230b8	0.063569486
190	0x3e52f8f2	0.20602778
191	0xbd6edcde	-0.058316104
192	0x3db6348d	0.08896742
193	0xbdfe7820	-0.12425256
194	0x3d52a244	0.05142428
195	0xbd57524f	-0.05256873
196	0x3e36bf5d	0.17846437
197	0x3e5daf64	0.21648937
198	0x3e5fea42	0.21866706
199	0x3c4dfd7b	0.0125726415
200	0x3e10d7ad	0.14144774
201	0xbe72e054	-0.23718387
202	0xbe0e44ce	-0.13893434
203	0x3d307ee9	0.04308978
204	0x3ad9b52a	0.0016609777
205	0xbe45141a	-0.1924595
206	0xbdda3ae1	-0.106557615
207	0xbde289ef	-0.11061465
208	0xbe728348	-0.23682892
209	0x3cc12d56	0.023581188
210	0x3e289add	0.16465326
211	0x3dcc4a43	0.09975102
212	0xbde69a0a	-0.11259849
213	0xbe62c047	-0.2214366
214	0xbe45dbee	-0.19322178
215	0x3b5cb8a7	0.0033679397
216	0x3e27a7bf	0.16372584
217	0xbdbdf9c4	-0.09276155
218	0xbe090bfc	-0.13383478
219	0xbe0476ab	-0.12935893
220	0xbcb1e7b8	-0.021716937
221	0xbe6e10b6	-0.23248562
222	0xbe58a1d1	-0.21155478
223	0x3e742254	0.2384122
224	0xbe212a38	-0.15738761
225	0xbdaa8e05	-0.08327869
226	0xbddb7924	-0.10716465
227	0xbe847e61	-0.2587767
228	0xbdabd2e8	-0.083898365
229	0x3d12fc76	0.035885297
230	0xbe13c0c3	-0.14429002
231	0xbd5cdb4d	-0.05392008
232	0xbd20676e	-0.03916114
233	0xbe8f4f31	-0.27990106
234	0x3e0e0be8	0.1387173
235	0x3e26f355	0.16303761
236	0x3e06e84a	0.13174549
237	0xbde65406	-0.11246495
238	0x3dc7e590	0.097605824
239	0xbe84f76c	-0.25970018
240	0xbd8336be	-0.064069256
241	0xbd4d1dc7	-0.050077226
242	0xbdad8eb5	-0.08474485
243	0x3dcd7210	0.10031521
244	0xbde77ef7	-0.113035135
245	0xbce769d0	-0.028248698
246	0xbd8e1c13	-0.069389485
247	0xbe6da9e6	-0.23209342
248	0xbd35620b	-0.044282954
249	0xbe5011d6	-0.20319304
250	0x3e12c230	0.14331889
251	0x3dfcb57d	0.12339304
252	0x3e69f7cc	0.22848433
253	0xbd9bf7c3	-0.07615616
254	0x3b82ab82	0.0039877305
255	0x3d2ef8ec	0.04271786

block3.1.weight f4 [32, 32, 1, 1]
0	0x3d80e700	0.0629406
1	0xbe0f2a9a	-0.13981095
2	0x3d1de6ee	0.03855031
3	0x3e240385	0.16016968
4	0x3deefc46	0.11669211
5	0x3e14b828	0.14523375
6	0x3db59282	0.08865835
7	0xbc803799	-0.015651511
8	0x3d6f6ddb	0.058454376
9	0xbd8a5de4	-0.067561895
10	0x3e1e74de	0.15474269
11	0x3dc17d77	0.09447759
12	0xbe024bee	-0.12724277
13	0x3e17bbcf	0.14817737
14	0xbbaf3c7b	-0.005347786
15	0xbc16129b	-0.009159709
16	0xbd366424	-0.044529095
17	0xbd298e48	-0.041395456
18	0x3c17c88d	0.009264124
19	0xbda46dfc	-0.0802879
20	0xbe28117e	-0.16412923
21	0xbdc603a5	-0.09668664
22	0xbd1a4031	-0.037658874
23	0x3e066dac	0.13127774
24	0x3dfd604b	0.12371882
25	0xbdd7cb0f	-0.10536777
26	0xbc063cb1	-0.008193181
27	0xbd63c9f4	-0.05561252
28	0xbdbbe3e2	-0.091743246
29	0xbcfce8ae	-0.03087267
30	0xbd68fb45	-0.056880254
31	0x3dcea67d	0.10090349
32	0xbdd286dc	-0.10279629
33	0x3cb82e4b	0.022483012
34	0xbdcf4b5c	-0.101217955
35	0xbd6c2059	-0.057648037
36	0x3e0f3945	0.1398669
37	0xbdb785cb	-0.08961066
38	0x3c3c3a44	0.011488501
39	0x3e2524a1	0.16127254
40	0x3d55390c	0.052056357
41	0xbdb69fbb	-0.08917185
42	0xbdd4ea6a	-0.103962734
43	0xbd96ea3f	-0.07368898
44	0xbd585b9f	-0.05282175
45	0x3daa4ca0	0.08315396
46	0xbc8c2770	-0.017108649
47	0x3e15186e	0.145601
48	0xbdcabde2	-0.098994985
49	0xbd60d4bf	-0.05489039
50	0x3db1d5c3	0.0868335
51	0x3e077cf3	0.13231258
52	0x3e26fb9c	0.16306919
53	0x3d0742a3	0.033022534
54	0x3bf048d9	0.007332903
55	0xbd99915b	-0.074984275
56	0x3dc0d22e	0.094150886
57	0xbe00221e	-0.12513015
58	0xbd33ddaa	-0.043912567
59	0xbe15b1a8	-0.14618552
60	0xbe25632b	-0.16151111
61	0x3dccb3a4	0.09995201
62	0x3c6e9e80	0.0145641565
63	0x3e1019ee	0.14072391
64	0x3e1a85b8	0.15090072
65	0x3daee334	0.08539429
66	0x3da23201	0.07919694
67	0xbcfc51b6	-0.030800682
68	0x3db7521f	0.0895121
69	0x3da7005b	0.08154365
70	0x3d1d72a1	0.038439397
71	0xbb93886f	-0.004502348
72	0x3d05d672	0.032675214
73	0x3a56ae1c	0.00081893965
74	0xbded2c0f	-0.11580669
75	0x3d6af106	0.057358764
76	0xbe001b44	-0.12510401
77	0x3da31912	0.07963766
78	0xbdfec7a0	-0.12440419
79	0xbd6cef7e	-0.057845585
80	0xbd96aa9f	-0.07356762
81	0x3e0a4446	0.13502607
82	0xbe1c1a54	-0.15244418
83	0x3db2ead6	0.08736198
84	0x3daa5fa1	0.08319021
85	0x3df68f2d	0.12039027
86	0x3d356795	0.044288237
87	0x3db9acb6	0.09066145
88	0x3e099e1e	0.13439223
89	0x3d952c24	0.0728381
90	0x3d6c78ac	0.05773227
91	0xbe054d42	-0.13017753
92	0xbd2d2706	-0.042273544
93	0x3ca2cc28	0.01987274
94	0x3cb28921	0.021793904
95	0xbd6d03f1	-0.057865087
96	0xbe260b3c	-0.16215223
97	0xbd411697	-0.047140684
98	0x3db6796d	0.08909879
99	0x3e2fa8b7	0.17154203
100	0xbe27de34	-0.16393358
101	0x3db40ee2	0.08791901
102	0xbe3d3ecb	-0.18480985
103	0xbe2b13fd	-0.16706844
104	0xbdc632d8	-0.096776664
105	0xbc97a10a	-0.018509407
106	0x3d69491a	0.05695448
107	0xbdfc815b	-0.1232936
108	0x3e08d3b9	0.13362016
109	0x3e19780a	0.14987198
110	0xbbd672a1	-0.0065444265
111	0x3e107e0a	0.1411058
112	0xbd968b45	-0.07350782
113	0xbd7df74f	-0.06200343
114	0xbd3e5474	-0.04646726
115	0x3cb65f60	0.022262275
116	0xbdf9fa35	-0.12205926
117	0xbe12bd15	-0.14329942
118	0x3d89d869	0.0673073
119	0x3d620637	0.05518171
120	0x3e2fe183	0.1717587
121	0xbd467fad	-0.048461605
122	0x3d7ea081	0.062164787
123	0xbd9644a9	-0.07337315
124	0x3daeeaf3	0.08540907
125	0xbc3692d1	-0.011143402
126	0x3e041263	0.12897639
127	0x3dced0e3	0.10098436
128	0x3e108eea	0.14117017
129	0x3dad1962	0.08452107
130	0x3a2779c8	0.0006388691
131	0x3e22241b	0.15834086
132	0xbdd05f8d	-0.10174475
133	0x3e245524	0.16048104
134	0x3e2f0e0d	0.17095204
135	0x3e272dca	0.16326061
136	0xbda092f4	-0.07840529
137	0xbdb96b37	-0.09053653
138	0x3c411b74	0.0117863305
139	0x3d3b2842	0.04569269
140	0x3db1c90b	0.08680924
141	0x3d932d46	0.071863696
142	0x3e2093f7	0.15681444
143	0xbd3bdf21	-0.04586709
144	0xbd73011b	-0.059327226
145	0x3d6de49d	0.05807935
146	0x3d935832	0.07194556
147	0xbdc5e0ca	-0.09662016
148	0x3c860b3c	0.016362779
149	0xbe0792b7	-0.13239561
150	0xbd5e02fa	-0.054202057
151	0xbd8881db	-0.06665393
152	0x3e1a2651	0.15053679
153	0xbe3baf5b	-0.18328612
154	0xbdd28b61	-0.10280491
155	0xbe30a3ea	-0.17250028
156	0x3d3234fe	0.04350757
157	0xbe095b4b	-0.13413732
158	0x3d716ee3	0.05894364
159	0xbdf40ce7	-0.119165234
160	0xbdd7156d	-0.105021335
161	0xbdb43daf	-0.08800828
162	0x3d3fe703	0.04685117
163	0x3e39a99a	0.18131104
164	0x3e211ef6	0.15734467
165	0xbc2cad70	-0.010539398
166	0xbe3cf464	-0.18452603
167	0xbd673ea6	-0.05645623
168	0xbd6b223b	-0.05740569
169	0xbd073bc1	-0.03301597
170	0x3d8ecc69	0.06972582
171	0x3dd829ee	0.105548725
172	0x3da0f4c7	0.078591876
173	0x3d2ce2c2	0.04220844
174	0xbdac0668	-0.083996594
175	0xbb846e32	-0.0040414566
176	0x3cd62964	0.026142783
177	0xbda70fd5	-0.081573166
178	0xbd038df5	-0.032117803
179	0xbc7cda17	-0.015432856
180	0xbe235aa0	-0.1595254
181	0x3deed4fa	0.11661716
182	0xbc8c1a7a	-0.017102469
183	0xbe18fa17	-0.14939152
184	0x3e138e1b	0.14409678
185	0xbdab3248	-0.083592
186	0x3d6f3d23	0.058407914
187	0x3e2adbd9	0.16685428
188	0x3c0ce1a6	0.008598721
189	0x3d4b22cd	0.049593735
190	0x3d8c90a7	0.06863528
191	0x3e05fd1d	0.13084836
192	0xbd42be4c	-0.047544762
193	0xbdcecd46	-0.100977466
194	0xbb5c8672	-0.0033649472
195	0x3e18e5d3	0.14931421
196	0x3c9d7ffb	0.019226065
197	0x3dfa170e	0.122114286
198	0xbbfcdf10	-0.007717021
199	0x3d5300bf	0.051514383
200	0x3c919626	0.017771792
201	0x3c1152bd	0.008869824
202	0xbe2412b3	-0.16022758
203	0xbe175040	-0.14776707
204	0x3c898dbe	0.01679122
205	0x3daa1d5a	0.083063796
206	0x3dee62a0	0.11639905
207	0x3bd4434c	0.006477749
208	0x3d9086fc	0.07056996
209	0x3d9b1d89	0.07573993
210	0xbe2d5985	-0.1692868
211	0xbe1ab0ff	-0.15106581
212	0xbe0e5d98	-0.1390289
213	0x3b0d006f	0.002151515
214	0xbde1011f	-0.10986542
215	0xbd5fb46a	-0.054615416
216	0xbceedbb9	-0.029157506
217	0x3daa44cd	0.08313904
218	0x3d285163	0.04109324
219	0x3e251a26	0.16123256
220	0x3e1fc27e	0.15601537
221	0xbdde63f5	-0.10858909
222	0x39c18c9e	0.00036916597
223	0x3cdcb9e9	0.026944118
224	0x3e2a97e7	0.16659509
225	0xbd564013	-0.0523072
226	0xbce166c8	-0.02751483
227	0xbd9dc9a6	-0.07704477
228	0x3dee064c	0.11622295
229	0xbd2d8ca9	-0.042370472
230	0xbdbef5bf	-0.09324216
231	0x3dd3f894	0.10350147
232	0x3e1d0d54	0.15337116
233	0xbb16b016	-0.002299314
234	0xbdc25eb0	-0.094907165
235	0x3e26797e	0.16257283
236	0xbd4892e9	-0.04896823
237	0xbd9d53f9	-0.07682032
238	0xbe1b313a	-0.15155497
239	0xbda4dd3b	-0.08050009
240	0xbddcb1f7	-0.107761316
241	0xbdb1b78a	-0.086775854
242	0xbe4e7015	-0.20159943
243	0xbcdc4cae	-0.026892032
244	0x3d811d2d	0.06304393
245	0xbe0a2643	-0.13491158
246	0xbaeb0bd0	-0.0017932598
247	0xbd591017	-0.05299386
248	0x3d93bcc8	0.072137415
249	0x3e54a77c	0.20767015
250	0xbcaaad2a	-0.020834524
251	0xbda8de29	-0.08245499
252	0xbdf69296	-0.12039678
253	0xbdb46e3f	-0.0881009
254	0x3d2b9f2a	0.041899838
255	0x3cf7b339	0.030236827

block3.2.weight f4 [32]
0	0x3f810245	1.0078818
1	0x3f8169df	1.0110434
2	0x3f80f6bc	1.0075297
3	0x3f80b4ca	1.0055172
4	0x3f819803	1.0124515
5	0x3f80a723	1.0051006
6	0x3f809ad3	1.0047249
7	0x3f84b60a	1.0368054
8	0x3f880599	1.0626708
9	0x3f800f7f	1.0004729
10	0x3f833f67	1.0253724
11	0x3f818005	1.0117193
12	0x3f8129bd	1.0090863
13	0x3f840e07	1.0316781
14	0x3f80f86b	1.0075811
15	0x3f8272fe	1.0191343
16	0x3f7f8e1a	0.99826205
17	0x3f8265b3	1.0187286
18	0x3f8054cb	1.0025877
19	0x3f81ecc5	1.0150381
20	0x3f82440e	1.0177019
21	0x3f81985d	1.0124623
22	0x3f81c49d	1.0138127
23	0x3f8063d8	1.003047
24	0x3f852b16	1.0403774
25	0x3f807c52	1.003794
26	0x3f807953	1.0037025
27	0x3f82fd66	1.0233581
28	0x3f80ae61	1.0053216
29	0x3f81d172	1.0142043
30	0x3f81ff42	1.0156024
31	0x3f814098	1.0097837

block3.2.bias f4 [32]
0	0xb9f2a459	-0.00046280285
1	0x3cbfd059	0.023414778
2	0xbc450b6b	-0.012026648
3	0xbc0b3c39	-0.008498245
4	0x3c573292	0.0131346155
5	0xbc0b8595	-0.008515735
6	0xbbe5626d	-0.0070002587
7	0xbd1337c3	-0.03594185
8	0xbd38e4d1	-0.04514009
9	0x3b6528aa	0.0034966865
10	0xbca0080c	-0.019535087
11	0xbca4795b	-0.020077398
12	0x3cca971f	0.024730263
13	0xbd0ccc57	-0.03437456
14	0x3c9553d0	0.018228441
15	0x3cee636d	0.029100144
16	0xbb5e6a18	-0.0033937749
17	0xbce5b672	-0.028041098
18	0x3b7a37b0	0.0038180165
19	0x3cf069a1	0.029347243
20	0xbc88b6da	-0.016688753
21	0xbc3270fc	-0.010891195
22	0xbb9f8e00	-0.0048692226
23	0xba024cfd	-0.00049705786
24	0xbd150925	-0.036385674
25	0x3c0c7e94	0.0085751
26	0xbc5e0d9f	-0.013553052
27	0x3d4470e0	0.04795921
28	0xbc476215	-0.012169381
29	0xbcda5445	-0.026651511
30	0xbc972926	-0.018452238
31	0x3cb5abc4	0.02217663

block3.2.running_mean f4 [32]
0	0x3d638f25	0.055556435
1	0xbe0ed3eb	-0.13948028
2	0x3d507f2e	0.050902538
3	0x3ce3ab4e	0.027791645
4	0xbd29a862	-0.041420348
5	0x3d0e4651	0.034735028
6	0x3d166d7d	0.03672551
7	0x3e20fc79	0.1572131
8	0x3e30ad77	0.17253672
9	0xbd9afe2e	-0.07568012
10	0x3e0500ea	0.1298863
11	0x3dc34ab4	0.09535733
12	0xbe154cfe	-0.14580151
13	0x3e0f1a5f	0.13974904
14	0xbd622eed	-0.055220533
15	0xbdd9aa3b	-0.10628172
16	0xbb9c4494	-0.0047689173
17	0x3df22140	0.11822748
18	0xbd4f835c	-0.050662383
19	0xbdb47fd7	-0.08813446
20	0x3d6884bb	0.056767207
21	0x3e126feb	0.14300506
22	0x3c730594	0.014832873
23	0x3d4a810b	0.04943947
24	0x3e19dd40	0.15025806
25	0xbd8cc230	-0.06872976
26	0xbc34aa6e	-0.011026962
27	0xbde06269	-0.1095627
28	0x3cd0d86a	0.02549382
29	0x3df318cb	0.11869963
30	0x3deb03e1	0.11475349
31	0xbdd22c4a	-0.10262354

block3.2.running_var f4 [32]
0	0x3d447f07	0.047972705
1	0x3d822b7d	0.06355951
2	0x3d38b05e	0.04509007
3	0x3d68d857	0.056846943
4	0x3d9117a3	0.070845865
5	0x3d4be79d	0.04978143
6	0x3d75a34e	0.059970193
7	0x3dbc2e48	0.09188515
8	0x3da6068d	0.08106718
9	0x3d3c57fd	0.04598235
10	0x3d9f228b	0.077702604
11	0x3d9e2009	0.07720954
12	0x3d88dd74	0.06682864
13	0x3d7e5268	0.062090307
14	0x3d3b3d43	0.04571272
15	0x3d9f8eca	0.07790907
16	0x3d73530b	0.059405368
17	0x3d2f1e35	0.042753417
18	0x3d9537ab	0.072860084
19	0x3d2d35d3	0.04228766
20	0x3dcb6666	0.0993164
21	0x3d81a6b4	0.06330624
22	0x3d63d5af	0.055623706
23	0x3d80a224	0.06280926
24	0x3da9df1e	0.08294509
25	0x3d7bac1d	0.061443437
26	0x3d76e67b	0.060278397
27	0x3dac5333	0.084143065
28	0x3d4613ed	0.048358846
29	0x3d728ed2	0.059218235
30	0x3d8c624b	0.068546854
31	0x3d95a4a5	0.07306794

fc.weight f4 [4, 224]
0	0xbd63dda3	-0.05563129
1	0xbc869917	-0.01643042
2	0xbd519e37	-0.051176276
3	0x3c17837e	0.009247659
4	0xbcb306d6	-0.021853846
5	0x3d4e6740	0.050391436
6	0x3d43d16c	0.047807142
7	0x3d08721e	0.033311956
8	0x3d27e21e	0.040987127
9	0xbadec98a	-0.0016997319
10	0x3d18f2fa	0.037341096
11	0x3c046f7b	0.00808322
12	0x3d383487	0.04497197
13	0x3ccefab7	0.025266035
14	0xbc833804	-0.016017921
15	0x3bb5bd62	0.005546258
16	0x3a479f34	0.00076149707
17	0xbc018ce7	-0.007907129
18	0xbcf67529	-0.030085163
19	0x3c0aefd1	0.008480028
20	0xbc55084d	-0.013002467
21	0xbc8e4c43	-0.017370349
22	0xbd0f0084	-0.0349126
23	0x3c43ce22	0.011951001
24	0x3c848608	0.016177192
25	0x3aa23dd0	0.0012378041
26	0xbbb9fd79	-0.0056759682
27	0x3d5ecdeb	0.054395597
28	0xbd1da099	-0.038483236
29	0x3c74489d	0.0149098905
30	0xbb7b68f9	-0.003836213
31	0x3c22e101	0.00994134
32	0x3c8be3c3	0.017076379
33	0x3c3a60e5	0.0113756405
34	0x3d9314c3	0.07181694
35	0xbcbb353a	-0.022852529
36	0xbcf71556	-0.030161541
37	0xbcff949a	-0.031198788
38	0xbb925165	-0.0044652694
39	0x3ca25a92	0.019818578
40	0xbcab262f	-0.02089223
41	0x3bf6b479	0.0075288382
42	0xbd21c2c7	-0.039492395
43	0x3cccfe69	0.025023656
44	0xbc52b1ff	-0.01285982
45	0x3b29714c	0.0025854884
46	0x3c11aa16	0.008890649
47	0xbc898ad3	-0.01678983
48	0x3b9cc4aa	0.0047841864
49	0xbdb49d48	-0.088190615
50	0xbc87451f	-0.016512452
51	0xbcc90671	-0.024539204
52	0xbcb6fc2b	-0.02233704
53	0xbd2e92f1	-0.042620603
54	0xbcac2226	-0.021012377
55	0xbd03baeb	-0.03216068
56	0xbda3116a	-0.07962306
57	0xbd189329	-0.037249718
58	0xbd539cbd	-0.05166315
59	0xbcc52453	-0.024065172
60	0xbd6673b0	-0.056262672
61	0xbd044ced	-0.032299925
62	0xbd34d3c8	-0.044147283
63	0x3b934d69	0.004495312
64	0xbc5fe8c9	-0.01366634
65	0xbc157172	-0.009121286
66	0xbb0fa4e5	-0.0021918353
67	0x3c8bbbfc	0.017057411
68	0xbc1d18ee	-0.009588463
69	0x3c5b5bf9	0.013388627
70	0xbd85c2a0	-0.065312624
71	0xbbcb9f89	-0.0062140864
72	0x3b1482f8	0.0022661071
73	0xbd1f2569	-0.038854036
74	0xbd3b5c81	-0.045742515
75	0xbd3d16a5	-0.046164174
76	0x3c12c4ca	0.008958051
77	0xbd20ff0e	-0.03930574
78	0xbc58a274	-0.013222326
79	0xbcb1cee3	-0.021705097
80	0x3bf537f7	0.007483478
81	0x3c3f2444	0.011666361
82	0xb963bb5e	-0.00021718207
83	0xbc235632	-0.009969281
84	0x3d55f6f4	0.052237466
85	0x3b669d3a	0.003518893
86	0x3cb39249	0.02192034
87	0x3cc8eaaa	0.024525959
88	0x3d2f6798	0.042823404
89	0x3b5e8fd6	0.0033960245
90	0x3d06e61c	0.032934293
91	0xbd536808	-0.051612884
92	0xbc42af1d	-0.011882571
93	0xbc5fc539	-0.013657861
94	0xbcad0dbb	-0.021124711
95	0xbc4d64d4	-0.012536246
96	0xbd83831b	-0.06421491
97	0xbd5f6c1b	-0.054546457
98	0xbc3f58eb	-0.011678915
99	0x3b34f1e6	0.0027610003
100	0x3b018d9b	0.0019768241
101	0x3cd19290	0.025582582
102	0x3caf9731	0.021434398
103	0x3d251704	0.040305153
104	0x3d629d6d	0.055325914
105	0x3c2eaff4	0.010662068
106	0x3d4bfa6d	0.04979937
107	0x3d4647a6	0.048408173
108	0x3d07d4d9	0.03316197
109	0x3d52b24d	0.051439572
110	0x3d0e2fe2	0.034713633
111	0x3d428318	0.047488302
112	0xbba80b1f	-0.005128279
113	0xbcd92d6c	-0.026510917
114	0xbb54f802	-0.0032496457
115	0xbd09a28b	-0.03360228
116	0x3a133c9d	0.0005616637
117	0xbbf73176	-0.007543738
118	0x3bddc0cf	0.0067673693
119	0xbdb16048	-0.08660942
120	0xbd4abf54	-0.04949887
121	0x39a0fd71	0.00030706407
122	0xbd1b92d6	-0.03798183
123	0xbd3703f9	-0.044681523
124	0xbd1725e9	-0.03690139
125	0x3c83de5c	0.01609724
126	0x3d16182f	0.036644157
127	0x3be494e3	0.0069757565
128	0x3c454c3e	0.012042103
129	0x3cdb103b	0.026741138
130	0x3cbc1cf6	0.022963028
131	0x3c77a563	0.015115115
132	0x3bca10b0	0.00616654
133	0x3d2e56bf	0.042563196
134	0x3c5119b1	0.012762473
135	0x3d5f89d4	0.054574803
136	0x3d9e3b4d	0.077261545
137	0x3cd1e7d0	0.025623232
138	0x3ca380bf	0.019958852
139	0x3d418a67	0.04725113
140	0xbd0729d5	-0.03299888
141	0x3c8fc93a	0.017552007
142	0xbbfa2c88	-0.007634703
143	0x3bdef86a	0.0068045156
144	0xbc85b45a	-0.01632135
145	0xbcf6c45e	-0.030122932
146	0xbc0a3af2	-0.008436905
147	0xbd76acf7	-0.060223546
148	0xbc69789e	-0.014249949
149	0xbcced88e	-0.025249746
150	0x3bc48866	0.0059977053
151	0xbc0bd940	-0.008535683
152	0xbbd23628	-0.0064151473
153	0x3d2b30c0	0.04179454
154	0xbd13cd7f	-0.03608465
155	0xbceed44a	-0.029153962
156	0xbbc27073	-0.005933815
157	0xbd01ae9c	-0.03166066
158	0xbc5897df	-0.013219803
159	0xbba55745	-0.0050458037
160	0x3da7b10e	0.081880674
161	0xbd806995	-0.06270138
162	0x3c00a185	0.007851009
163	0x3cac303c	0.021019094
164	0xbcf2703d	-0.029594535
165	0x3c2410ec	0.0100138
166	0xbcbe449b	-0.023226073
167	0xbc80d9be	-0.015728828
168	0xbd52e5ab	-0.05148856
169	0xbd4c017c	-0.049806103
170	0xbca57176	-0.020195704
171	0xbd04be7b	-0.03240822
172	0xbd0e4430	-0.034732997
173	0xbd38675d	-0.04502045
174	0xbcdcf82b	-0.026973804
175	0x3d3f6483	0.046726715
176	0x3d4e486d	0.05036204
177	0x3cfce0c3	0.030868893
178	0x3c1bcd32	0.009509372
179	0xbc60a2c1	-0.013710679
180	0x3d1bac27	0.038005974
181	0x3d1f9f76	0.038970433
182	0xbbbf5d8f	-0.0058400105
183	0xbc1a4177	-0.009415022
184	0x3c16a416	0.009194395
185	0x3cab85a6	0.020937752
186	0x3ca6cdba	0.02036177
187	0x3c3df21f	0.011593371
188	0xbd283d0b	-0.04107384
189	0x3d214874	0.039375737
190	0x3d2ccfc4	0.04219033
191	0x3d5329bf	0.051553484
192	0x3c323674	0.01087724
193	0x3d0a4c33	0.033764075
194	0x3da89685	0.08231834
195	0x3dc6c9dc	0.0970647
196	0xbc1bd097	-0.009510181
197	0xbb8b4632	-0.0042503113
198	0xbd0a5dbc	-0.0337808
199	0x3b561f47	0.0032672451
200	0x3ca548e1	0.020176353
201	0xbd06b9b9	-0.032891963
202	0x3b9858d0	0.004649259
203	0xbd65eb1a	-0.056132413
204	0xbd3272c3	-0.043566477
205	0xbd01d917	-0.031701174
206	0xbcb8eed0	-0.022574812
207	0xbd312aa1	-0.043253545
208	0xbc7613e5	-0.015019392
209	0x3d193d57	0.037412014
210	0xbd67b9c3	-0.05657364
211	0xbd7c5bc7	-0.061610963
212	0xbc01368c	-0.00788654
213	0x3c73ac16	0.014872571
214	0x3c09ce1a	0.008410955
215	0xbd0838c8	-0.033257276
216	0x3d1fa50d	0.038975764
217	0x3c8aa4fa	0.01692437
218	0x3cc1ccae	0.02365717
219	0x3d3eaa37	0.04654905
220	0xbd2df8a3	-0.042473447
221	0x3cde8221	0.02716166
222	0x3c2fd003	0.010730746
223	0x3cac9cc1	0.02107084
224	0x3d3f992d	0.04677694
225	0xbd0c17d8	-0.034202427
226	0x3cb5cfd3	0.022193825
227	0x3d0f8b3d	0.035044897
228	0x3d2452f4	0.040118173
229	0x3cb2abcd	0.021810437
230	0xbcd672ce	-0.02617779
231	0x3d6b671f	0.05747139
232	0x3c9e2ce8	0.019308522
233	0x3d93412f	0.07190167
234	0x3d50eab3	0.051005077
235	0x3b6ea511	0.0036414305
236	0x3c2492a8	0.010044731
237	0x3d108c54	0.035290077
238	0xbd18b8cd	-0.037285615
239	0xbd7a3737	-0.061087813
240	0xbd70d14c	-0.05879335
241	0xbd53e08b	-0.051727813
242	0xbbe4f3b5	-0.00698706
243	0xbcc6d2a4	-0.024270363
244	0x3cbf5f44	0.023360856
245	0xbc91c040	-0.017791867
246	0xbce54fca	-0.027992148
247	0xbd201802	-0.039085396
248	0xbc7df00b	-0.015499125
249	0x3cc6b618	0.024256751
250	0x3c0f80ee	0.008758767
251	0x3c97c05f	0.018524347
252	0x3daf08c2	0.08546592
253	0x3c4d2ad7	0.012522421
254	0x3d165d41	0.036710028
255	0x3d8956de	0.06706022

fc.bias f4 [4]
0	0x3db68a26	0.089130685
1	0x3df4db6f	0.11955916
2	0xbdaeace9	-0.08529074
3	0xbdfc2727	-0.12312155
