pythonProject/EEGNET_MODEL.pth (torch, 23188 bytes, 18 tensors)

block1.0.weight f4 [16, 1, 1, 32]
0	0xbc8283cf	-0.015931992
1	0x3dc28244	0.094975024
2	0xbe05fa20	-0.13083696
3	0xbdcd006f	-0.10009848
4	0xbd07cb25	-0.033152718
5	0x3d9a294f	0.0752741
6	0x3cbb5124	0.02286584
7	0x3e36147d	0.17781253
8	0x3d74f8ab	0.05980746
9	0x3e0ed7ba	0.1394948
10	0x3d275dff	0.040861126
11	0x3c9d3ee4	0.019195028
12	0xbe488e06	-0.19585428
13	0xbe6e5c7d	-0.23277469
14	0xbe59d388	-0.21272099
15	0xbd9e38a0	-0.07725644
16	0x3d8a7594	0.067607075
17	0x3e546371	0.20741059
18	0x3d9c49aa	0.07631238
19	0x3e0b6097	0.13611065
20	0x3e52ccf0	0.2058599
21	0x3e2c8eb6	0.16851315
22	0xbe0af874	-0.1357134
23	0xbd9b0269	-0.07568819
24	0xbe87c051	-0.26513913
25	0xbe2f68cb	-0.17129819
26	0x3db46aa7	0.08809405
27	0xbd8bbec2	-0.068234935
28	0x3dc2f311	0.095190175
29	0x3e2f74ef	0.1713445
30	0x3d177e82	0.03698588
31	0x3d6f9d96	0.058499895
32	0x3eacd451	0.33755735
33	0x3e197627	0.14986478
34	0xbe1aa88a	-0.15103355
35	0xbead58ca	-0.33856803
36	0xbe8878ba	-0.26654607
37	0x3de46289	0.111516066
38	0x3e4c1bcc	0.19932479
39	0x3e9a91dd	0.3018941
40	0x3e6e7b20	0.23289156
41	0x3d6ff558	0.058583587
42	0x3d84559f	0.064616434
43	0xbe4e78d5	-0.20163281
44	0xbe42c28a	-0.19019523
45	0xbe01f0fa	-0.12689582
46	0x3e007747	0.125455
47	0x3e204d21	0.15654422
48	0x3d00be49	0.03143147
49	0x3db3a150	0.08771002
50	0x3e162671	0.14663102
51	0x3e10a1fb	0.1412429
52	0x3b0afe7a	0.0021208809
53	0xbd074931	-0.033028785
54	0x3dd20586	0.1025496
55	0xbd846616	-0.06464784
56	0x3dbb9742	0.091597095
57	0xbd98421a	-0.07434483
58	0xbd9d61af	-0.07684647
59	0xbd61c6d7	-0.05512127
60	0x3df51ab0	0.11967981
61	0x3e0f4625	0.13991602
62	0x3b5e4627	0.0033916326
63	0x3e117dc3	0.1420813
64	0x3bb1b639	0.005423334
65	0x3cc6c290	0.024262697
66	0x3db2c4cc	0.08728942
67	0x3da1363b	0.07871672
68	0x3db532fb	0.088476144
69	0x3deb92d0	0.11502612
70	0xbe3d2227	-0.1847006
71	0xbdcb88ab	-0.09938177
72	0x3d354a2a	0.04426018
73	0x3e14ede8	0.14543879
74	0x3e52af3f	0.20574664
75	0x3e854c2a	0.2603467
76	0x3e35ed3e	0.17766282
77	0xbcc7fffa	-0.024414051
78	0x3d6326b7	0.055456843
79	0xbe3143de	-0.17311046
80	0xbe902711	-0.28154805
81	0x3d5ad74c	0.05342798
82	0x3e0a91d1	0.13532187
83	0xbd1c7455	-0.03819688
84	0x3e6be1a8	0.230353
85	0x3e0d5d63	0.13805155
86	0x3d10d028	0.035354763
87	0xbde41a4a	-0.11137827
88	0xba8440d7	-0.0010090125
89	0xbe07a677	-0.13247095
90	0x3daf3666	0.085552976
91	0x3e0573ee	0.13032505
92	0x3e0c7471	0.13716294
93	0x3d2537d9	0.040336464
94	0xbe318405	-0.17335518
95	0x3ba052d6	0.0048926873
96	0x3e563655	0.20919164
97	0xbd0f82dd	-0.03503691
98	0xbe881fd8	-0.26586795
99	0xbe46108d	-0.19342251
100	0x3e12afee	0.14324924
101	0x3e1edd7c	0.15514177
102	0xbcbe9310	-0.023263484
103	0xbcc3df4f	-0.023910193
104	0xbe3e8d8f	-0.18608688
105	0xbd46140d	-0.048358966
106	0xbe268573	-0.16261844
107	0xbe086d2f	-0.133229
108	0x3cabaf01	0.020957472
109	0x3d7b5ec0	0.061369658
110	0xbd873a18	-0.066028774
111	0x3d606814	0.054786757
112	0xbe4438a7	-0.19162236
113	0x3d7bb24d	0.061449338
114	0x3d86e5ab	0.065867744
115	0xbdff52f3	-0.12466993
116	0x3d045d52	0.03231556
117	0x3db74bed	0.089500286
118	0x3d45fe60	0.048338294
119	0xbd0538f1	-0.032525007
120	0xbdb07e1f	-0.08617806
121	0xbe1f2f51	-0.15545394
122	0xbe368e0c	-0.17827624
123	0x3dcf4085	0.10119728
124	0xbd4357e0	-0.047691226
125	0x3d03dd9b	0.03219376
126	0x3c37b897	0.011213443
127	0xbe31fb7d	-0.17381091
128	0xbe9d93a1	-0.30776694
129	0xbe757ebb	-0.23974125
130	0xbd7d51a7	-0.061845448
131	0x3bc3ac19	0.0059714434
132	0xbe37ce22	-0.17949727
133	0xbd9eb704	-0.07749751
134	0x3dd03a44	0.10167363
135	0x3cf837f3	0.030300116
136	0x3daceda6	0.08443765
137	0x3d09d644	0.033651605
138	0x3c3a16ac	0.011357944
139	0x3cbf4b66	0.023351382
140	0x3d69add6	0.05705055
141	0x3d036f25	0.032088418
142	0x3e026572	0.12734011
143	0xbd004c05	-0.031322498
144	0xbe1cfcef	-0.15330862
145	0xbdadefe2	-0.0849302
146	0x3dd2e7a8	0.10298091
147	0xbc170fed	-0.009220106
148	0xbd955add	-0.072927214
149	0xbdc3191b	-0.09526273
150	0xbde12b51	-0.1099459
151	0xbdc12152	-0.094301835
152	0x3b863aba	0.004096356
153	0x3df73424	0.12070492
154	0x3df50798	0.11964339
155	0xbdef847c	-0.11695191
156	0x3e46ba42	0.19406989
157	0x3c8c270f	0.017108468
158	0x3e3afb14	0.18259841
159	0x3e472bf0	0.19450355
160	0x3ded0e90	0.11575043
161	0x3b5f70cc	0.0034094332
162	0xbe265d3a	-0.162465
163	0xbe40076c	-0.18752831
164	0xbdc4f88e	-0.096177205
165	0xbd9cf6da	-0.07664271
166	0xbe0ca046	-0.13733014
167	0x3d323414	0.043506697
168	0xbdf6f3fb	-0.12058254
169	0x3d42586a	0.0474476
170	0x3e50817a	0.20361891
171	0xbd0ee80f	-0.034889277
172	0x3e372e86	0.17888841
173	0x3dc74b8e	0.09731208
174	0xbdd66b64	-0.10469702
175	0x3e23be00	0.15990448
176	0x3c9b906f	0.01898977
177	0xbd671468	-0.056415945
178	0x3e18234c	0.14857215
179	0xbdfb339c	-0.12265703
180	0x3c9b6e76	0.01897357
181	0xbdae17ce	-0.08500634
182	0xbb83e4d9	-0.0040250835
183	0xbe05bb3e	-0.13059708
184	0xbd9a48a7	-0.075333886
185	0x3bd79d81	0.006580055
186	0x3d2f766d	0.04283755
187	0x3e117d93	0.14208059
188	0x3d1e4b0c	0.03864579
189	0x3e4aeaa4	0.19816071
190	0x3e3696ba	0.17830935
191	0x3e3952ed	0.1809804
192	0xbe6fdacc	-0.23423308
193	0xbdbcbe76	-0.09216015
194	0xbe00175f	-0.12508915
195	0xbbceae2c	-0.006307384
196	0x3c66eb90	0.014094248
197	0x3dfb062b	0.12257036
198	0xbe01cf4a	-0.12676731
199	0xbde6e1a6	-0.11273508
200	0xbe2219ef	-0.15830205
201	0xbd6fef5c	-0.05857788
202	0xbe7e5f8c	-0.24841136
203	0xbe2ce4ff	-0.1688423
204	0xbdc5a570	-0.09650695
205	0x3e078bf7	0.13236986
206	0xbda0a96e	-0.07844816
207	0x3d80153b	0.062540494
208	0xbd904fda	-0.070464805
209	0xbdf14d63	-0.117823385
210	0xbdc62003	-0.096740745
211	0xbd8922ec	-0.06696114
212	0x3cbf7731	0.023372265
213	0xbd5c75b4	-0.053823188
214	0xbd9d0c88	-0.07668406
215	0xbdee8729	-0.116468735
216	0xbe933324	-0.28749955
217	0xbe423e9b	-0.18969195
218	0x3e0de451	0.13856627
219	0xbd418fbb	-0.047256213
220	0x3daac0f3	0.083375834
221	0x3e1648cd	0.14676209
222	0xbe2d9e90	-0.16955018
223	0xbee26578	-0.4421804
224	0xbe693b3a	-0.227765
225	0x3d03ac6f	0.032146867
226	0xbe21c3ee	-0.15797397
227	0xbda0fe0f	-0.07860958
228	0xbdc080a3	-0.093995355
229	0xbdac3372	-0.0840825
230	0xbdc0231f	-0.09381699
231	0x3c390124	0.011291776
232	0xbdec4d4c	-0.11538181
233	0x3d691a17	0.056909647
234	0x3d9e0907	0.077165656
235	0xbd8e1212	-0.069370404
236	0x3e1e1afa	0.15439978
237	0xbd400812	-0.046882696
238	0xbcee7a94	-0.029111184
239	0x3d73e2dc	0.05954252
240	0x3cb8a44d	0.022539282
241	0x3d9312ad	0.071812965
242	0xbde4b5ea	-0.1116751
243	0xbd3c94f8	-0.046040505
244	0x3d5f8e5b	0.05457912
245	0xbe4172d3	-0.18891458
246	0x3dca6b12	0.09883703
247	0xbe31ad8a	-0.17351356
248	0xbd4dee03	-0.050275814
249	0xbddba454	-0.107247025
250	0xbe452877	-0.19253717
251	0xbdb37314	-0.08762184
252	0x3d596ca7	0.053082135
253	0xbdaff8d0	-0.08592379
254	0xbd877fbf	-0.066161625
255	0x3d669ad3	0.056299996

block1.1.weight f4 [16]
0	0x3f763645	0.9617656
1	0x3f7634ed	0.9617451
2	0x3f7622e6	0.96147
3	0x3f762be8	0.96160746
4	0x3f7644b8	0.96198606
5	0x3f76371f	0.9617786
6	0x3f763299	0.96170956
7	0x3f763156	0.9616903
8	0x3f763474	0.9617379
9	0x3f7636c9	0.96177346
10	0x3f763c8b	0.9618613
11	0x3f762ddd	0.9616373
12	0x3f762fad	0.961665
13	0x3f76296b	0.9615695
14	0x3f762cb5	0.9616197
15	0x3f761fcd	0.96142274

block1.1.bias f4 [16]
0	0x33081fc3	3.1693855e-08
1	0x340ef12a	1.3312516e-07
2	0xb34ea36a	-4.8111737e-08
3	0xb3107471	-3.3633516e-08
4	0x341191eb	1.3557262e-07
5	0x339e2030	7.363303e-08
6	0x34048357	1.2341239e-07
7	0xb0e39cb0	-1.6560957e-09
8	0x3396e389	7.026308e-08
9	0xb40d0fbc	-1.3137372e-07
10	0xb42a9e71	-1.5890124e-07
11	0x318bbbd3	4.0667856e-09
12	0xb32e18d3	-4.053511e-08
13	0xb12d0cde	-2.5182127e-09
14	0xb3a5ad66	-7.714952e-08
15	0xb33ead73	-4.4395573e-08

block1.1.running_mean f4 [16]
0	0x382883f0	4.0177198e-05
1	0x39a94888	0.00032288232
2	0x396adc83	0.00022398126
3	0xb97a3f4d	-0.0002386544
4	0xb858c5e2	-5.1682706e-05
5	0x391aef0b	0.00014775635
6	0xba135ceb	-0.0005621451
7	0xb939344b	-0.00017662456
8	0x399d2375	0.0002997179
9	0x3948a7e2	0.00019136028
10	0x3a0cbb61	0.0005368498
11	0x39cea4a8	0.0003941406
12	0x39b25222	0.00034012
13	0x39d910cf	0.0004140199
14	0x394665be	0.00018920653
15	0xb8b42949	-8.590759e-05

block1.1.running_var f4 [16]
0	0x3f368804	0.71301293
1	0x3f20d9e7	0.6283249
2	0x3ef2201d	0.47290125
3	0x3e8c15eb	0.27360472
4	0x3f70efdc	0.94115996
5	0x3f3f5098	0.7473235
6	0x3ed71fb9	0.4201639
7	0x3f5c35a0	0.86019325
8	0x3ef7c044	0.48388875
9	0x3f4b7811	0.7948008
10	0x3f19841a	0.59967196
11	0x3ece6693	0.40312633
12	0x3f1ca8cf	0.6119508
13	0x3eb1315f	0.3460798
14	0x3f097650	0.53696156
15	0x3f061e6b	0.52390164

block2.0.weight f4 [32, 1, 22, 1]
0	0x3d910fa5	0.07083062
1	0xbe09a9ff	-0.13443755
2	0xbef7d7f0	-0.48406935
3	0x3f03ea71	0.51529604
4	0x3e9ccfaf	0.306272
5	0xbdcb69f8	-0.09932321
6	0xbcbac131	-0.022797199
7	0x3ecd39c8	0.40083146
8	0xbd7cddbb	-0.061734896
9	0x3d69c4b9	0.057072375
10	0x3e43d978	0.19125926
11	0xbf378a63	-0.71695536
12	0x3e6893ff	0.22712706
13	0xbe31b9b1	-0.17355992
14	0xbde01f8c	-0.10943517
15	0xbca9ce52	-0.020728264
16	0x3e13bbc8	0.14427102
17	0xbe97191f	-0.29511353
18	0x3e6f3960	0.2336173
19	0xbeb6b32f	-0.3568358
20	0x3e8e6da9	0.2781804
21	0x3d9de90d	0.077104665
22	0x3e1e0bd3	0.15434198
23	0x3e0eed40	0.13957691
24	0xbed15e64	-0.40892327
25	0xbef8e7b2	-0.4861427
26	0x3e82b603	0.2552949
27	0x3dd41154	0.103548676
28	0x3bfae1a5	0.0076562935
29	0x3e27cb64	0.16386181
30	0xbf30eeb2	-0.6911422
31	0x3e29b2dc	0.16572136
32	0x3e9d41f4	0.3071438
33	0xbe843d4c	-0.25828016
34	0x3dcaed9f	0.09908604
35	0x3df67aff	0.120351784
36	0xbd93822c	-0.07202563
37	0x3ebb12e2	0.36537844
38	0x3db95ca4	0.09050873
39	0xbe4601f8	-0.19336689
40	0x3d042273	0.032259416
41	0x3e512147	0.2042285
42	0xbe61aa36	-0.22037587
43	0xbde19a7d	-0.110157944
44	0x3e7e85fa	0.24855796
45	0xbe53ff47	-0.2070285
46	0xbe904038	-0.28173995
47	0xbe88d708	-0.26726556
48	0xbe399e61	-0.18126823
49	0x3d7afcb6	0.06127616
50	0x3e2288f9	0.15872563
51	0xbd6edd0e	-0.058316283
52	0xbe345785	-0.17611511
53	0x3fde0be0	1.7347374
54	0xbf12bcb8	-0.5731921
55	0xbe896f64	-0.26842797
56	0x3e180ef6	0.14849457
57	0xbe88b73b	-0.26702294
58	0x3ed35163	0.4127303
59	0xbf3437ce	-0.7039765
60	0x3ded52f5	0.115880884
61	0x3d8d6d76	0.06905644
62	0x3eeb567f	0.4596443
63	0xbf10d919	-0.56581265
64	0x3db41e35	0.08794824
65	0x3dd28b74	0.10280505
66	0xbcd64a52	-0.026158486
67	0x3ec75db7	0.38938686
68	0xbe50a097	-0.2037376
69	0xbf031811	-0.512086
70	0x3d822147	0.063540034
71	0x3d9c6ec8	0.07638317
72	0xbd995250	-0.07486403
73	0x3dc165d3	0.094432496
74	0x3e9c5453	0.30533084
75	0xbeb54c52	-0.3540979
76	0x3ee4eb96	0.44710988
77	0x3e164bff	0.14677428
78	0xbdaefe59	-0.08544607
79	0xbe4d67eb	-0.20059173
80	0xbf0606c6	-0.52354085
81	0xbe069a15	-0.13144715
82	0x3dd18d81	0.10232068
83	0xbe9ce60a	-0.30644256
84	0xbe331fc2	-0.17492583
85	0x3f34a27e	0.70560443
86	0x3e3af323	0.18256812
87	0x3d4448b7	0.04792091
88	0xbe73816c	-0.2377984
89	0x3c043638	0.008069567
90	0xbe19187c	-0.14950746
91	0x3f16013b	0.5859563
92	0xbe17a325	-0.14808328
93	0xbc83f91d	-0.016109997
94	0x3dbfefeb	0.093719326
95	0xbdc6701e	-0.096893534
96	0xbeb4c128	-0.35303617
97	0xbd19a19d	-0.037507642
98	0xbcab62f8	-0.020921215
99	0xbd294047	-0.041321065
100	0x3c48b08b	0.012249122
101	0xbd61b9f2	-0.055108972
102	0xbc660426	-0.014039075
103	0x3e6fc4f1	0.23414971
104	0x3dc1018c	0.09424123
105	0xbd05870a	-0.032599486
106	0x3e6f231f	0.23353241
107	0x3e46a012	0.19397
108	0xbe8768f5	-0.26447263
109	0xbd75f277	-0.060045686
110	0xbcf101d6	-0.02941982
111	0xbddd6e21	-0.10812021
112	0xbe43ce9b	-0.19121782
113	0xbe2b3c50	-0.16722226
114	0x3da9cd17	0.08291071
115	0xbd3b5ad1	-0.045740906
116	0xbcab276f	-0.020892827
117	0xbe582826	-0.21109065
118	0xbdbafe0f	-0.09130489
119	0x3db274e5	0.08713702
120	0x3db28edc	0.087186545
121	0x3dcfe8c0	0.101518154
122	0x3d329c7b	0.043606263
123	0xbdab702c	-0.083710045
124	0xbdf37d6a	-0.11889155
125	0xbd20f380	-0.03929472
126	0xbdbf4691	-0.09339631
127	0x3e1ebbe5	0.15501364
128	0xbdfbafcd	-0.12289391
129	0x3e33b2a3	0.17548613
130	0x3df5341c	0.1197283
131	0xbdfb0fe2	-0.12258889
132	0xbe68c22f	-0.22730325
133	0xbddf53d8	-0.10904664
134	0xbe265647	-0.1624385
135	0x3e7423e2	0.23841813
136	0x3e2564f8	0.16151798
137	0x3ce6c59b	0.028170398
138	0xbb9014af	-0.004396997
139	0x3d08ae47	0.03336933
140	0x3e9a1af9	0.30098704
141	0xbeb1d1fc	-0.34730518
142	0xbdfa2709	-0.122144766
143	0xbe90b733	-0.2826477
144	0x3d7bcec5	0.061476488
145	0x3ebafab7	0.36519405
146	0x3d5d8ce4	0.054089442
147	0xbdc17d1a	-0.09447689
148	0x3d8cf691	0.06882966
149	0x3e4e148a	0.20125023
150	0x3d2f49c7	0.04279497
151	0xbe36c4cb	-0.17848508
152	0xbd8abbf9	-0.06774134
153	0x3d2455e7	0.040120985
154	0xbc35fdd5	-0.011107882
155	0x3e1314e4	0.14363438
156	0xbe061186	-0.13092622
157	0xbe362273	-0.17786579
158	0xbe81e41f	-0.25369355
159	0xbd721a90	-0.059107363
160	0xbe51ce17	-0.20488773
161	0x3dc8f008	0.09811407
162	0x3e505b7d	0.203474
163	0x3eb76acb	0.35823664
164	0x3e10ccd7	0.1414064
165	0x3e14a076	0.14514336
166	0x3d331c4f	0.04372817
167	0xbd82e175	-0.06390659
168	0x3df44080	0.11926365
169	0xbe427ba4	-0.18992478
170	0x3df2ee5c	0.1186187
171	0xbb4b4bd2	-0.0031020534
172	0x3e9a1355	0.30092874
173	0xbc40164d	-0.011724067
174	0xbe475c6c	-0.1946885
175	0xbe8cbe5d	-0.27488986
176	0x3daf74ae	0.08567177
177	0xbba914d7	-0.005159955
178	0x3d840aff	0.0644741
179	0xbe37b68e	-0.17940733
180	0x3dbdd8e0	0.09269881
181	0x3ea8a8af	0.32941195
182	0x3d61f8aa	0.055168785
183	0xbe5a07bb	-0.21292011
184	0x3e115fc5	0.1419669
185	0x3d2e3643	0.042532217
186	0x3eabfc56	0.33590955
187	0xbdf22b20	-0.11824632
188	0xbe12eee0	-0.14348936
189	0x3e923ea1	0.28563407
190	0xbe8e53de	-0.2779836
191	0x3d82e7bf	0.06391858
192	0xbe422c46	-0.18962201
193	0xbed73cec	-0.42038667
194	0x3ddef5a3	0.10886695
195	0x3dda4ed7	0.10659569
196	0xbeaea644	-0.34111226
197	0x3e18a63c	0.14907163
198	0x3de1f884	0.11033729
199	0x3dee3569	0.11631281
200	0xbe178a7f	-0.14798926
201	0xbf2998a0	-0.6624851
202	0x3f53afae	0.8268994
203	0xbea73a1c	-0.3266152
204	0xbc64db14	-0.013968248
205	0x3e891e9d	0.2678117
206	0xbe8c934e	-0.27456135
207	0xbec9a483	-0.39383325
208	0xbdc95879	-0.09831328
209	0x3dcaca1e	0.09901832
210	0xbc548dc4	-0.012973253
211	0xbe6611b9	-0.22467698
212	0xbcc5e0ba	-0.02415501
213	0x3fb22707	1.391816
214	0x3c8b1530	0.016977876
215	0xbe4bffef	-0.1992185
216	0xbc5c99e2	-0.013464423
217	0xbebdeb0e	-0.37093395
218	0xbdc31480	-0.095253944
219	0x3c9f98cd	0.01948204
220	0x3d3e468e	0.046454005
221	0x3e3b493e	0.18289658
222	0x3db7a3d7	0.08966797
223	0x3e42d83f	0.19027804
224	0x3d6ea3ec	0.058261797
225	0xbe8346ac	-0.25639856
226	0xbd8476ea	-0.064679936
227	0x3d37d159	0.044877384
228	0xbe0e31e1	-0.13886215
229	0xbe8540be	-0.26025957
230	0x3e600dc4	0.21880251
231	0xbdd40957	-0.10353344
232	0xbdf55692	-0.119794026
233	0x3d9a06dd	0.0752084
234	0x3cd45c12	0.025922809
235	0xbe4f121a	-0.20221749
236	0xbcb0b8a7	-0.021572424
237	0x3d5195ad	0.051168133
238	0xbec77b4c	-0.38961256
239	0xbd46633a	-0.048434474
240	0x3e9b6973	0.3035389
241	0x3eb93c2e	0.36178726
242	0x3e2b1cf1	0.16710259
243	0xbdabba47	-0.08385139
244	0xbd089711	-0.033347193
245	0x3e579624	0.21053368
246	0xbdbd7056	-0.09249942
247	0x3e5167f8	0.20449817
248	0x3d391c1d	0.045192827
249	0x3e35a9f8	0.17740619
250	0xbe3a077e	-0.1816692
251	0x3dc5f21a	0.09665318
252	0x3d91e3b5	0.0712351
253	0xbf47017d	-0.77736646
254	0xbef8c2b1	-0.48586038
255	0x3cc07fa4	0.023498364

block2.1.weight f4 [32]
0	0x3ff16b03	1.8860782
1	0x3fd1854c	1.6368804
2	0x3fd2f8e4	1.6482205
3	0x3fc2801e	1.5195348
4	0x3f99f913	1.2029136
5	0x3f9c786a	1.2224247
6	0x3fbcfc9f	1.4764594
7	0x3f9cda22	1.2254069
8	0x3fd88244	1.6914754
9	0x3ff89914	1.9421716
10	0x3fadcd8c	1.3578353
11	0x3fd853e5	1.6900603
12	0x3f8e2879	1.1106101
13	0x3fd71dea	1.6806004
14	0x3fad4bf8	1.3538809
15	0x3fa95277	1.3228291
16	0x3fc86939	1.5657111
17	0x3f8b0e02	1.086365
18	0x40207b7f	2.5075376
19	0x3f8d822b	1.1055349
20	0x3fa806c0	1.312706
21	0x3ff9b231	1.9507505
22	0x3fd467c7	1.659417
23	0x3f89bebe	1.0761335
24	0x3f9553cf	1.1666201
25	0x3ff7dfcc	1.9365172
26	0x3fb42524	1.4073834
27	0x3f918586	1.1368873
28	0x3fae4f1c	1.3617892
29	0x3fc1380d	1.509523
30	0x3f8d0799	1.1017944
31	0x3fa0461e	1.2521398

block2.1.bias f4 [32]
0	0xbf06ab12	-0.5260478
1	0xbef981cf	-0.4873185
2	0xbf00f085	-0.50367004
3	0xbeda75d9	-0.42668036
4	0xbea41cb0	-0.32053137
5	0xbe789c12	-0.24278286
6	0xbeb03b9c	-0.34420478
7	0xbe9a953b	-0.3019198
8	0xbf040952	-0.5157672
9	0xbf439f67	-0.76415104
10	0xbefc3d57	-0.4926555
11	0xbf1415cc	-0.5784576
12	0xbe3ad0f1	-0.18243767
13	0xbef61e83	-0.48070154
14	0xbf2790a8	-0.654551
15	0xbed749b3	-0.42048416
16	0xbf041f76	-0.51610506
17	0xbe3a3986	-0.18186006
18	0xbf5b86a3	-0.85752314
19	0xbe8acf9a	-0.27111512
20	0xbedb07db	-0.4277943
21	0xbf58b883	-0.8465654
22	0xbefeab81	-0.49740222
23	0xbe045648	-0.12923539
24	0xbea25f1f	-0.31713197
25	0xbf251c31	-0.6449614
26	0xbed1c7bf	-0.40972707
27	0xbe71ea05	-0.23624428
28	0xbedbbe15	-0.4291846
29	0xbf0b9654	-0.5452626
30	0xbe3ceed7	-0.18450485
31	0xbedaf054	-0.4276148

block2.1.running_mean f4 [32]
0	0xb82b8a54	-4.0898405e-05
1	0x388409ff	6.2961124e-05
2	0xb92c0263	-0.00016404087
3	0x3984ad7d	0.0002530626
4	0x38717f48	5.7577417e-05
5	0x3a07bb0b	0.0005177713
6	0x39c2564c	0.0003706686
7	0x38c2242a	9.257377e-05
8	0xb906d178	-0.00012857269
9	0x386456fd	5.444045e-05
10	0x38240d9f	3.9113333e-05
11	0x390ee26b	0.00013626523
12	0xb94023cc	-0.00018323882
13	0x3972947b	0.00023134232
14	0x38ab9d87	8.183257e-05
15	0xb92a750f	-0.00016256071
16	0x371610b5	8.944587e-06
17	0xb99ad6f2	-0.00029533316
18	0x38d83abb	0.00010310622
19	0xb8bb7485	-8.938558e-05
20	0x393ec1e1	0.00018192038
21	0x38f31031	0.00011590159
22	0x391270c2	0.0001396565
23	0x39aff51b	0.0003356122
24	0xb9baac1a	-0.0003560491
25	0x384d676e	4.8972135e-05
26	0xb891919a	-6.941259e-05
27	0x384a7299	4.826728e-05
28	0x375fa1f1	1.3329541e-05
29	0x38660c8a	5.484795e-05
30	0xb801e7d1	-3.0971893e-05
31	0x392852e0	0.00016052602

block2.1.running_var f4 [32]
0	0x3dc6f933	0.097155
1	0x3ddbbbe2	0.10729195
2	0x3dbc356c	0.09189877
3	0x3da292e7	0.07938176
4	0x3d186e8c	0.0372148
5	0x3eb1bacc	0.34712827
6	0x3dba2465	0.09088973
7	0x3d9a2ef0	0.07528484
8	0x3e5f3734	0.21798402
9	0x3d646b11	0.05576617
10	0x3d921c2b	0.07134279
11	0x3dd3c3f3	0.10340109
12	0x3d0dcdbb	0.034620028
13	0x3d9974a1	0.07492948
14	0x3d7e2ad5	0.062052567
15	0x3da484ea	0.08033164
16	0x3d53ef12	0.051741667
17	0x3ecff5ab	0.40617117
18	0x3e3605be	0.17775628
19	0x3de05ef1	0.10955609
20	0x3d62a825	0.055336136
21	0x3d8d84da	0.06910105
22	0x3df23a4a	0.11827524
23	0x3d806fa5	0.062712945
24	0x3e35040a	0.17677322
25	0x3d8c39fd	0.06846998
26	0x3d6e6761	0.05820406
27	0x405ae9c4	3.420518
28	0x3d771862	0.060325988
29	0x3d73ca18	0.059518903
30	0x3d2d5efe	0.04232692
31	0x3e1061ce	0.1409981

block3.0.weight f4 [32, 1, 1, 16]
0	0x3d2b9754	0.041892365
1	0x3d64db9d	0.055873502
2	0x3e08beac	0.13353986
3	0x3e2fc6fd	0.17165752
4	0x3c679095	0.014133592
5	0x3dfa8272	0.12231912
6	0x3de24b57	0.11049526
7	0xbe53bb21	-0.20676853
8	0x3e185275	0.14875205
9	0x3def72b6	0.11691801
10	0xbc0e67e5	-0.008691763
11	0x3dc11c7c	0.09429261
12	0x3ca047ef	0.01956555
13	0xbb2c969b	-0.0026334885
14	0x3e00d149	0.12579836
15	0x3e3f6400	0.1869049
16	0x3bcd7a72	0.0062707
17	0x3d23ab4a	0.039958276
18	0x3d47c9dd	0.048776496
19	0xbdf396e4	-0.118940145
20	0xbb47622b	-0.0030423503
21	0xbe340f9f	-0.17584084
22	0xbd24fe45	-0.040281553
23	0x3d8fd2dd	0.07022641
24	0xbe76d65f	-0.24105214
25	0xbdfa3982	-0.12218
26	0x3e05173a	0.12997141
27	0xbe4cd320	-0.20002413
28	0xbe009ee7	-0.12560616
29	0xbc52321b	-0.012829329
30	0xbe483c71	-0.19554307
31	0xbe149f67	-0.14513932
32	0x3e9a0f2c	0.300897
33	0x3e630f03	0.22173695
34	0x3e22728b	0.15864007
35	0x3de1b880	0.11021519
36	0x3e3a22a0	0.18177271
37	0xbe01e227	-0.12683927
38	0x3d8c2103	0.06842234
39	0x3e4f928e	0.2027075
40	0x3dd9be1f	0.10631966
41	0xbe52b011	-0.20574977
42	0x3d578baa	0.05262343
43	0x3db2db65	0.087332524
44	0xbd987103	-0.0744343
45	0x3c8be2c9	0.017075913
46	0x3e9f5a50	0.3112359
47	0x3d68168e	0.056662135
48	0x3df304ca	0.11866148
49	0x3e50404b	0.20337026
50	0xbdfe349d	-0.12412379
51	0x3ebb0983	0.36530694
52	0x3dead7cb	0.114669405
53	0xbd2babde	-0.041911952
54	0x3ddd17dd	0.10795567
55	0x3e27784a	0.1635448
56	0xbe69e4ce	-0.22841188
57	0xbde63ee3	-0.112424634
58	0x3d70c969	0.05878583
59	0xbdf96820	-0.121780634
60	0x3cf671b6	0.030083518
61	0x3e5bd5bd	0.21468253
62	0x3e3d9410	0.18513513
63	0x3ea19070	0.3155551
64	0xbeb0e7f4	-0.34551966
65	0xbeb39bf3	-0.35079917
66	0x3e6c8b2f	0.2309997
67	0xbdb17e21	-0.08666635
68	0x3d165c94	0.036709383
69	0xbd384f42	-0.04499746
70	0xbeaee209	-0.34156826
71	0x3d83b6a0	0.06431317
72	0x3c6a797d	0.014311192
73	0xbe8276fc	-0.25481403
74	0x3de2034b	0.11035784
75	0x3e34b9cd	0.17649002
76	0xbd135548	-0.035970002
77	0x3dd001ec	0.101566166
78	0x3dbb4f34	0.09145966
79	0xbe4146e8	-0.18874705
80	0x3e6d2b3e	0.23161027
81	0xbd951d97	-0.072810344
82	0xbd6afc02	-0.05736924
83	0x3d7c16fb	0.061545353
84	0x3ddbfb3f	0.10741281
85	0x3dedcd3f	0.11611413
86	0x3e701756	0.23446402
87	0xbca95ea9	-0.02067502
88	0x3d6ac611	0.057317797
89	0x3e1c035a	0.15235654
90	0xbcde0f3b	-0.027106872
91	0x3c660f5b	0.014041747
92	0xbeca06dd	-0.3945836
93	0x3dc6a817	0.09700029
94	0x3ef2e4e1	0.47440246
95	0xbed59b1c	-0.41719902
96	0x3d988db4	0.07448903
97	0xbeb071f7	-0.34461948
98	0x3dc0ff12	0.09423651
99	0x3d96aeeb	0.07357582
100	0xbe248089	-0.16064657
101	0x3d7e6c65	0.06211509
102	0xbda0d970	-0.07853973
103	0x3d68c85e	0.05683171
104	0x3d8caec8	0.068692744
105	0xbe648c97	-0.22319256
106	0x3e0f2da2	0.13982251
107	0xbe4e1d12	-0.20128277
108	0xbe21723a	-0.1576623
109	0x3de14955	0.11000315
110	0xbe39f43f	-0.18159579
111	0xbe4e3fbd	-0.20141502
112	0x3e07848d	0.13234158
113	0xbe1fb6e3	-0.1559711
114	0x3e4a9a7b	0.19785492
115	0xbe31eebd	-0.17376228
116	0x3e1a3046	0.15057477
117	0x3dae0565	0.08497123
118	0xbe4154ab	-0.18879955
119	0xbcd4fc49	-0.025999205
120	0x3e7c09ed	0.24613161
121	0xbe9ef091	-0.31042913
122	0x3e705e77	0.23473535
123	0x3da94e5b	0.08266898
124	0x3c82aec2	0.015952472
125	0x3dcbe84a	0.09956415
126	0x3d61359a	0.05498276
127	0x3e7eb84d	0.24874993
128	0x3cf73fb3	0.030181741
129	0x3de015af	0.10941636
130	0x3e5fc9f0	0.21854377
131	0x3d8c5b0d	0.06853304
132	0xbbcf6a7f	-0.006329834
133	0x3e5237c2	0.20529082
134	0xbd229b6a	-0.039698996
135	0x3c93072c	0.017947756
136	0x3e426ce9	0.18986858
137	0xbcd0a9f8	-0.025471672
138	0xbdadb472	-0.08481683
139	0x3e4edc46	0.20201215
140	0xbe4a14ab	-0.19734447
141	0xbc6052c9	-0.0136916125
142	0x3e550e66	0.20806274
143	0xbe360157	-0.17773949
144	0x3e392d8e	0.18083784
145	0x3e41aaa3	0.18912749
146	0xbe4d3829	-0.20040955
147	0x3e1e1c21	0.15440418
148	0x3e9086c5	0.2822782
149	0xbe3306f8	-0.17483127
150	0x3de629e6	0.1123846
151	0x3e7472ca	0.23871914
152	0xbda7b775	-0.081892885
153	0x3da94f96	0.08267133
154	0x3df9b3ee	0.12192522
155	0xbd0ad331	-0.033892814
156	0x3da09048	0.078400195
157	0x3d0e20bc	0.034699187
158	0x3c3df5eb	0.011594276
159	0x3c1b59de	0.009481875
160	0xbd3052a8	-0.043047577
161	0x3df13b74	0.11778918
162	0xbe54fafb	-0.20798866
163	0x3d5a1544	0.053242937
164	0x3e07916b	0.13239066
165	0xbe442662	-0.19155267
166	0xbc82339b	-0.015893748
167	0x3c2dc884	0.010606889
168	0x3dc459d7	0.09587448
169	0x3e849434	0.2589432
170	0x3dbc25ad	0.091868736
171	0xbd5cb324	-0.05388178
172	0x3b9d2cae	0.004796586
173	0x3e8a4dbc	0.27012432
174	0xbd09327f	-0.033495422
175	0x3e681002	0.22662356
176	0x3e956ead	0.29186
177	0x3e0df7de	0.13864085
178	0x3dc801e7	0.09765988
179	0x3e179fcc	0.14807051
180	0x3d610765	0.054938693
181	0xbdc9234e	-0.09821187
182	0x3e177cb2	0.14793661
183	0x3d87e44b	0.0663534
184	0xbd2fccbf	-0.04291987
185	0x3e1694fe	0.14705274
186	0xbe112134	-0.14172822
187	0x3d55f393	0.052234244
188	0xbd0387c5	-0.0321119
189	0x3d735f9a	0.059417345
190	0x3e69065c	0.22756332
191	0xbdc00f36	-0.09377901
192	0x3d067550	0.03282672
193	0xbe8c41b7	-0.27393886
194	0x3e9e9463	0.30972585
195	0xbd052ba0	-0.032512307
196	0xbe45aa08	-0.19303143
197	0x3ec18b12	0.37801415
198	0x3e1e6265	0.15467222
199	0xbe56620a	-0.20935836
200	0x3e71bf49	0.23608126
201	0xbdbda459	-0.092598625
202	0xbe2fc900	-0.17166519
203	0x3d69e6e0	0.057104945
204	0x3d9570ac	0.07296881
205	0xbe949242	-0.29017836
206	0xbda2b740	-0.079451084
207	0x3d1e0f04	0.03858854
208	0xbead462d	-0.33842602
209	0xbd84a3c1	-0.06476546
210	0xbd02b440	-0.03191018
211	0xbd1b5c48	-0.037929803
212	0xbdd76a71	-0.10518349
213	0xbcdfdc43	-0.027326709
214	0xbe45a231	-0.19300152
215	0xbd98a3c9	-0.074531145
216	0x3d6ef041	0.058334593
217	0xbda44774	-0.08021441
218	0xbe162f11	-0.14666392
219	0x3d34b340	0.04411626
220	0x3cd6e051	0.02623001
221	0xbeaf6e4f	-0.34263846
222	0x3d83230a	0.064031675
223	0x3dcdf818	0.10057086
224	0xbe0be1d6	-0.13660368
225	0x3e21a4c3	0.15785508
226	0xbd5cfc2d	-0.05395143
227	0xbe76316a	-0.24042287
228	0x3c2d61f3	0.010582435
229	0x3c6ca547	0.014443702
230	0xbe47ba58	-0.19504678
231	0xbe58ce72	-0.21172503
232	0x3e92828e	0.2861523
233	0xbd86edd7	-0.06588333
234	0xbe225fb6	-0.15856823
235	0x3ea1d6f6	0.31609315
236	0xbb9ddb94	-0.0048174355
237	0xbe4aaad8	-0.19791734
238	0x3e91d56a	0.28483135
239	0xbd9e7148	-0.077364504
240	0xbea66202	-0.3249665
241	0xbd5d0209	-0.05395702
242	0xbe03d901	-0.12875749
243	0xbccbe286	-0.024888288
244	0xbe1d33ee	-0.15351841
245	0xbdb07513	-0.0861608
246	0xbcc16697	-0.023608489
247	0xbe2aab75	-0.16666968
248	0x3d43ac9f	0.047772046
249	0xbd78a4f7	-0.060704198
250	0xbc560684	-0.013063077
251	0x3db63218	0.088962734
252	0x3d879031	0.06619299
253	0xbc80dae2	-0.015729371
254	0x3dbcdbd1	0.09221614
255	0xbe71684d	-0.23574944

block3.1.weight f4 [32, 32, 1, 1]
0	0xbd55dd7b	-0.052213173
1	0x3e24da0a	0.160988
2	0xbcba2123	-0.022720879
3	0x3eb50a77	0.35359547
4	0x3dbfd8ab	0.09367498
5	0x3d2f9b0e	0.04287248
6	0x3e12b2bb	0.14325993
7	0xbd9288d1	-0.07155002
8	0x3dc8ac40	0.09798479
9	0x3bb4ed1c	0.0055214297
10	0x3dd62f08	0.10458189
11	0x3e199815	0.14999421
12	0xbd9d0c12	-0.07668318
13	0x3e83b293	0.2572218
14	0xbdace108	-0.08441359
15	0x3dfffe54	0.12499681
16	0x3c6026ef	0.0136811575
17	0xbd0c3d2c	-0.034238026
18	0x3e9efd51	0.3105264
19	0xbaee59f8	-0.0018184772
20	0x3d86b43c	0.06577346
21	0xbdbd8eef	-0.09255778
22	0xbcc258fa	-0.023724068
23	0x3e2ba579	0.16762342
24	0x3d88bbe5	0.06676463
25	0xbb1eb583	-0.0024217076
26	0xbc24abea	-0.010050753
27	0x3d146c42	0.036236055
28	0x3c100612	0.00879051
29	0x3df779c7	0.12083774
30	0x3d887deb	0.06664642
31	0x3cc74cb9	0.024328576
32	0xbdb39ecd	-0.08770523
33	0x3c11b999	0.008894348
34	0xbc44c7da	-0.012010539
35	0xbd58e0ee	-0.052948885
36	0xbda5880e	-0.08082591
37	0xbdbaeac0	-0.09126806
38	0xbdf9a991	-0.12190545
39	0x3e38b39e	0.18037269
40	0xbdad724c	-0.08469066
41	0xbd9eec8c	-0.077599615
42	0x3e0d9b28	0.13828719
43	0xbc74a348	-0.014931507
44	0xbceb0903	-0.02869082
45	0x3d800815	0.062515415
46	0xbc8d35f0	-0.017237633
47	0x3e201fbb	0.15637104
48	0xbd1dbed8	-0.03851208
49	0xbd1b70b0	-0.037949264
50	0x3dd66ec8	0.104703486
51	0x3e49ef2a	0.1972014
52	0x3e888c08	0.26669335
53	0x3dc6357d	0.09678171
54	0xbd856205	-0.06512836
55	0xbe4bafd1	-0.19891287
56	0x3de5c6ad	0.11219535
57	0xbda1527f	-0.07877063
58	0xbd9dac48	-0.07698876
59	0xbe8fe88a	-0.281071
60	0xbdb022b3	-0.08600368
61	0x3de188be	0.110124096
62	0xbdd2d336	-0.102941915
63	0x3e539673	0.2066286
64	0x3ca5241d	0.020158822
65	0x3dc23398	0.09482497
66	0x3ddf97db	0.10917636
67	0x3d862957	0.06550854
68	0xbe0ee399	-0.13954009
69	0x3e60c8a9	0.21951546
70	0x3dca8a96	0.098897144
71	0x3dd84bb0	0.10561311
72	0x3b3b907e	0.002862006
73	0xbd69c1f9	-0.057069752
74	0xbe088b69	-0.13334431
75	0xbe0220a9	-0.12707771
76	0xbe0235c8	-0.12715828
77	0x3e10d948	0.14145386
78	0xbe6febd9	-0.23429812
79	0x3d5b5618	0.053548902
80	0xbe24b154	-0.1608327
81	0x3e40eda5	0.18840654
82	0xbda8644f	-0.08222257
83	0x3c0d7589	0.00863398
84	0x3d3e3e29	0.046446
85	0x3dc48c14	0.0959703
86	0x3e5e8311	0.21729685
87	0x3e84861e	0.25883573
88	0x3e91aa31	0.28450158
89	0xbe010348	-0.12598908
90	0xbe8cfcd2	-0.27536637
91	0xbe2c36a9	-0.16817726
92	0x3c3bfd56	0.011473974
93	0xbe273e14	-0.16332275
94	0xbd21dabe	-0.03951525
95	0xbda2dad4	-0.079518944
96	0xbe6b174a	-0.22958103
97	0xbe22675f	-0.15859745
98	0x3d58ea11	0.052957598
99	0x3dd5b76f	0.10435378
100	0xbe60dd1f	-0.21959351
101	0x3d5f05c8	0.054448873
102	0xbc6835fd	-0.014173028
103	0x3d1d483c	0.038398966
104	0xbde8278a	-0.113356665
105	0xbdc8f58c	-0.09812459
106	0xbd3cb255	-0.04606851
107	0xbd950831	-0.07276953
108	0x3e9ac64c	0.30229414
109	0x3d29ea58	0.041483253
110	0x3c39929c	0.011326458
111	0x3dadfa1c	0.0849497
112	0xbd8407dd	-0.06446812
113	0x3d75ae16	0.059980474
114	0xbdccc96c	-0.09999356
115	0x3d294fbd	0.04133581
116	0xbcb43710	-0.021998912
117	0x3d34dbef	0.044155058
118	0x3e5b906c	0.21441811
119	0xbd3ab684	-0.045584217
120	0x3e651a30	0.22373271
121	0xbe372749	-0.1788608
122	0xbd12f15b	-0.035874706
123	0xbdbc898c	-0.092059225
124	0x3cffc30f	0.03122094
125	0xbd0ba30b	-0.034091037
126	0xbddabc22	-0.10680415
127	0x3e3d986b	0.18515174
128	0x3d123afe	0.03570079
129	0x3e31bd44	0.17357355
130	0x3d83841e	0.06421684
131	0x3e78ee8b	0.24309747
132	0x3a8c91f6	0.0010724652
133	0x3cce8646	0.025210511
134	0x3dc1a78e	0.09455787
135	0x3e810c6f	0.252048
136	0x3c9b3f01	0.018950941
137	0xbe0438a7	-0.12912236
138	0xbd5c9700	-0.053854942
139	0xbc11870f	-0.008882298
140	0x3d3d9cc7	0.046292093
141	0xbd7fc151	-0.06244022
142	0x3e0069f7	0.12540422
143	0xbd78ccc7	-0.060742166
144	0x3cf109a6	0.029423546
145	0x3d9e2ed7	0.07723778
146	0x3edb8d8b	0.42881426
147	0x3e2788d7	0.16360794
148	0x3de3a695	0.111157574
149	0x3b02bb93	0.0019948229
150	0xbdaf27f3	-0.085525416
151	0x3dc5b25d	0.09653161
152	0x3cc2a2c9	0.023759263
153	0x3d7ef9c3	0.06224991
154	0x3dd0c3cc	0.10193595
155	0xbe03165d	-0.128015
156	0x3d35bbaa	0.044368424
157	0xbd5b030b	-0.0534697
158	0x3dedf7fc	0.11619565
159	0xbd55a447	-0.05215862
160	0xbd820cba	-0.06350084
161	0xbdba622c	-0.09100756
162	0x3b3046b2	0.0026897606
163	0x3e504c0b	0.20341508
164	0x3d5f394f	0.054498013
165	0xbd14a3b5	-0.036288936
166	0xbd8f1ad1	-0.06987537
167	0xbe8074b9	-0.25089052
168	0xbe3380bd	-0.17529579
169	0xbc5990ce	-0.013279153
170	0x3dc5b1be	0.09653042
171	0x3dd2e4b4	0.10297528
172	0x3e0dd8dc	0.13852257
173	0x3e0f2ec4	0.13982683
174	0xbd37ae09	-0.044843707
175	0x3d8b10de	0.067903265
176	0x3db71bee	0.08940874
177	0xbd926444	-0.071480304
178	0x3d41c13f	0.047303434
179	0xbd0d056d	-0.034429003
180	0xbd421a9c	-0.047388658
181	0x3dba6da6	0.09102945
182	0x3e46fc66	0.1943222
183	0xbded7ad8	-0.11595696
184	0x3e603519	0.21895255
185	0xbba898bf	-0.005145162
186	0x3e984013	0.29736385
187	0x3dfb6da6	0.12276773
188	0x3c13369c	0.008985188
189	0x3e54ff00	0.208004
190	0x3d497d47	0.04919174
191	0x3e8fc02a	0.28076297
192	0xbd4d1040	-0.050064325
193	0x3cbd244a	0.023088593
194	0x3d85504a	0.065094545
195	0x3db22ce7	0.08699971
196	0x3df198cc	0.11796722
197	0x3db0a299	0.08624763
198	0xbc023346	-0.007946795
199	0xbd4b0df3	-0.04957385
200	0xbe2ca01a	-0.16857949
201	0x3df2d494	0.11856952
202	0xbdda1a2a	-0.10649522
203	0x3c604f62	0.013690801
204	0xbc3cef62	-0.011531683
205	0x3e2f2fc4	0.17108065
206	0x3e2e5cb4	0.17027551
207	0x3e53166c	0.20614022
208	0x3e5a6002	0.21325687
209	0x3e805fbb	0.25073037
210	0xbd94ae58	-0.07259816
211	0xbc432ab4	-0.011912037
212	0xbdebadcd	-0.11507759
213	0xbde28b7b	-0.1106176
214	0x3e27e0eb	0.16394393
215	0x3da0dc18	0.078544796
216	0xbd0761e0	-0.033052325
217	0x3dcdf271	0.10056008
218	0xbc6c0941	-0.014406503
219	0x3d8e2f10	0.0694257
220	0x3e44c700	0.19216537
221	0xbe033c28	-0.12815917
222	0x3e4892ea	0.19587293
223	0xbd2eaa18	-0.042642683
224	0x3e45e5c0	0.19325924
225	0xbdd614b3	-0.10453167
226	0xbd374978	-0.0447478
227	0xbdae74ce	-0.085183725
228	0x3e3c32d1	0.1837876
229	0xbdaac7a1	-0.083388574
230	0x3cba69e0	0.022755563
231	0x3e502de2	0.20330003
232	0x3e20010b	0.15625398
233	0xbd7ba7c3	-0.061439287
234	0xbe33dbe9	-0.17564358
235	0xbda42fda	-0.080169395
236	0xbdf2f305	-0.118627585
237	0xbd3cbbd9	-0.046077583
238	0xbd96906e	-0.073517665
239	0xbb721564	-0.003693902
240	0xbe0e81ac	-0.13916653
241	0xbc9b7394	-0.01897601
242	0xbccedc8f	-0.025251655
243	0xbe3e168e	-0.18563291
244	0x3e22e6fa	0.15908423
245	0xbceee843	-0.029163485
246	0x3e2f8439	0.17140283
247	0x3bb6571f	0.005564585
248	0x3b52eeba	0.003218575
249	0x3de7c675	0.113171495
250	0xbdda96f6	-0.10673325
251	0xbd5769b3	-0.052591037
252	0x3cc4d946	0.024029385
253	0xbd9dc441	-0.07703448
254	0xbc60b64f	-0.013715341
255	0xbd8c616e	-0.06854521

block3.2.weight f4 [32]
0	0x3fbc51a2	1.4712412
1	0x3fcd698c	1.6047835
2	0x3fece83a	1.850837
3	0x3fca309f	1.5796088
4	0x3fc98c00	1.574585
5	0x3fc0aa55	1.5051981
6	0x3fc46b34	1.5345216
7	0x3faa6003	1.331055
8	0x3fc0dde1	1.5067712
9	0x3fba8ff0	1.4575176
10	0x3fbbc7e9	1.4670383
11	0x3fa0177b	1.2507166
12	0x3fcddb88	1.6082621
13	0x3fc19373	1.5123123
14	0x3fbb0631	1.4611264
15	0x3fd9b614	1.7008691
16	0x3fb5ae19	1.4193755
17	0x3fcfc6c4	1.6232533
18	0x3fc8b6e3	1.5680813
19	0x3fc5468d	1.5412155
20	0x3fc80232	1.562567
21	0x3fae2b77	1.3607014
22	0x3fbd1cba	1.4774392
23	0x3fcbf9b6	1.5935581
24	0x3fc82e78	1.5639181
25	0x3fd8aa93	1.6927055
26	0x3fd24e91	1.6430227
27	0x3fc968f6	1.5735157
28	0x3fbfd384	1.4986424
29	0x3fcdfe93	1.6093315
30	0x3fba0031	1.4531308
31	0x3fbd3d29	1.478429

block3.2.bias f4 [32]
0	0xbec96496	-0.39334553
1	0xbee5fe13	-0.44920406
2	0xbf08b1ed	-0.53396493
3	0xbecd6be3	-0.40121374
4	0xbed27aa9	-0.41109207
5	0xbec53215	-0.38514772
6	0xbeba7f5b	-0.3642529
7	0xbe2baafe	-0.16764447
8	0xbeaab089	-0.3333781
9	0xbeccdfea	-0.40014583
10	0xbeb9a330	-0.36257315
11	0xbe1d25a4	-0.1534639
12	0xbedbddf9	-0.4294279
13	0xbebb6e2f	-0.366075
14	0xbeb54d35	-0.35410467
15	0xbf03014e	-0.51173866
16	0xbeb950d7	-0.36194488
17	0xbed26e8b	-0.41099963
18	0xbed62506	-0.41825122
19	0xbee2949d	-0.44254008
20	0xbec59243	-0.3858815
21	0xbe94f538	-0.29093337
22	0xbeb48ec7	-0.3526518
23	0xbee1f7e4	-0.44134438
24	0xbed43563	-0.4144698
25	0xbef33288	-0.4749949
26	0xbefaec58	-0.4900844
27	0xbed383d2	-0.41311508
28	0xbedbc836	-0.42926186
29	0xbecae3a3	-0.39626798
30	0xbe9e3a6a	-0.3090394
31	0xbec42dd4	-0.38316214

block3.2.running_mean f4 [32]
0	0xbd16c851	-0.03681213
1	0xbd0979cf	-0.03356343
2	0x3d15c872	0.036568113
3	0x3bba1f99	0.0056800363
4	0x3c584e3c	0.013202246
5	0xbcefcec0	-0.02927339
6	0x3ce34028	0.027740553
7	0x3cb9a911	0.022663625
8	0xbc3705eb	-0.011170845
9	0xbc83cd81	-0.016089203
10	0x3b077687	0.0020670013
11	0x3c628e64	0.013827894
12	0xbc6b161d	-0.014348534
13	0x3bf2b7b3	0.0074071526
14	0xbd42d8a0	-0.04756987
15	0xbc99eda3	-0.018790072
16	0x3b1e080f	0.002411369
17	0xbcf8a359	-0.030351328
18	0xbc1f1534	-0.009709645
19	0x3c1142ea	0.008866051
20	0x3c09dff0	0.008415207
21	0x3bd109d4	0.0063793454
22	0x3b16481e	0.0022931169
23	0xbc2627ae	-0.010141296
24	0x3c807461	0.015680494
25	0x39956423	0.00028494102
26	0x3c846306	0.0161605
27	0x3c092d10	0.00837256
28	0x3b1d42c0	0.0023996085
29	0xbcfad7b8	-0.03062044
30	0x3cdc021d	0.026856476
31	0xbd266fd5	-0.040633995

block3.2.running_var f4 [32]
0	0x3e0b3287	0.13593493
1	0x3e0206a3	0.12697844
2	0x3e9c6147	0.30542967
3	0x3e0cf64b	0.13765828
4	0x3e02d2db	0.12775747
5	0x3e22bd72	0.1589258
6	0x3e30a0f3	0.17248897
7	0x3dcedb99	0.10100479
8	0x3e11b078	0.14227474
9	0x3e51e2c0	0.20496655
10	0x3e0ed20d	0.13947316
11	0x3deb26b2	0.1148199
12	0x3e5e99c0	0.21738338
13	0x3e39da85	0.18149765
14	0x3e1af07d	0.15130801
15	0x3e39d282	0.18146709
16	0x3ded17c4	0.115767986
17	0x3e3fe33a	0.18739024
18	0x3df2bc09	0.11852271
19	0x3e0fcee6	0.14043769
20	0x3e11f604	0.14254004
21	0x3e18f22d	0.14936133
22	0x3e0d03e5	0.13771017
23	0x3e60fd0f	0.21971534
24	0x3e29a865	0.16568144
25	0x3e8b8619	0.27250746
26	0x3e815296	0.2525832
27	0x3e34771b	0.1762356
28	0x3e07932f	0.1323974
29	0x3e05e530	0.1307571
30	0x3e2e7b2f	0.17039178
31	0x3e657a1e	0.22409865

fc.weight f4 [4, 224]
0	0xbdb1c0c5	-0.08679346
1	0xbcf782c3	-0.03021372
2	0xbd80b370	-0.06284225
3	0xbe02706d	-0.127382
4	0xbe094674	-0.13405782
5	0x3cf2d5e1	0.029643001
6	0x3f0b3fa1	0.54393965
7	0xbd1882d7	-0.037234154
8	0x3d819a2d	0.06328235
9	0xbd5be898	-0.053688616
10	0x3ea45cb4	0.32101977
11	0xbea9ad8e	-0.33140224
12	0xbe6a7eb4	-0.22899896
13	0xbda58a83	-0.0808306
14	0xbe525cb5	-0.20543177
15	0xbd93a3a9	-0.0720895
16	0xbd8e7657	-0.06956165
17	0x3c558bcf	0.013033821
18	0xbe2c195b	-0.16806547
19	0xbe556f3e	-0.20843217
20	0x3e970225	0.29493824
21	0x3ea09b82	0.31368643
22	0x3e6cd9bc	0.23129934
23	0x3db83550	0.089945436
24	0x3b805ed1	0.003917553
25	0xbead7965	-0.3388168
26	0xbec132ae	-0.37733978
27	0xbe89898c	-0.26862752
28	0x3e4fd0df	0.20294522
29	0x3dd4a600	0.103832245
30	0x3d91dd59	0.07122297
31	0x3d1d5cbe	0.038418524
32	0x3e433b4f	0.19065593
33	0xbdb2be82	-0.08727743
34	0x3e5b2f6f	0.21404813
35	0x3ebd7277	0.37001392
36	0x3e34959c	0.17635196
37	0x3e16008d	0.14648648
38	0x3ef1152b	0.47086462
39	0xbe843dbe	-0.25828356
40	0xbc397fce	-0.011321975
41	0x3e749617	0.2388538
42	0xbd8a932b	-0.06766351
43	0x3d8b1e70	0.06792915
44	0x3cbf6df5	0.023367861
45	0xbd847770	-0.064680934
46	0x3eff82d4	0.499045
47	0xbe10f643	-0.14156441
48	0x3e01c7f7	0.12673937
49	0xbf1e6f94	-0.61889005
50	0xbeb73dd1	-0.3578935
51	0x3d0dc9ae	0.034616165
52	0x3dbbc32c	0.091680855
53	0x3dde9f4a	0.10870226
54	0x3dbe2706	0.09284787
55	0x3e4d590b	0.20053498
56	0xbf1d272f	-0.61387914
57	0xbda83964	-0.082140714
58	0xbe96df35	-0.29467168
59	0xbefe0719	-0.4961479
60	0x3e17b299	0.14814223
61	0x3c726eb7	0.014796904
62	0x3e46c7d8	0.19412172
63	0xbc4c75bb	-0.012479241
64	0xbd5961d9	-0.05307183
65	0xbe6f6f00	-0.23382187
66	0xbda70194	-0.08154598
67	0xbdc337ed	-0.09532151
68	0xbe6dd7b7	-0.2322682
69	0x3d54c25f	0.05194318
70	0xbe4a54d7	-0.19758926
71	0xbd0c9042	-0.034317262
72	0xbe239eec	-0.15978593
73	0xbd4f0598	-0.050542444
74	0x3e852a20	0.260087
75	0xbcd44da5	-0.02591593
76	0x3e2de78f	0.16982864
77	0xbf0bc2c5	-0.5459407
78	0xbdca87cd	-0.09889183
79	0xbd9fb22b	-0.07797655
80	0x3a956950	0.0011399183
81	0x3d87d6ee	0.066327915
82	0xbd5271d3	-0.051378082
83	0x3dcc422f	0.09973561
84	0x3efc092a	0.49225742
85	0x3e71147c	0.2354297
86	0x3e1ce40e	0.15321371
87	0xbd3fb389	-0.046802077
88	0x3e0c90c3	0.13727097
89	0xbdfa342a	-0.12216981
90	0xbede27e1	-0.433898
91	0xbf0c099a	-0.5470215
92	0xbe89ee02	-0.26939398
93	0xbe5b75ef	-0.21431707
94	0xbdc807ee	-0.097671375
95	0xbcd2615d	-0.025681192
96	0x3de23228	0.11044723
97	0xbdf0f6bb	-0.1176581
98	0xbcbc4e5e	-0.022986587
99	0x3d7878d1	0.060662095
100	0xbddab04e	-0.10678159
101	0x3d47ac53	0.048748326
102	0xbe1fa8a9	-0.15591682
103	0x3ee52bb7	0.44759914
104	0x3e73bdb2	0.23802832
105	0xbe6c36b5	-0.23067744
106	0x3dc2d33b	0.09512945
107	0xbe01bdc3	-0.12670045
108	0xbe3d0501	-0.1845894
109	0x3cd7e69c	0.02635508
110	0xbdb7f0d7	-0.089814834
111	0xbcab1fed	-0.020889247
112	0x3ee7ecf5	0.4529797
113	0xbba90dbe	-0.005159109
114	0xbb49ef6b	-0.003081287
115	0x3e0bdb76	0.13657936
116	0xbc6b8507	-0.014374978
117	0xbe0b7f54	-0.1362279
118	0x3e32d4b8	0.17463958
119	0xbee447a1	-0.445859
120	0xbef4c57d	-0.47806922
121	0xbec301ac	-0.38087213
122	0xbe817801	-0.25286868
123	0xbed791af	-0.42103335
124	0x3e2553bf	0.16145228
125	0x3e2055aa	0.15657678
126	0x3e801023	0.2501231
127	0x3e4d0f67	0.20025407
128	0xbe8433dc	-0.25820816
129	0x3d4baa1b	0.049722772
130	0x3df54a5b	0.11977073
131	0xbe62a12e	-0.22131798
132	0xbf23da91	-0.6400538
133	0x3e99ce33	0.3004013
134	0x3e0e9369	0.1392342
135	0x3e2923a8	0.16517508
136	0x3e37817b	0.17920487
137	0x3d808294	0.06274906
138	0xbe44ce46	-0.19219312
139	0xbeef5e96	-0.4675185
140	0xbe8e7268	-0.2782166
141	0xbe743186	-0.23847017
142	0xbe3acb12	-0.18241528
143	0x3ea23cd2	0.31687027
144	0x3f100fa7	0.56273884
145	0xbe38e6aa	-0.18056741
146	0x3df172ec	0.11789498
147	0xbd3e50cb	-0.04646377
148	0x3e4b0ec5	0.19829853
149	0x3e2ac899	0.16678084
150	0x3cef441a	0.029207278
151	0x3e9570ae	0.2918753
152	0xbd98bf03	-0.074583076
153	0x3ebce59b	0.36893925
154	0xbe340469	-0.17579807
155	0xbdf7329c	-0.120702
156	0xbca89246	-0.020577561
157	0xbf0d8baf	-0.55291265
158	0xbca5b6b6	-0.020228725
159	0xbb6fad1f	-0.0036571694
160	0x3d8d8688	0.069104254
161	0xbeb506d9	-0.35356787
162	0x3d833351	0.06406272
163	0xbe591d06	-0.21202478
164	0xbe9c1c3d	-0.30490294
165	0xbdee95da	-0.11649676
166	0x3e0f215b	0.13977568
167	0x3ddbdadf	0.10735106
168	0xbe878d81	-0.26475146
169	0xbd4ce94a	-0.05002717
170	0x3eaba73a	0.3352602
171	0xbc629c6d	-0.01383124
172	0x3e35e4b5	0.17763026
173	0x3bf142d3	0.0073627024
174	0xbd0c63b9	-0.03427479
175	0x3dc03d94	0.09386745
176	0x3cd8e92e	0.026478376
177	0xbeb86493	-0.36014232
178	0xbe99802e	-0.29980606
179	0xbebec81d	-0.3726205
180	0x3e381932	0.17978361
181	0xbda7ac60	-0.08187175
182	0x3de8a186	0.11358933
183	0x3d023045	0.031784315
184	0xbe9c0956	-0.30475873
185	0xbe65ac0f	-0.22428916
186	0xbd682402	-0.056674965
187	0xbef02465	-0.46902767
188	0xbe7419b1	-0.23837925
189	0x3d4ff1ec	0.050767824
190	0x3e756541	0.23964407
191	0x3e854c13	0.26034603
192	0x3ee1288f	0.43976256
193	0xbe577ffa	-0.21044913
194	0xbdac369b	-0.08408853
195	0xbd84526d	-0.06461034
196	0x3edfe032	0.43725735
197	0x3e5ffd1e	0.218739
198	0xbdedacd9	-0.11605234
199	0xbcc69821	-0.024242463
200	0xbccc179e	-0.024913605
201	0xbe9b53a4	-0.3033725
202	0xbebe1cb4	-0.37131274
203	0x3d730594	0.05933149
204	0x3ea5a52f	0.32352588
205	0x3e241040	0.16021824
206	0x3e5b717a	0.21430007
207	0xbed4f637	-0.41594097
208	0x3d3de199	0.046357725
209	0x3def3927	0.11680823
210	0xbe79083a	-0.24319544
211	0xbe74406a	-0.23852697
212	0xbe9dc42b	-0.30813727
213	0x3eae6740	0.34063148
214	0x3ed0279d	0.40655223
215	0xbe08da80	-0.13364601
216	0x3d56aa6e	0.05240863
217	0xbd95174f	-0.072798364
218	0xbdde767e	-0.10862444
219	0xbdeeb28c	-0.11655149
220	0xbe62840b	-0.22120683
221	0xbe5e6861	-0.21719505
222	0x3d3e1346	0.0464051
223	0x3e8d71a1	0.27625754
224	0x3f03b038	0.51440763
225	0x3e8d19cf	0.27558753
226	0x3d4450a4	0.047928467
227	0x3e25ccf6	0.16191468
228	0x3d447fba	0.047973372
229	0x3e625dfc	0.22106165
230	0xbe971ef1	-0.29515794
231	0x3e18028e	0.14844725
232	0xbe9d7398	-0.30752254
233	0x3d8a7138	0.06759876
234	0xbe655bab	-0.2239825
235	0xbeb8eb99	-0.36117247
236	0x3ed033d8	0.40664554
237	0xbcb04874	-0.021518923
238	0xbf340b86	-0.70330083
239	0xbf1d0c26	-0.6134666
240	0xbe817c39	-0.25290087
241	0xbe0b7c3a	-0.13621607
242	0x3d7a51cd	0.061113168
243	0x3e1dab3d	0.15397353
244	0xbe8132b0	-0.25233984
245	0xbf1b0673	-0.60556716
246	0xbe5c43f0	-0.21510291
247	0x3d5523b3	0.052036
248	0xbe7b04d8	-0.24513566
249	0x3e3d713c	0.18500227
250	0x3ec492f4	0.38393366
251	0x3e3b1a07	0.18271647
252	0x3eb7011a	0.35743028
253	0x3e4bf711	0.19918467
254	0x3d1e4770	0.038642347
255	0x3df597b7	0.11991828

fc.bias f4 [4]
0	0x3e371b12	0.1788142
1	0x3d12767a	0.03575752
2	0xbda50581	-0.080576904
3	0xbe08f011	-0.13372828
