EEG-ATCNet/results_pytorch_gpu2/saved models1/run-1/subject-1.pth (torch, 194183 bytes, 9 tensors)

conv1.weight f4 [40, 1, 1, 25]
0.056515772 -0.043934334 -0.031268187 0.036155358 -0.112711295 0.05495267 -0.028053867 0.04913526
0.020998351 -0.0076636956 0.04528724 0.020643687 0.05110161 -0.02533138 -0.0010458191 0.0015440607
0.015136628 0.0008113545 0.08460549 0.021645503 -0.056678336 -0.07450332 -0.029410219 -0.052564427
-0.048663698 -0.00195361 0.06215734 0.050451834 -0.11370502 0.053788804 0.014487601 0.081435576
0.046409495 -0.12090268 -0.125798 -0.078696884 0.07761453 -0.036195774 0.034990888 -0.053316202
0.10924746 -0.036584135 0.09360858 0.013013215 -0.044413615 0.063393444 -0.048052996 0.03153548
-0.044232782 -0.03752703 -0.11774443 -0.06450236 0.050785635 -0.030227719 0.10511951 0.09224752
0.00039532315 -0.060697246 0.07360348 0.041859195 -0.0597778 0.076408096 0.076663345 0.100576974
-0.05526821 -0.023677215 -0.019449163 -0.0020249046 -0.09547044 -0.0888359 0.04305189 -0.033235185
0.051544596 0.021493785 0.06720757 0.05445295 0.063299686 0.06584729 -0.094101705 0.05043808
-0.081256196 -0.08573979 0.002348867 -0.018999387 0.06377042 -0.05539024 -0.08284671 0.0944299
0.0006505754 0.07898073 0.05196037 -0.062582545 0.038114496 0.039638173 -0.06079733 -0.040081676
0.04306323 0.011050571 -0.06968236 -0.062234204 0.08059903 -0.03548447 0.035699822 0.020861883
-0.08654612 -0.10191675 0.095499225 0.00088058965 0.06906875 0.014154452 0.028686237 0.07047422
0.090157956 -0.07972668 -0.00096562994 0.058861326 0.04935133 0.039029624 -0.10073468 -0.09941717
-0.086568 -0.007479186 0.08560633 -0.082637876 0.043415777 -0.073731005 -0.11106896 -0.028938858
0.05987374 0.110354 -0.047573827 0.048273824 0.11777444 0.092882 0.08448483 0.087669455
0.068819456 0.02464604 -0.07658467 -0.098385595 -0.06225262 -0.031273954 -0.08477043 0.025704425
0.025407873 -0.032323565 0.03637963 0.035245143 0.07903415 0.096386105 -0.022631748 0.10435489
-0.008686285 -0.0017530895 -0.09770097 -0.06866495 -0.057123344 -0.03438533 0.08198208 -0.025691347
-0.06403639 0.0531981 0.05244215 0.08066169 -0.047634356 0.01971004 -0.03734483 -0.031585667
-0.09045839 -0.057325162 -0.0354046 0.033128925 0.014173396 0.027200324 0.12658188 0.11497673
0.08066004 0.015675647 -0.06646024 0.083568536 -0.035404846 -0.022321869 -0.10900535 -0.045404665
-0.09457326 0.06832958 -0.11903209 -0.10515245 -0.022615487 -0.06735005 0.034069244 -0.028637068
-0.033880398 0.030423533 0.10407947 -0.04234514 0.07164349 0.08009553 0.095831275 -0.09684026
0.0054873624 -0.09463773 0.07121106 -0.059661802 0.050280124 -0.0039879945 -0.014401698 -0.007973023
0.019146787 0.049833473 0.017822376 0.036277115 -0.0960673 0.079759784 0.091657095 0.08545843
0.06406 -0.09151457 -0.053547524 0.08107477 -0.098947056 0.0860177 -0.09422599 -0.08091178
0.046779826 -0.089325026 -0.03579968 0.068608634 0.0774276 0.092473164 -0.029848494 -0.089980505
0.10452004 -0.017200561 -0.03703087 0.03571946 -0.06295996 0.08294526 0.08171513 -0.06837493
-0.07049369 0.0064366288 0.052728985 -0.0005730645 -0.056786254 -0.0015416683 -0.099957846 -0.07229739
-0.059441824 0.104094625 0.076727994 -0.052861817 -0.017600896 0.022824258 -0.009059744 -0.070646115
00000000: 157d 673d 7df4 33bd 1213 00bd a417 143d
00000010: 2ed5 e6bd 0d16 613d 39d1 e5bc 0e42 493d
00000020: bc04 ac3c bd1f fbbb 1d7f 393d f31c a93c
00000030: ec4f 513d c183 cfbc de13 89ba 1462 ca3a
00000040: 9fff 773c 14b1 543a a545 ad3d e951 b13c
00000050: 8b27 68bd 3295 98bd b3ed f0bc cc4d 57bd
00000060: 9653 47bd 2308 00bb b298 7e3d 95a6 4e3d
00000070: 2dde e8bd a651 5c3d 675d 6d3c b2c7 a63d
00000080: e217 3e3d d39b f7bd 31d1 00be d52b a1bd
00000090: 5ef4 9e3d 0542 14bd 9b52 0f3d 1762 5abd
000000a0: 22bd df3d 3fd9 15bd dbb5 bf3d 6135 553c
000000b0: 0deb 35bd 6cd4 813d 38d3 44bd 592b 013d
000000c0: 6f2d 35bd f1b5 19bd fe23 f1bd d019 84bd
000000d0: 9904 503d 1fa0 f7bc e648 d73d 45ec bc3d
000000e0: 6043 cf39 ad9d 78bd 6cbd 963d 8c74 2b3d
000000f0: 91d9 74bd d97b 9c3d ac01 9d3d 4dfb cd3d
00000100: eb60 62bd b8f6 c1bc da53 9fbc 43b4 04bb
00000110: 0286 c3bd 99ef b5bd 2e57 303d 9e21 08bd
00000120: 6d20 533d bc13 b03c 1fa4 893d 0e0a 5f3d
00000130: 44a3 813d f2da 863d 65b8 c0bd 2998 4e3d
00000140: a669 a6bd 5898 afbd 73ef 193b 9aa4 9bbc
00000150: 119a 823d e0e0 62bd 89ab a9bd 7764 c13d
00000160: 608b 2a3a a6c0 a13d 66d4 543d 472b 80bd
00000170: f21d 1c3d a35b 223d 9f06 79bd af2c 24bd
00000180: 1263 303d 740d 353c a0b5 8ebd 4be9 7ebd
00000190: 1b11 a53d 2a58 11bd fa39 123d 8ae6 aa3c
000001a0: 183f b1bd bbb9 d0bd 1995 c33d 5fd7 663a
000001b0: eb73 8d3d 13e8 673c 66ff ea3c ca54 903d
000001c0: bca4 b83d be47 a3bd 5422 7dba 9318 713d
000001d0: 9f24 4a3d 87dd 1f3d fc4d cebd 3b9b cbbd
000001e0: 904a b1bd f613 f5bb 5f52 af3d 0c3e a9bd
000001f0: bed4 313d 4800 97bd 1f78 e3bd 2f11 edbc
00000200: 2b3e 753d 4701 e23d c6dc 42bd c6ba 453d
00000210: ba33 f13d eb38 be3d 6206 ad3d 0b8c b33d
00000220: 37f1 8c3d 7ee6 c93c 6cd8 9cbd 637e c9bd
00000230: 9afc 7ebd 1e19 00bd 1f9c adbd 1692 d23c
00000240: 2c24 d03c b765 04bd cf02 153d 365d 103d
00000250: a8dc a13d 1466 c53d 3766 b9bc 04b8 d53d
00000260: eb50 0ebc ecc7 e5ba 7217 c8bd 36a0 8cbd
00000270: 2bfa 69bd a2d7 0cbd 39e6 a73d a976 d2bc
00000280: 8325 83bd 40e6 593d 94cd 563d f531 a53d
00000290: 3e1c 43bd f376 a13c e4f6 18bd f95f 01bd
000002a0: 4042 b9bd cacd 6abd 6a04 11bd 32b2 073d
000002b0: 8837 683c 37d3 de3c ae9e 013e eb78 eb3d
000002c0: 1731 a53d 376a 803c 4e1c 88bd fb25 ab3d
000002d0: ac04 11bd 5adc b6bc 323e dfbd 3efa 39bd
000002e0: a0af c1bd 61f0 8b3d 19c7 f3bd 2b5a d7bd
000002f0: 1d44 b9bc d3ee 89bd 318c 0b3d 4998 eabc
00000300: 2cc6 0abd c63a f93c 9e27 d53d 1972 2dbd
00000310: d2b9 923d 2009 a43d 3043 c43d 3054 c6bd
00000320: 55cf b33b 6dd1 c1bd 1bd7 913d ef5f 74bd
00000330: 88f2 4d3d b9ad 82bb 19f5 6bbc 48a1 02bc
00000340: b9d9 9c3c 2f1e 4c3d 3b00 923c 5097 143d
00000350: efbe c4bd 1959 a33d b7b6 bb3d d404 af3d
00000360: e431 833d fe6b bbbd a654 5bbd 870a a63d
00000370: c1a4 cabd 0c2a b03d 8ef9 c0bd 13b5 a5bd
00000380: 349c 3f3d 0af0 b6bd afa2 12bd af82 8c3d
00000390: 5d92 9e3d 9262 bd3d d484 f4bc b347 b8bd
000003a0: 9a0e d63d 31e8 8cbc aead 17bd 924e 123d
000003b0: 27f1 80bd 34df a93d 435a a73d 2808 8cbd
000003c0: ff5e 90bd 5bea d23b 59fa 573d b539 16ba
000003d0: b498 68bd ce11 caba b3b6 ccbd a710 94bd
000003e0: 4579 73bd 902f d53d 9123 9d3d a285 58bd
000003f0: c12f 90bc f0f9 ba3c 526f 14bc e9ae 90bd

conv1.bias f4 [40]
-0.043923188 -0.15294825 -0.1159154 -0.10766629 -0.00480853 0.07292852 0.093655616 -0.09159273
-0.0330712 -0.15553445 0.15498601 0.1971133 0.19518343 0.08519074 -0.0419919 -0.0020721518
0.07189859 -0.17240556 0.015704863 -0.15841557 -0.20239529 -0.008166843 -0.061826847 -0.11848506
0.038968295 0.008067678 0.028527472 -0.11045168 -0.18936464 0.013201026 -0.0775472 -0.06870963
0.14502122 0.02752491 0.098681904 -0.058001373 -0.16154061 0.04307606 -0.12891681 0.018015595
00000000: cde8 33bd 779e 1cbe 0e65 edbd 2580 dcbd
00000010: e090 9dbb 8c5b 953d 84ce bf3d f894 bbbd
00000020: ab75 07bd 6c44 1fbe a7b4 1e3e 12d8 493e
00000030: 2ade 473e 7c78 ae3d b3ff 2bbd f0cc 07bb
00000040: 913f 933d 158b 30be 7ca7 803c b137 22be
00000050: b640 4fbe 39ce 05bc 263e 7dbd 4ca8 f2bd
00000060: 389d 1f3d 4b2e 043c 72b2 e93c 7e34 e2bd
00000070: cee8 41be 1e49 583c 11d1 9ebd a2b7 8cbd
00000080: 7180 143e ec7b e13c bd19 ca3d d992 6dbd
00000090: e76a 25be 8670 303d c502 04be 7195 933c

conv2.weight f4 [40, 40, 22, 1]
-0.0054129926 0.0050425287 -0.011595858 0.002765908 0.0034473266 0.0060163303 0.023825182 0.01603613
0.0009505751 -0.009740872 -0.013701171 -0.022763478 0.005820876 0.021501128 0.01390202 -0.009715156
-0.006535377 -0.016026394 0.004260593 0.0029423086 -0.0042693256 0.0023284268 -0.018227197 0.0022391877
-0.014299553 -0.011864083 -0.019000059 -0.02704042 -0.008725724 0.0058971117 0.010848115 0.0009828474
-0.018965183 -0.014453807 -0.014141416 -0.009972835 -0.0039854194 0.005749167 -0.009588458 -0.0034578256
0.004287702 -0.005562813 0.0037036333 -0.0026230537 0.022537025 -0.008166377 -0.016572908 -0.01415087
0.0026171962 0.031393766 -0.0071058767 -0.011349645 -0.023446744 -0.01784805 0.011334812 0.013649289
-0.005585969 -0.0025275066 -0.012788015 -0.009110295 0.003403432 0.010339133 -0.0072758216 0.001313147
-0.0026981311 0.01867212 -0.0014616045 0.013484756 0.013703708 0.00236309 -0.019614985 -0.008732195
0.01288554 0.019772341 0.014030659 0.012051188 -0.011226057 -0.019313319 -0.005000925 0.01807732
0.022330642 0.012295442 0.008898994 -0.0011008534 0.006521055 -0.0015638772 -0.008012348 -0.00096327794
-0.0065927524 -0.0014757146 0.0012446059 0.0038458318 -0.011129552 0.013774244 -0.010091102 -0.002164526
0.004859515 -0.0016029744 -0.0048025763 0.010560294 -0.007942925 0.01213843 0.009543831 -0.004780772
6.5444394e-05 0.00063950784 -0.005898631 -0.003297886 0.0017680215 -0.0026910298 -0.0023034713 -0.009670624
-0.01482804 -0.008100208 0.009233095 0.009946819 -0.011097413 -0.021530194 -0.022391161 -0.008925061
-0.0040621455 0.021022683 0.017555296 -0.016586568 -0.015889235 0.0077817575 -0.0048817545 0.01509723
-0.01312098 -0.0041264743 0.009356744 0.007558083 0.008543755 -0.0008464508 0.004245485 0.00083444285
0.0132014975 0.016315551 0.0024053813 -0.006929099 -0.0038598054 0.021545006 0.014321013 0.011507634
0.0054070316 0.006784626 0.011529698 0.014895261 0.014651464 0.004940852 0.016760582 0.013808564
0.0060172724 0.003360046 -0.004236722 0.024693845 0.018724237 0.0048019662 -0.0022840104 -0.0053718607
0.004225384 0.011869456 0.017022235 0.017547425 0.011004869 -0.007259374 -0.00025957756 -0.0120234275
-0.007680183 0.0024734493 0.018804448 0.010780005 -0.018032791 0.00078562263 0.012021233 -0.0022369367
0.009773056 -0.010230229 -0.0028579484 -0.019728107 -0.0075601093 -0.0093687605 0.00086485595 0.010551644
0.0030002734 -0.017363427 -0.009803035 -0.006455405 -0.006134474 0.0026480332 0.010755966 -8.3374274e-05
0.0016415389 -0.009872718 0.011980804 -0.0067963344 -0.008500367 -0.0047515733 0.0056210817 -0.0043861126
0.0022031947 -0.009700016 0.0026978843 -0.008683395 -0.004599109 -0.015113862 0.00093655474 0.0011244857
-0.014950084 -0.012125081 0.0058926297 -0.0027326269 -0.00039864526 -0.016905723 -0.0005210087 0.00063312746
-0.00674748 -0.006716978 0.0044071926 -0.00053111056 0.0044716033 -0.0040446413 -0.009317412 -0.010488798
0.013477334 0.00470883 0.00419709 0.007457418 -0.011025041 -0.0036670957 -0.0010649608 0.006529953
0.011740604 0.007274785 -0.008460682 -0.006729639 -0.0066787195 -0.003728644 0.0077050943 -0.003908091
0.0046784137 0.0062584067 0.0021419956 -0.0018230914 0.005759128 0.001944858 0.0073715686 0.0009910441
0.005946996 0.0023922513 0.008187514 0.0011176785 0.0043411157 -0.008143312 -0.0054138154 0.015716078
00000000: 795f b1bb cc3b a53b 8efc 3dbc 3c44 353b
00000010: 8bec 613b a324 c53b 072d c33c 345e 833c
00000020: 0430 793a 2e98 1fbc e07a 60bc 797a babc
00000030: 0cbd be3b 2223 b03c 4cc5 633c 512c 1fbc
00000040: b726 d6bb c949 83bc 729c 8b3b bfd3 403b
00000050: b3e5 8bbb 8598 183b 3451 95bc 56bf 123b
00000060: ac48 6abc 9261 42bc 03a6 9bbc df83 ddbc
00000070: 57f6 0ebc 8f3c c13b 4bbc 313c e3d2 803a
00000080: df5c 9bbc a9cf 6cbc 66b1 67bc 1a65 23bc
00000090: 1f98 82bb 8263 bc3b e818 1dbc b09c 62bb
000000a0: da7f 8c3b 4248 b6bb a8b8 723b 8ae7 2bbb
000000b0: 919f b83c 45cc 05bc e8c3 87bc 0dd9 67bc
000000c0: 4485 2b3b c096 003d 6ad8 e8bb ddf3 39bc
000000d0: 6313 c0bc 1336 92bc a6b5 393c 44a1 5f3c
000000e0: 810a b7bb 86a4 25bb d384 51bc 5943 15bc
000000f0: 1d0c 5f3b 7865 293c 046a eebb e71d ac3a
00000100: 21d3 30bb 46f6 983c 4f93 bfba 2bef 5c3c
00000110: 8485 603c 12de 1a3b 9baf a0bc 7b11 0fbc
00000120: df1d 533c 9bf9 a13c d9e0 653c 5972 453c
00000130: 7fed 37bc f736 9ebc cdde a3bb e316 943c
00000140: c0ee b63c d272 493c 16cd 113c 834a 90ba
00000150: 93ae d53b 03fb ccba 3946 03bc 7d84 7cba
00000160: 0408 d8bb c46c c1ba 0b22 a33a 5a0a 7c3b
00000170: b958 36bc 5ead 613c 2655 25bc b8da 0dbb
00000180: 913c 9f3b e51a d2ba ee5e 9dbb 1505 2d3c
00000190: 0b23 02bc 44e0 463c bb5d 1c3c 06a8 9cbb
000001a0: 313f 8938 a5a4 273a 4e49 c1bb 5921 58bb
000001b0: f5bc e73a fd5b 30bb d6f5 16bb 8971 1ebc
000001c0: 4ff1 72bc bcb6 04bc 6846 173c fcf7 223c
000001d0: ecd1 35bc 1760 b0bc ab6d b7bc 6b3a 12bc
000001e0: bf1b 85bb c337 ac3c 20d0 8f3c 8ee0 87bc
000001f0: 242a 82bc 1dfe fe3b 20f7 9fbb 5f5a 773c
00000200: 61f9 56bc 6037 87bb 074d 193c cca9 f73b
00000210: 1bfb 0b3c 5ae4 5dba b61d 8b3b 83be 5a3a
00000220: 184b 583c 31a8 853c 9aa3 1d3b 7f0d e3bb
00000230: caf4 7cbb 277f b03c afa2 6a3c 848a 3c3c
00000240: 782d b13b 9151 de3b 0fe7 3c3c 410b 743c
00000250: b20c 703c dfe6 a13b 7d4d 893c 513d 623c
00000260: 8a2c c53b 3834 5c3b 33d4 8abb bf4a ca3c
00000270: 9263 993c d059 9d3b 56af 15bb 6f06 b0bb
00000280: 1775 8a3b 1b78 423c 3772 8b3c 9ebf 8f3c
00000290: c44d 343c 0be0 edbb e917 88b9 e9fd 44bc
000002a0: 0baa fbbb 9819 223b c90b 9a3c 9e9e 303c
000002b0: 81b9 93bc 3ef2 4d3a b5f4 443c 9299 12bb
000002c0: 2b1f 203c b19c 27bc 6b4c 3bbb d79c a1bc
000002d0: cbba f7bb 6e7f 19bc 80b7 623a cde0 2c3c
000002e0: 3ca0 443b bf3d 8ebc e99c 20bc dd87 d3bb
000002f0: b303 c9bb a08a 2d3b cb39 303c 39d9 aeb8
00000300: e828 d73a 2ec1 21bc 224b 443c c9b3 debb
00000310: 2045 0bbc 16b3 9bbb 0d31 b83b 61b9 8fbb
00000320: 7963 103b d1ec 1ebc fdce 303b cc44 0ebc
00000330: 1fb4 96bb 22a0 77bc 2083 753a 7b63 933a
00000340: 32f1 74bc 47a8 46bc f616 c13b df15 33bb
00000350: 4301 d1b9 df7d 8abc 4d94 08ba 77f8 253a
00000360: f719 ddbb 181a dcbb 366a 903b 3a3a 0bba
00000370: 8786 923b e988 84bb 0fa8 18bc 35d9 2bbc
00000380: 09d0 5c3c 874c 9a3b be87 893b 5b5d f43b
00000390: 60a2 34bc a853 70bb 2896 8bba 37f9 d53b
000003a0: aa5b 403c 5261 ee3b ac9e 0abc 4e84 dcbb
000003b0: 29d9 dabb 445c 74bb 047b fc3b 720f 80bb
000003c0: 614d 993b 5213 cd3b b960 0c3b ccf4 eeba
000003d0: 11b7 bc3b 9bea fe3a 338d f13b ece5 813a
000003e0: 05df c23b 51c7 1c3b ec24 063c 117f 923a
000003f0: eb3f 8e3b 876b 05bc 6066 b1bb 01bf 803c

batchnorm.weight f4 [40]
1.0248654 1.0337691 0.9870703 1.0182325 1.0338421 1.0256034 1.0246454 1.0282124
1.03599 1.016043 1.0232522 1.036548 0.9798592 1.007914 1.0115775 1.0156028
0.99975115 1.005049 1.0249552 0.9598107 1.0155344 1.0182359 1.0404185 1.0101552
1.0149671 1.0294025 1.0387427 0.9873487 1.0149633 1.0276644 1.0019853 1.0166365
1.0234488 1.0423297 1.0088001 1.0388317 1.0231714 0.9900773 0.9818501 1.0356201
00000000: ca2e 833f 8c52 843f a4b0 7c3f 7155 823f
00000010: f054 843f f946 833f 9527 833f 779c 833f
00000020: 529b 843f b20d 823f eef9 823f 9bad 843f
00000030: 0dd8 7a3f 5303 813f 5f7b 813f 46ff 813f
00000040: b1ef 7f3f 72a5 803f bb31 833f 27b6 753f
00000050: 08fd 813f 8e55 823f 6f2c 853f c44c 813f
00000060: 71ea 813f 76c3 833f 85f5 843f e2c2 7c3f
00000070: 51ea 813f 828a 833f 0e41 803f 2521 823f
00000080: 5f00 833f 0f6b 853f 5d20 813f 70f8 843f
00000090: 48f7 823f b575 7d3f 875a 7b3f 338f 843f

batchnorm.bias f4 [40]
0.03500511 0.018589241 0.031531956 0.019556943 -0.006280584 -0.0007955014 0.007819374 -0.008542966
0.012695571 0.015007169 0.008559948 0.007290168 -0.0012531439 -0.07936798 0.052877914 -0.00848062
-0.009343062 0.009600352 0.021862142 -0.02386423 0.012180971 0.002948643 0.053505357 -0.030359883
-0.0036947166 0.052297305 0.005955396 0.045249544 -0.0470272 0.0018348265 0.06480478 -0.03330831
0.0063893525 0.017394103 0.007997064 0.029842695 -0.0003474738 -0.042477217 -0.0334587 -0.03756463
00000000: 8561 0f3d 7748 983c a727 013d e235 a03c
00000010: 5bcd cdbb 3289 50ba d51c 003c ccf7 0bbc
00000020: 1601 503c a1e0 753c 063f 0c3c 5de2 ee3b
00000030: 8840 a4ba ae8b a2bd 8396 583d 4cf2 0abc
00000040: a413 19bc cb4a 1d3c 3c18 b33c eb7e c3bc
00000050: b292 473c 053e 413b 6f28 5b3d 4ab5 f8bc
00000060: 0f23 72bb b335 563d 7c25 c33b 9657 393d
00000070: 989f 40bd 907e f03a 5eb8 843d 4b6e 08bd
00000080: c65d d13b 147e 8e3c 1e06 033c ab78 f43c
00000090: 252d b6b9 97fc 2dbd fd0b 09bd 5fdd 19bd

batchnorm.running_mean f4 [40]
0.027781246 4.029101e-05 0.024044136 -0.077971265 -0.022846315 0.043676924 -0.00061582157 -0.0037428103
0.017720008 0.006637487 -0.030605845 -0.032723527 -0.074593455 0.010634656 -0.037458457 0.050999112
-0.06270929 0.090422705 0.01838859 -0.09890918 -0.02256724 0.043127917 0.09193528 0.11194823
-0.041734785 -0.016351031 -0.0015645996 0.024760125 -0.011510883 -0.024541441 0.036236074 -0.056319803
-0.021898922 -0.01841508 -0.08346248 0.07298674 -0.010991561 0.055327535 0.04148162 0.06689518
00000000: 7f95 e33c 24fe 2838 35f8 c43c 66af 9fbd
00000010: 3228 bbbc 93e6 323d 166f 21ba f049 75bb
00000020: 8d29 913c 477f d93b 1cb9 fabc 1b09 06bd
00000030: 74c4 98bd fb3c 2e3c 0a6e 19bd 72e4 503d
00000040: ba6d 80bd 8a2f b93d aba3 963c e590 cabd
00000050: efde b8bc e6a6 303d 9048 bc3d 1d45 e53d
00000060: 18f2 2abd 99f2 85bc 4013 cdba bfd5 ca3c
00000070: 2598 3cbc 220b c9bc 476c 143d 98af 66bd
00000080: 5e65 b3bc 39db 96bc 60ee aabd 127a 953d
00000090: f315 34bc 209f 623d a2e8 293d 5700 893d

batchnorm.running_var f4 [40]
0.064678706 0.095583 0.11490109 0.13033718 0.08964815 0.34084424 0.07726115 0.026183862
0.0646152 0.07226502 0.11440138 0.08012278 0.16478096 0.08258242 0.1189861 0.10240863
0.07931679 0.11115986 0.06543847 0.09883501 0.08059791 0.08875635 0.11617422 0.068278335
0.08650265 0.04038779 0.089969516 0.09501783 0.10927652 0.030312547 0.091843635 0.068101786
0.040746696 0.1272076 0.24938314 0.32475868 0.21519703 0.42384225 0.19525273 0.09488539
00000000: 4576 843d 05c1 c33d 4351 eb3d 1c77 053e
00000010: 7399 b73d 2383 ae3e 183b 9e3d 8a7f d63c
00000020: f954 843d afff 933d 454b ea3d 6917 a43d
00000030: 57bc 283e f920 a93d fcae f33d 9ebb d13d
00000040: d770 a23d c8a7 e33d 9b04 863d 026a ca3d
00000050: 8410 a53d e4c5 b53d c0ec ed3d 83d5 8b3d
00000060: 4d28 b13d ab6d 253d f041 b83d b598 c23d
00000070: 5ecc df3d 0552 f83c 8418 bc3d f378 8b3d
00000080: 02e6 263d b642 023e 4b5e 7f3e c546 a63e
00000090: 9c5c 5c3e da01 d93e 55f0 473e 4553 c23d

dense.weight f4 [4, 2840]
0.0050645946 0.005152287 -0.010379669 0.00080720504 -0.0010768549 0.010654018 0.022243494 0.0048201145
0.012202158 0.013892066 -0.023126848 -0.023582313 -0.0035920395 0.019991765 -0.0029063101 -0.010066104
-0.018877493 0.024396049 -0.012367809 0.020959865 0.0012985466 -0.017442588 -0.021934185 -0.013525341
0.030943597 -0.007698729 0.030419363 0.022540282 -0.01343611 0.0202512 -0.01630254 0.014239002
-0.0063263685 -0.018899964 0.0039558886 -0.018722747 -0.031311292 -0.002592588 0.0005471043 0.022938922
0.03300022 0.021576405 0.022326415 0.0028288916 0.015039848 0.0024584744 -0.0016823702 -0.016177885
-0.0031104002 -0.012356923 -0.0049004033 -0.0020882764 0.0070604007 0.0033926875 0.008899098 -0.016119746
0.029617427 0.021428436 0.001681206 0.03272291 0.011560072 -0.008683921 -0.0038712632 -0.0124228615
0.0045526563 0.016883735 0.007188221 0.0075922157 0.0070681884 0.02443275 0.022249985 0.032796055
-0.004339261 -0.019695917 -0.016866006 -0.01744577 0.011132087 0.016336126 0.022823242 0.0055056685
-0.010257375 0.021767264 0.031137833 0.0068170973 0.019195208 0.036489904 0.009329602 0.013340869
-0.010876241 -0.004124404 -0.009612894 0.019950323 0.0007895312 -0.0020622276 -0.007385739 0.008003578
-0.013610111 -0.025306463 -0.015000101 -0.0025259505 -0.014758176 -0.012924506 0.00269811 -0.020747786
-0.022752412 -0.004233203 0.012674154 0.017266024 0.016412888 0.0038136675 0.032056756 0.024656286
0.014032001 5.28793e-05 0.0026154707 -0.013437312 -0.0031642981 0.0076975143 0.0035107653 0.0019943947
0.022453187 -0.0005190475 -0.009907471 -0.008783405 -0.01591995 -0.010155313 -0.022514656 -0.0006238975
-0.02341962 -0.011012424 0.007819604 0.023415882 -0.013224178 0.019889802 -0.018270548 0.008968748
0.023789963 -0.007493665 0.014583478 -0.0066275294 -0.00022363223 -0.0139696505 0.016867751 0.013611012
0.006133997 -0.0045479527 -0.022211961 -0.007504649 0.02149997 -0.00713285 -0.010329287 8.8745095e-05
-0.023377564 -0.011548619 0.010187588 0.012999296 0.03296027 -0.012750713 -0.0074675116 -0.005366994
-0.013931422 0.007250753 0.00958955 -0.001428874 0.009797978 -0.014140616 0.0053890604 0.035585213
-0.016294004 -0.020549668 -0.023402072 -0.036343604 -0.02103448 -0.014912198 -0.009385797 -0.003808166
-0.0030536295 -0.020749785 -0.012611917 -0.006838525 -0.009009903 -0.0017944812 0.01707351 0.0071008345
-0.012263336 -0.02419272 -0.028720856 -0.005441782 0.016234893 0.0332186 0.002071913 0.014724176
0.001319481 0.00012655725 0.012804281 -0.0120307105 -0.01068575 0.0011932858 -0.0014744338 0.025879934
0.011419427 -0.016043771 0.00304378 0.0018999126 -0.013631979 0.012423302 0.0038432945 -0.008785021
-0.018493934 -0.013817714 -0.0030783664 -0.0075351475 0.0018639567 0.017851587 0.0031940576 -0.01706723
-0.03321167 -0.020929234 0.024653677 0.0133217005 -0.018681334 -0.0037240381 0.001664183 0.005737093
0.018591003 0.005069788 -0.03755341 0.016957758 -0.015260623 -0.01837248 -0.033107318 -0.024716428
-0.019510906 -0.025393505 -0.0029769326 0.026777102 -0.002389464 -0.016291521 -0.015454991 -0.006900012
0.004220231 0.0026535874 0.01452674 0.0067298324 -0.007857099 0.012680414 -0.0018189609 -0.014932548
-0.028513646 -0.0074889944 -0.00091380486 -0.006658448 0.009891167 0.016096547 -0.018460842 -0.025318583
00000000: e6f4 a53b 84d4 a83b 7d0f 2abc 9d9a 533a
00000010: 4125 8dba 318e 2e3c fd37 b63c 0df2 9d3b
00000020: 8feb 473c 8c9b 633c 8474 bdbc b22f c1bc
00000030: 6c68 6bbb c5c5 a33c cb77 3ebb 4dec 24bc
00000040: f9a4 9abc 39da c73c 5aa2 4abc 06b4 ab3c
00000050: fe33 aa3a c2e3 8ebc 52af b3bc 6499 5dbc
00000060: 6d7d fd3c 9f45 fcbb 0732 f93c 66a6 b83c
00000070: 2123 5cbc d8e5 a53c e88c 85bc b44a 693c
00000080: 6d4d cfbb 19d4 9abc 66a0 813b 7260 99bc
00000090: 4540 00bd 69e8 29bb 8c6b 0f3a 68ea bb3c
000000a0: 3d2b 073d 00c1 b03c e3e5 b63c ed64 393b
000000b0: b269 763c 5b1e 213b fa82 dcba 7c87 84bc
000000c0: dbd7 4bbb b174 4abc 9093 a0bb 77db 08bb
000000d0: ef5a e73b da57 5e3b 86cd 113c 8f0d 84bc
000000e0: 3fa0 f23c b08a af3c ea5b dc3a 7508 063d
000000f0: 7566 3d3c 0147 0ebc 05b5 7dbb 4289 4bbc
00000100: 732e 953b c24f 8a3c 2b8b eb3b 1fc8 f83b
00000110: 439c e73b 3127 c83c 9a45 b63c 2855 063d
00000120: 5c30 8ebb 5559 a1bc 942a 8abc 6eea 8ebc
00000130: 5b63 363c 57d3 853c cff7 ba3c e568 b43b
00000140: 8d0e 28bc 4351 b23c c514 ff3c f561 df3b
00000150: 453f 9d3c 7076 153d 30db 183c a993 5a3c
00000160: 4332 32bc 0226 87bb 667f 1dbc dc6e a33c
00000170: 8bf8 4e3a 7026 07bb 1204 f2bb 7021 033c
00000180: f1fc 5ebc 804f cfbc fcc2 75bc 6b8a 25bb
00000190: 47cc 71bc 4fc1 53bc c6d2 303b 43f7 a9bc
000001a0: 4463 babc aeb6 8abb 41a7 4f3c 7a71 8d3c
000001b0: 5274 863c b9ee 793b f24d 033d fbfb c93c
000001c0: 7ae6 653c b7ca 5d38 5168 2b3b 2c28 5cbc
000001d0: 1d60 4fbb 6e3b fc3b de14 663b 64b4 023b
000001e0: bfef b73c b010 08ba f252 22bc 45e8 0fbc
000001f0: 8e6a 82bc 7862 26bc a870 b8bc 0d8d 23ba
00000200: 81da bfbc 746d 34bc cc1d 003c aad2 bf3c
00000210: 39aa 58bc f0ef a23c 1eac 95bc a8f1 123c
00000220: 2be3 c23c 6b8d f5bb 8aef 6e3c bf2b d9bb
00000230: d27e 6ab9 f6e0 64bc 3d2e 8a3c b900 5f3c
00000240: b2ff c83b fe06 95bb dcf5 b5bc 8fe9 f5bb
00000250: b520 b03c afba e9bb 2b3c 29bc a91c ba38
00000260: 4e82 bfbc 6b36 3dbc d7e9 263c 00fb 543c
00000270: 5901 073d 5ee8 50bc 07b2 f4bb 9cdd afbb
00000280: 9e40 64bc ba97 ed3b 7d1d 1d3c 0e49 bbba
00000290: b387 203c 0bae 67bc b796 b03b cdc1 113d
000002a0: 017b 85bc c757 a8bc b4b5 bfbc 08dd 14bd
000002b0: 8050 acbc 4b52 74bc e3c6 19bc 6c92 79bb
000002c0: 671f 48bb 74fb a9bc 37a2 4ebc b515 e0bb
000002d0: 469e 13bc cc34 ebba bfdd 8b3c 1eae e83b
000002e0: 29ec 48bc d02f c6bc 0048 ebbc fa50 b2bb
000002f0: 0aff 843c 3a10 083d efc8 073b ac3d 713c
00000300: 6ff2 ac3a 74b4 0439 0cc9 513c 751c 45bc
00000310: 4913 2fbc 0768 9c3a ca41 c1ba 2802 d43c
00000320: 8c18 3b3c 3a6e 83bc 287a 473b 7d06 f93a
00000330: aa58 5fbc 1b8b 4b3c c8df 7b3b 0cef 0fbc
00000340: 9780 97bc b163 62bc 6bbe 49bb 66e9 f6bb
00000350: 0250 f43a 7e3d 923c 6553 513b 93d0 8bbc
00000360: f608 08bd c973 abbc 82f6 c93c 4343 5a3c
00000370: 9909 99bc fe0e 74bb b720 da3a 39fe bb3b
00000380: 294c 983c 7720 a63b 9bd1 19bd ffea 8a3c
00000390: b107 7abc e281 96bc 8a9b 07bd 1b7a cabc
000003a0: 56d5 9fbc 0a06 d0bc a418 43bb a75b db3c
000003b0: 8e98 1cbb cc75 85bc ee36 7dbc 7f19 e2bb
000003c0: dd49 8a3b cfe7 2d3b 9001 6e3c ed85 dc3b
000003d0: 10bb 00bc 83c1 4f3c 336a eeba a5a7 74bc
000003e0: 7395 e9bc 3d66 f5bb 688c 6fba 1c2f dabb
000003f0: 900e 223c e8dc 833c 313b 97bc eb68 cfbc

dense.bias f4 [4]
0.009640815 -0.008346653 0.04040565 -0.021257058
00000000: 82f4 1d3c 66c0 08bc 6580 253d 4823 aebc
