EEG-ATCNet/results_pytorch_gpu2/saved models1/run-1/subject-6.pth (torch, 194183 bytes, 9 tensors)

conv1.weight f4 [40, 1, 1, 25]
00000000: e6ea 753d 8e18 39bd 7573 95bc 0bbb 593d
00000010: 8bb2 cebd dad2 873d 4fed afbc 280f 6a3d
00000020: c0df 7b3c 866a 46bc e113 003d 6172 b63b
00000030: 6915 2a3d 3222 28bd 3269 cebb da66 01bc
00000040: e26e 933c cc11 c03a bc00 c83d ee2e 133d
00000050: f090 1dbd c70c 83bd 7810 8dbc eb89 3abd
00000060: e7ea 06bd 258c f43a c2f0 7b3d 0d39 673d
00000070: ef4c e0bd d463 853d d413 e13c b859 ce3d
00000080: 170c 8d3d d7bd d3bd 2ff4 dbbd 7aa1 64bd
00000090: 2293 c13d dbb2 87bc 8697 573d d94a 36bd
000000a0: 279a e83d aa6a 22bd e09e b43d b077 ec3b
000000b0: 4b9e 53bd 97c8 7e3d 865b 56bd eec2 1b3d
000000c0: 6ea5 d0bc 7314 f4bb 802a d4bd 35fd 4fbd
000000d0: fc0b 783d 9476 d6bc e48f dd3d 4ab8 b43d
000000e0: 56d3 adbb 8156 94bd d2ee 8b3d 3db9 133d
000000f0: 5582 8cbd 5295 943d f9f6 8c3d bd51 ca3d
00000100: 4434 72bd b435 7fbc b280 0eba 27d0 993c
00000110: ec54 abbd 396b a1bd ad58 703d 7402 dabc
00000120: eadb 543d efed c33b 6c64 123d c525 d63c
00000130: 4e0f 343d af87 753d 6103 c7bd 8f77 6f3d
00000140: d780 97bd 82b7 a3bd c8f6 193c 4170 7bbc
00000150: 8403 8a3d 28a0 75bd 6289 c2bd d40e aa3d
00000160: 228c 4dbc 18e1 863d 7d36 223d 1c05 9cbd
00000170: 9683 e63c 39d9 033d 8e3f 8cbd 2f83 47bd
00000180: 30b2 213d 7df8 a63c 5da8 3cbd c050 08bd
00000190: 702d c03d 2c04 d8bc 69ae 643d 4944 2a3d
000001a0: 15f9 9abd 9fa0 c7bd c701 cf3d 058a 2c3b
000001b0: f90f 943d 9671 ad3c f269 133d 1268 aa3d
000001c0: c1e8 d63d fa7e 91bd ceae 533c 935c a53d
000001d0: 0323 9f3d ee94 863d 0c03 a7bd f488 a7bd
000001e0: 3932 91bd dbff 0a3c cc96 d43d b2f1 97bd
000001f0: 5145 5a3d fb6c 62bd 9271 c7bd 1e68 93bc
00000200: 2266 8a3d 32c6 d53d f0a2 8abd b088 c43c
00000210: c865 c03d 9316 953d 633d 8b3d 8b1b 9f3d
00000220: 14e7 893d 84dd c33c 96af a2bd a44e c6bd
00000230: 29bd 60bd 7f5c 80bc 4293 8ebd 413a 1e3d
00000240: 9548 093d f4f5 c5bc 60a9 2d3d 5ed8 103d
00000250: 341d 8a3d e098 983d ee1c 2ebd 3fe1 d03d
00000260: c800 90bc 03af 65bb 69bb cdbd f47f 8bbd
00000270: c0c6 81bd 0d7b 36bd ce38 a43d c99b 06bd
00000280: 4dec 9dbd 8392 413d 8017 1d3d f1bf 973d
00000290: f269 67bd e157 b43c 4473 2cbd 8053 e0bc
000002a0: 3e89 b9bd 7b44 5bbd a497 18bd 4772 2f3d
000002b0: ebb5 833c 280e bc3c 93da d63d d818 e23d
000002c0: e240 a13d 65fb ee3b d894 93bd e784 b53d
000002d0: 5b8c c6bc 01ab f6bb 7f28 bdbd e3f6 adbc
000002e0: 2433 8fbd e926 cd3d 6347 c4bd 30cc adbd
000002f0: b55f c2bb 7bc3 7dbd 91eb 153d 29c2 3abd
00000300: 5a53 5bbd f349 2a3b 2196 973d 2e65 a5bd
00000310: 2371 463d 2bcc 873d ee3b d53d cc49 a3bd
00000320: 19b5 bc3c 60de acbd 994f b73d 9c1f 3dbd
00000330: a1c8 7c3d 3146 afb9 fcb0 43bc bae5 eebb
00000340: 7e42 743c 667a 443d 366e 5b3c f82a ef3c
00000350: ad66 cbbd 0d99 a33d 220f c63d cffc b93d
00000360: 1cc0 a63d 827f a2bd 9515 29bd dd68 c13d
00000370: 6d83 aebd dc55 c53d a911 b6bd 9c8d a4bd
00000380: d200 4b3d fedf a0bd ab84 cebc 3745 a33d
00000390: 4018 b33d 8dd8 d53d 58a0 a8bc 2195 a9bd
000003a0: 8571 e13d 6970 aebc 5c3e 31bd 6aff e53c
000003b0: e808 9abd 7891 973d d7ab 903d b79c acbd
000003c0: a0e8 b1bd bed6 dbbb f44e 483d 8222 a539
000003d0: 1483 56bd 9fed b93b a5e7 cbbd 1906 97bd
000003e0: 6019 8ebd 0a5e bf3d bfb9 bd3d 4895 26bd
000003f0: 9184 ca3a 5b48 3b3d d4b8 1b3c 9d69 70bd
0.06003847 -0.045189433 -0.01824353 0.053156894 -0.10092648 0.066320136 -0.021475462 0.05714336
0.01537317 -0.012110358 0.031268958 0.0055678342 0.041524325 -0.041048236 -0.0062991614 -0.007898057
0.017997209 0.0014653741 0.09765765 0.035933428 -0.0384683 -0.063989215 -0.017219767 -0.045541685
-0.032938864 0.0018657489 0.0615089 0.056450892 -0.10952174 0.06513181 0.027475275 0.10075706
0.068870716 -0.103389435 -0.10739934 -0.05581806 0.094518915 -0.016564777 0.05263474 -0.044504974
0.11357527 -0.039652504 0.088193655 0.0072164163 -0.05166463 0.062203016 -0.052333377 0.038027696
-0.025469508 -0.007448727 -0.10359669 -0.050778586 0.060558304 -0.02617959 0.108184606 0.08824213
-0.005304734 -0.07243062 0.06832661 0.03606533 -0.06860796 0.07255043 0.06883044 0.098788716
-0.059131876 -0.015576769 -0.0005436047 0.018776013 -0.08365807 -0.07881779 0.058678318 -0.026612498
0.05196754 0.0059792916 0.0357403 0.026141057 0.04395991 0.05994385 -0.09717441 0.05846363
-0.07397621 -0.07993986 0.009397216 -0.015346588 0.06738952 -0.05996719 -0.0949886 0.083036095
-0.012545617 0.06585902 0.039602745 -0.07618162 0.028138917 0.03218958 -0.068480596 -0.04870909
0.039476573 0.02038216 -0.046059 -0.033280134 0.093836665 -0.026369177 0.055830393 0.041569028
-0.0756704 -0.09747433 0.10107761 0.0026327383 0.07229609 0.021172326 0.03598971 0.08320631
0.10493613 -0.07104297 0.012920095 0.08074298 0.0777035 0.06571375 -0.08154878 -0.081804186
-0.07089657 0.008483852 0.10380325 -0.074191466 0.05328876 -0.055279713 -0.09738459 -0.017993983
0.067577615 0.104381934 -0.06769359 0.023990959 0.09394413 0.07279696 0.06798818 0.07768925
0.06733528 0.023909338 -0.079436466 -0.09682968 -0.054867897 -0.015669106 -0.06961681 0.038629774
0.033516485 -0.024165131 0.042397857 0.035362594 0.06743851 0.074510336 -0.04250806 0.10199212
-0.017578498 -0.0035046942 -0.10045511 -0.068115145 -0.06336737 -0.044550944 0.08018647 -0.032863412
-0.077110864 0.047258865 0.03835249 0.07409657 -0.05649752 0.02201456 -0.042102113 -0.027383566
-0.0905938 -0.053532105 -0.03725399 0.042833593 0.016077956 0.022955969 0.104909085 0.11039895
0.078737035 0.007293152 -0.07206124 0.0886324 -0.024236849 -0.0075277095 -0.0923624 -0.021235889
-0.06992176 0.10017187 -0.095839284 -0.08486211 -0.0059318193 -0.061954003 0.036601607 -0.04559532
-0.053546287 0.0025984019 0.07401682 -0.08075939 0.04844774 0.06630739 0.10411821 -0.0797306
0.023035573 -0.08440852 0.08950729 -0.046172723 0.061714772 -0.00033430898 -0.011944052 -0.007290569
0.014908431 0.04796829 0.013392976 0.029195294 -0.09931693 0.079881765 0.09670855 0.090814225
0.08142111 -0.079344764 -0.041280348 0.09443829 -0.08521161 0.09635517 -0.08890087 -0.08034822
0.04956133 -0.07855223 -0.025209745 0.07972186 0.0874486 0.104416944 -0.02058427 -0.08280397
0.1100798 -0.021293836 -0.04327236 0.028075892 -0.0752123 0.07400793 0.07064026 -0.084283285
-0.08686948 -0.006708949 0.04890342 0.00031496963 -0.0523711 0.0056740786 -0.09956292 -0.0737421
-0.06938434 0.093441084 0.09263944 -0.04066971 0.0015450885 0.0457233 0.009504516 -0.05869447

conv1.bias f4 [40]
00000000: 9ee1 37bd 84d9 1cbe 908e 00be 34ea d7bd
00000010: b25e e0bb 8e96 9e3d c554 c73d 2fdd c7bd
00000020: c308 0bbd a4cc 1ebe 8223 1d3e 8c3d 4b3e
00000030: 22d7 463e 431b ad3d 8d8c 27bd ec8a 03bc
00000040: a7c7 8c3d 6ff7 30be a032 613c c65f 27be
00000050: 7122 4ebe f40a debb b125 82bd 9de0 02be
00000060: a3fc f73c ff87 d93b d732 ff3c 100d e1bd
00000070: 6cc2 47be 1061 e43b 1713 a8bd fe94 86bd
00000080: 35aa 133e c943 023d 52ea bb3d 5b4b 6fbd
00000090: cad9 24be 46be 2e3d 8626 04be 4c10 c33c
-0.0448929 -0.1531735 -0.12554383 -0.105427176 -0.006847226 0.0774356 0.097329654 -0.09758984
-0.033943903 -0.15507752 0.15345576 0.19847697 0.19418004 0.084524654 -0.040905524 -0.008028727
0.06874018 -0.17281888 0.01374498 -0.16345128 -0.20130326 -0.006776208 -0.06354845 -0.12780996
0.030271834 0.0066385265 0.031152172 -0.109888196 -0.1950776 0.0069695786 -0.08206766 -0.06571387
0.14420398 0.031802926 0.091755524 -0.058421474 -0.16098705 0.042661928 -0.1290532 0.023811482

conv2.weight f4 [40, 40, 22, 1]
00000000: bf8c 8abc 33d4 5a3c 0375 5dbc 3ad7 573c
00000010: 652d 1a3c ceb9 263c 2751 383c d1e5 bb3b
00000020: ebcb e1ba c17d e8ba ddff 1bbc f932 97bc
00000030: d79a 683c da9b 753b 4be3 143c f380 e539
00000040: 1baf 963b 0a68 3abc d34c 30bc e688 6c3c
00000050: 7db6 013c ed6f 3a3c 23eb 9cbc 86f6 21ba
00000060: a418 9fbc d9de acbb 8580 71bb d51e 7fbc
00000070: 5898 97bc d1f6 deba 33eb 5a3c 70fe 523c
00000080: 4d03 6fbc 5889 c5bb 82a8 7cbc 1cb8 6ebc
00000090: 1fd8 debb f27f 733c 8a2e b9bb 5542 0a3a
000000a0: b9d7 903c 3533 833b ebc1 6a3c 5824 543c
000000b0: 6777 9b3c 040d 85ba ca90 95bc cba9 a7bc
000000c0: d64e 1fbc 2a13 583c b79f 223c b31f 0d3b
000000d0: 768f 86bc f8f3 8abc 280b 413c c2e7 41bb
000000e0: 824c 4dbc 04f5 e0b9 a56e b0bb 2626 a8ba
000000f0: 3feb ff3b eec0 253c ff4d e1bb acb1 c23b
00000100: 2fa4 8ebb d6be 953c b901 c13b 6ac6 503c
00000110: d85c 9d3c f25a 523c 3b73 90bc ce5f ba3b
00000120: edec 2ebc d96f df3b a2e3 8e3b 372b b43c
00000130: d6ac 0ebc ce97 75bc 6a8d 20bc 707f df3b
00000140: 0cf4 843c 6b7b 853c b8b6 5e3c 447f 2e3b
00000150: 1ea4 97bb ebfc 9cbb 8297 37bc 0f6e ef39
00000160: 9eb7 58bc 915a af3b a4cc 103c d4f3 323c
00000170: a182 a6bc 4fcf 363c e92f 2dbc ccf4 06bb
00000180: 52de 6a3c 8419 c13b 60ca 26bc f457 dc3b
00000190: bc98 89bc f272 7c3c 0d29 8d3c 7a8b abba
000001a0: 2882 383b b9af 5dbb 6d9f ffbb ae19 a9bb
000001b0: d762 ac3a 3f5f 35bc a94c 24bc 6e3b 88ba
000001c0: a452 6abc 18a8 5abc e6a9 f23a 303a bebb
000001d0: 84ec 703c 069f 27bc 5546 57bc d0ea 02bc
000001e0: 5edc 81bc 0bce 2d3c 81fc ab3c 59fc 5abc
000001f0: 1622 13bc 0b56 783c 85dd 43bc 65c6 0b3c
00000200: fb79 6abc fef3 6fbc 7638 f03a 0715 08bc
00000210: d26d 313c bf89 64bb 69ab 4f3b 2144 d8bb
00000220: e073 273c 10e8 9f3c 30b2 d4ba 123c 0fbc
00000230: 8b3f 5dbc 8fa6 af3c 4aaf 343c 5400 193c
00000240: 9d45 563b 84c7 053c d49d 0e3c 3c57 293c
00000250: 6c9a 353c 904d c93a 3996 4b3c 597c 0a3c
00000260: 13bb 3dbb fd11 39bc ec3d 4e3a 4ffd 6c3c
00000270: a73c 5a3c 4fd4 64bb 2204 ea39 1585 4f3c
00000280: 799e 853b 56ea 773c b664 1c3c a24d 0f3c
00000290: a420 ff3b 789c 51bc 7809 b3bb 39b8 d9ba
000002a0: 035d 76bc db2e 84bc 4b4b 413c e04c b33b
000002b0: 2609 9cbc c3c5 fdba e98d e93b 9c78 ab3b
000002c0: 5621 7a3c f25f febb fb1d bd3b f924 91bc
000002d0: 0dbd afbb d1d6 74bc 30ae 24bb 2a2c 243c
000002e0: 4877 ef3b 3bac 49bc 5b40 0abc 781c eebb
000002f0: fced e9bb 3c2f 00bc 770c 5d3c 5155 4c3c
00000300: 97f4 6e3c 8061 1abc 17e2 843c ca11 35bb
00000310: dfda cbba 16a1 eab9 9016 2ebb 9904 01bc
00000320: e402 163b ced7 30bc 7ed4 fa3b c261 5ebc
00000330: 2169 d0bb ee07 38bc a08f 4c3c fa71 523c
00000340: a30e 51bc 09c6 eebb bb18 823c f2a3 e53b
00000350: 5c62 573c 4a84 62bc b3aa 003c f75c 433c
00000360: fdea 42bb d0d9 b1ba 9262 4d3c 5751 7f3b
00000370: c633 9b3b 4f28 09bb ab1b 38bc bc49 84bc
00000380: 0419 723c 89e9 a6bb b52f 7c3c b41d 3d3c
00000390: e1d1 58bc 9ee6 71bb 5b33 1ebc 5617 99bb
000003a0: aa1c 533c 4f3a 123c 665f 48bc 7785 37bc
000003b0: 6314 50bc 9958 5abc d1de 7a3c 8a07 fabb
000003c0: 9bab 4c3b 0be8 ab3b c365 fe3a e61d 3d3a
000003d0: 2134 543c 5e35 dc3b a125 5e3c 7a1c b43b
000003e0: 7595 033b 8a41 bc3b 880c 6a3c 182c 9d3b
000003f0: 6df6 7a3c 6705 ff39 8432 a3bb 849d 923c
-0.016912816 0.013356256 -0.013516667 0.013173873 0.009410237 0.010176135 0.011249817 0.0057341834
-0.001722691 -0.0017737673 -0.009521452 -0.018456923 0.014197073 0.0037476928 0.009087394 0.00043774358
0.004598511 -0.011377344 -0.010760504 0.014436936 0.007917044 0.011379224 -0.01915509 -0.00061783975
-0.01942093 -0.005275589 -0.0036850285 -0.015571316 -0.01850526 -0.0017010813 0.01336174 0.012878045
-0.014588189 -0.0060283355 -0.015421035 -0.014570262 -0.006800666 0.0148620475 -0.0056513 0.00052741665
0.01768099 0.004003907 0.01432846 0.012948118 0.018977834 -0.0010150974 -0.018257517 -0.020466706
-0.009723386 0.013188163 0.009925774 0.0021533787 -0.01642583 -0.016962036 0.011782445 -0.0029587601
-0.012530448 -0.0004290716 -0.0053842836 -0.0012828752 0.007810026 0.010116799 -0.006875753 0.0059415903
-0.0043530683 0.018279474 0.005890098 0.012742618 0.01920931 0.012839066 -0.017633071 0.0056876903
-0.010676605 0.006818753 0.004360632 0.021993263 -0.0087081995 -0.014989806 -0.009799341 0.0068206117
0.016229652 0.016294202 0.013593368 0.002662615 -0.0046277186 -0.0047908924 -0.011205556 0.00045667632
-0.0132273715 0.0053513725 0.008837853 0.010922391 -0.02032596 0.011157825 -0.010570505 -0.0020592688
0.014335232 0.0058929343 -0.010180086 0.006724352 -0.016796462 0.0154082645 0.017231489 -0.0013087832
0.002815375 -0.0033826663 -0.0078009875 -0.005160532 0.0013152015 -0.011070072 -0.010028043 -0.0010393688
-0.01430193 -0.013345741 0.0018513768 -0.0058052763 0.014704827 -0.010230785 -0.013139327 -0.007990554
-0.01585215 0.0106082065 0.020994427 -0.013365828 -0.008980295 0.015157233 -0.01195467 0.008531188
-0.014311309 -0.014645575 0.0018327374 -0.008305795 0.010829406 -0.0034872142 0.0031687862 -0.0065999185
0.010220498 0.019519836 -0.001622742 -0.008742349 -0.013503919 0.021441726 0.01102812 0.009338457
0.0032695301 0.008165244 0.008704621 0.01033574 0.01108418 0.0015358198 0.012425953 0.008452498
-0.0028950616 -0.011295793 0.00078675034 0.01446469 0.013320125 -0.0034916585 0.00044635037 0.012666007
0.0040777293 0.015131554 0.009545496 0.008746536 0.0077858735 -0.012793653 -0.0054637752 -0.0016610689
-0.015036824 -0.016135624 0.011797736 0.0054718107 -0.019047331 -0.0019361306 0.0071275127 0.0052328836
0.015266737 -0.0077629024 0.005771396 -0.017717825 -0.005363113 -0.014943794 -0.0025128238 0.010020295
0.0073079206 -0.012309129 -0.008438195 -0.0072665773 -0.0071389657 -0.007823762 0.013491741 0.012471513
0.014584682 -0.00942266 0.01622109 -0.0027629011 -0.00155529 -0.00044751976 -0.0026563741 -0.007874631
0.0022889907 -0.010793639 0.0076547256 -0.013573112 -0.0063601886 -0.011232359 0.012485415 0.012844557
-0.012759837 -0.007286791 0.015880933 0.007008069 0.013146009 -0.0138254855 0.007853198 0.01192402
-0.0029742115 -0.0013568942 0.012535708 0.0038958394 0.0047363965 -0.0020928567 -0.011237065 -0.01614844
0.014776472 -0.0050937575 0.015392234 0.011542726 -0.013233633 -0.003691114 -0.009655799 -0.0046719713
0.012885252 0.008925035 -0.012229776 -0.011201254 -0.012700173 -0.013326787 0.015311913 -0.0076302933
0.0031230215 0.0052461675 0.001940899 0.0007214233 0.012951882 0.006720229 0.013558776 0.0054965587
0.0020078097 0.0057451176 0.014285214 0.004796516 0.015317542 0.00048641415 -0.004980387 0.017897375

batchnorm.weight f4 [40]
00000000: cba1 803f d81b 803f 0a57 803f 211e 803f
00000010: 6388 803f 0ab5 7f3f a647 803f af39 803f
00000020: 7a13 803f 690c 803f ce43 803f bd46 803f
00000030: 7233 7f3f b9b4 803f 8497 803f 8f2b 803f
00000040: ed02 803f da79 803f ff3b 803f f8ac 803f
00000050: 571c 803f 81bf 803f 410e 803f 4aed 7e3f
00000060: ffc0 803f e16b 803f b7f3 7f3f 4b49 803f
00000070: 5767 803f 2beb 803f 9e26 7f3f c610 803f
00000080: 5dce 7f3f aa84 7f3f 6e44 803f 2dd5 7e3f
00000090: 2778 7f3f 9a08 803f bdb8 7f3f 6c19 803f
1.0049375 1.0008497 1.0026562 1.0009195 1.0041622 0.9988562 1.0021865 1.0017604
1.0005944 1.0003787 1.0020692 1.0021588 0.99687874 1.0055152 1.0046239 1.0013293
1.0000893 1.0037186 1.0018309 1.0052786 1.0008649 1.0058442 1.000435 0.99580824
1.0058898 1.0032922 0.99981254 1.0022367 1.0031537 1.0071768 0.996683 1.0005119
0.9992426 0.99811804 1.0020883 0.9954403 0.9979271 1.0002625 0.99891263 1.0007758

batchnorm.bias f4 [40]
00000000: e999 82bb 7332 8c3b 94f4 893a ff99 043a
00000010: d1e2 9c3b 8af4 a73b c246 e43a 1587 393b
00000020: a87a ca3b bfb8 543a 26be 543b db36 af3a
00000030: b0e8 833b 2619 95bb ecf1 8c3b ded1 bf3b
00000040: 5d5d 90bb 4ca9 c83b 9f45 5dbb b77a cc3a
00000050: dad4 fd3a 6e6b 943a 69c4 37ba 9872 8c3b
00000060: fcfb 0f3b e928 80bb cbc7 c23a 33c4 87ba
00000070: b1fd 8abb 9147 5dbb f88f 3f3b 3e0d 613b
00000080: c3f8 d4b9 d509 4a3b 019e f3b9 4205 bbba
00000090: df8a 7ebb 3ac9 053a 1bbd a23b 43c1 3ebb
-0.0039856327 0.004278475 0.001052516 0.00050583476 0.004787781 0.005125587 0.0017416107 0.0028309275
0.0061791725 0.00081146875 0.003246197 0.0013367789 0.0040255412 -0.004550117 0.0043013003 0.0058538755
-0.004405661 0.0061236974 -0.0033763421 0.0015600537 0.0019365803 0.001132352 -0.00070101634 0.0042861216
0.0021970263 -0.003911127 0.0014860568 -0.0010358155 -0.004241668 -0.003376458 0.00292301 0.0034340168
-0.00040621133 0.0030828614 -0.00046466294 -0.0014268535 -0.0038840098 0.00051035325 0.004966391 -0.0029106892

batchnorm.running_mean f4 [40]
00000000: 7947 093d b8fb 4fbc 75a2 693d ac0a f73c
00000010: 216d 24bd d4c1 db3c ba29 283c 87e7 493b
00000020: 57e6 393d 5f90 413d 1ea8 a73c 9f07 fdbc
00000030: e7fd c03b c7b7 63bd 4023 673d f28d c73d
00000040: 3281 48bd 6cb9 26bd 4cea a13d 2596 75bd
00000050: f5c8 aebd 0a30 953d 66c6 953d f335 723d
00000060: 99ba c6bc bbd6 70bd a57e 9dbd ca54 f0bc
00000070: 97ac be3b db12 fbbc 9410 4f3b 31d0 6dbc
00000080: 97c2 1d3d 3a2a 0dbc 0bb4 37bc ca8d 0a3c
00000090: 897a b8bc e4ab cebc 062f 4ebd 7611 4dbd
0.033515427 -0.012694292 0.057039697 0.030156456 -0.040143136 0.026825823 0.010263855 0.0030808167
0.045385685 0.047256824 0.020465907 -0.030887423 0.0058896425 -0.055595186 0.0564301 0.09743871
-0.048951335 -0.040704176 0.07906017 -0.059957642 -0.08534423 0.07284553 0.07313232 0.05913348
-0.024258899 -0.058798533 -0.07690171 -0.029337306 0.005818914 -0.03064864 0.0031595575 -0.014514969
0.038515653 -0.008616025 -0.011212359 0.008456657 -0.022519367 -0.025228448 -0.050337814 -0.05006548

batchnorm.running_var f4 [40]
00000000: 0ca9 eb3c 1d37 e33c bf83 143e 3137 203d
00000010: 899e 693d 158f ad3d 0b32 af3d cb6a f33d
00000020: 47fb a83d c0af c63d 10e3 a53d ad1f 043e
00000030: e5c1 213e 64ee df3d 3aa7 8f3d 463f da3d
00000040: ccef ba3c 6004 ac3c 3386 ae3d 27c2 783d
00000050: c118 0f3d 1fa1 4e3c fce8 e03c 3fa9 963c
00000060: a817 ed3d fcec 0e3d d1e9 cb3d 89e7 1d3d
00000070: 07e5 593e 6e3a a53c 8cbc bd3d 1bde 143e
00000080: cccc e73c d900 4e3d 7e0f a43d 8987 ca3c
00000090: 605c 853c 6e9e 093d 43c9 0e3e 29f8 1f3e
0.028767131 0.027736241 0.14503382 0.039115135 0.057035957 0.08474556 0.08554467 0.118856035
0.08251052 0.097014904 0.08099949 0.12902708 0.15796621 0.10934141 0.07014318 0.106566
0.022819422 0.02099818 0.0852169 0.060732033 0.034935717 0.012611656 0.027454846 0.01839125
0.11576778 0.034893975 0.09956706 0.038550887 0.21278773 0.020169463 0.09264478 0.14537852
0.028295897 0.050293777 0.080107674 0.024722831 0.0162794 0.033598356 0.13943963 0.1562201

dense.weight f4 [4, 2840]
00000000: b537 8fbb 0e50 8e3c 98cb 603c b881 613c
00000010: d04f 0d3b cdc0 ac3b e043 fd3b b013 5f3b
00000020: 9ec6 043c 9552 803c 549d 4bbc f90d 693b
00000030: 4ebe 403b fdec 9a3c 14e5 feba 5226 56bc
00000040: c9a4 43bc 09de 2c3c e35e 6b3a 6b27 773c
00000050: 8f5c 7a3c 0d83 623a 7054 aebc f790 6fbc
00000060: defd 4d3c 6312 15bc b13d 163c 8665 133c
00000070: a34a 44bc e91b 06bb 804a 07bc 2aae 0c3c
00000080: af20 8ebb f017 f9bb d663 5b3c 8187 40bc
00000090: df9a 65bc 12b6 5f3c 7f06 20bc 377c e63b
000000a0: 981f 613c e3bf a03a e6da 943c ec36 093c
000000b0: 7712 a23b ac12 06bc 8c5c 18bc 2538 aabc
000000c0: 7581 90bc 0dba 92bc 855c 85bc d50b 7dbc
000000d0: c6a2 f03a 3fb3 1bbc e9b1 673c c712 80bc
000000e0: 9eae 403c dec1 583c c25e cbba 95ff a03c
000000f0: c28a 1e3c 2e56 a1bc 1fea 9fbc ef3b 94bc
00000100: a438 4439 11ab 833b 476f 603c f3d5 223b
00000110: acfd 7c3c d157 873c 06d4 e43a da49 4e3c
00000120: e875 aabb 37f4 68bc c28f 5aba 40e4 57bc
00000130: 03a9 3f3c 83d3 1f3c 967a 9d3c 7ef4 863b
00000140: 0a8b a8bc 6846 2e3c 8015 443c 653d 95bc
00000150: 18b2 44bc fd87 9c3c 8fc2 5abc e9d1 23bb
00000160: 6156 f13a 37e9 9f3b 3a6c b8bb f9e3 113c
00000170: 5acc 0b3b 6b80 8abc 313e 9dbc 86ed 7e3c
00000180: a0ed 023c 502c 2e38 d85d 13bc 1a2b e43b
00000190: 2bf7 19bc 54bd 17bc 663a aabb 6efd 5ebc
000001a0: c32e 3abc c52c 1ebc 2359 753c 6309 18b9
000001b0: e735 603b 605a 68bb 96d5 693c 528e b6b8
000001c0: 3153 433b 2988 40bc 2597 e63b 01e2 23bc
000001d0: 283b d7bb 51d3 d3b8 eccb 1dbb 8872 7fbc
000001e0: ede6 453c 12cb 13bc 7f81 3cbc ef03 28bc
000001f0: 8c28 82bc 75d9 a5bb 4797 2dbc b15e 6a3c
00000200: f25c a3bc e282 013c 66a0 a73b 225f 903c
00000210: 27ea 86bc bf2c a63c 4468 cf3b 7d37 993a
00000220: 135b e03b b268 12bc bec2 943c a892 6abc
00000230: 4370 64ba 731c 07bc 4388 f53b 8d4e 283a
00000240: f3d6 62b9 6df7 a43b 749d bab9 2c71 a13c
00000250: 1099 893c 2fb7 ffbb a621 603b 4e21 eabb
00000260: 0ae6 3cbc 66d1 41bb f5e5 453c 19a9 943c
00000270: 2530 983c 7bcc 54bc 3c9f 26bb d178 18bb
00000280: 0c18 10bc ff94 543c f631 193a ef76 023c
00000290: bd1b 1bba 9140 8abc a8ed 173c 8fd2 0d3c
000002a0: ee66 c5bb f479 bebb c22a 293c ec24 9fbc
000002b0: 4dd5 98bb 8607 fcbb 3a2a 4fbc 7a5f 48bc
000002c0: f848 dfb8 688e 02bc a30d 023b 9651 183c
000002d0: 8b96 89bc 9dc6 2cbc 643e eb3a 9cb3 7a3b
000002e0: c8ae 9fbb 0091 79bb f2d0 9bbb 2cbc 00bb
000002f0: 7608 803c 90a1 bb3c 8745 b83a 04a1 613b
00000300: 898c 0fbc 88ce fabb ae22 f73a 7123 bb3b
00000310: 60bb 77bc 39fc 803c 91f2 fc3b 9613 893c
00000320: d144 083c ee8d 893a fccb ea3b 35cc e1bb
00000330: 9607 08bc d012 8d3c 8a33 723b 8581 3dbc
00000340: fa4a 9dbb 3101 bbbb 53fa 223c d1af 8638
00000350: 75e9 33bc e2df cb3b 8330 3c3a 74c6 0ebc
00000360: ea26 18bc 6b16 27bb 751a 843c c27f 813c
00000370: 73c7 85bc 0b6e f13b 155c ea3b fb64 1f3c
00000380: eb96 b03c ee5e a9ba e704 34bc bb50 cb3b
00000390: 38f1 0fbc 7785 3abc eb86 84bc 6db1 25bc
000003a0: 7eee 85bc 1611 97bc bb66 95bc 75e5 e9ba
000003b0: ab03 56bc 9db1 84bc fae4 adbb 8237 b3bb
000003c0: 88fd 3e3c a603 a63b 960c d53b 4257 013c
000003d0: 23f0 45bc 289a 633c 56ae 06bc 8e36 07bc
000003e0: eb7e a9bb e446 f43b a183 df3b 37a4 17ba
000003f0: 3509 f93b ffca 6b3c dc3c 7bbc f029 e3bb
-0.0043706545 0.017372157 0.0137204155 0.0137638375 0.0021562465 0.005272007 0.0077290386 0.0034038834
0.008103995 0.015664378 -0.012427647 0.0035561307 0.0029410305 0.018911833 -0.0019446933 -0.01307066
-0.011941143 0.010550984 0.0008978678 0.015085082 0.015280857 0.0008640744 -0.021280497 -0.014621965
0.012572734 -0.009098622 0.009169982 0.008996373 -0.011980685 -0.0020463413 -0.008257508 0.008586446
-0.0043373923 -0.0076017305 0.013390502 -0.011751057 -0.014013975 0.013654249 -0.009767174 0.0070338505
0.013740443 0.0012264218 0.018170785 0.008374911 0.004946049 -0.008183163 -0.009299409 -0.020778725
-0.017639855 -0.017910982 -0.016279468 -0.0154447155 0.0018359057 -0.009503185 0.014141538 -0.015633954
0.011760382 0.013229815 -0.0015515911 0.019653121 0.009676637 -0.019694414 -0.019520817 -0.018094985
0.00018713117 0.0040181954 0.013698406 0.0024846762 0.015441339 0.016521366 0.0017458207 0.01259085
-0.005202044 -0.014218382 -0.00083374616 -0.013176978 0.01169801 0.009755018 0.019223493 0.004118501
-0.020574111 0.010636903 0.011968017 -0.018217752 -0.0120053515 0.019107813 -0.01335205 -0.0024996942
0.0018412584 0.0048800963 -0.005628136 0.008904451 0.002133152 -0.016906938 -0.019194694 0.01555956
0.0079912245 4.1526102e-05 -0.008994542 0.006963146 -0.009397308 -0.009261448 -0.00519495 -0.013610227
-0.011363688 -0.009654229 0.014974865 -0.00014499346 0.0034211816 -0.0035454258 0.014272114 -8.7049455e-05
0.0029804225 -0.011751213 0.007037061 -0.010002614 -0.0065683313 -0.00010100625 -0.0024077846 -0.015591271
0.012078983 -0.009020584 -0.011505484 -0.010254844 -0.015888475 -0.0050613233 -0.010595149 0.014304803
-0.01994178 0.00790474 0.0051155565 0.017623488 -0.016469074 0.020285008 0.006329568 0.001168951
0.0068467944 -0.008936094 0.018159267 -0.014317192 -0.0008714238 -0.008246529 0.0074930503 0.00064203964
-0.00021633114 0.0050343783 -0.00035593996 0.019707285 0.016796619 -0.0078038196 0.0034199744 -0.0071450835
-0.011529455 -0.0029574274 0.012078752 0.018147038 0.018577645 -0.012988205 -0.00254245 -0.0023265372
-0.008794796 0.012974977 0.00058439316 0.007962926 -0.0005916914 -0.01687649 0.00927297 0.008656158
-0.006024233 -0.005812878 0.010325136 -0.019426785 -0.0046640993 -0.0076913266 -0.012644345 -0.012229795
-0.0001064706 -0.007968523 0.0019844554 0.009296795 -0.016795417 -0.0105454 0.0017947671 0.0038254028
-0.0048731305 -0.0038080812 -0.004755133 -0.001964341 0.015629034 0.022904187 0.0014058807 0.0034428248
-0.008761534 -0.007654015 0.001885494 0.005711012 -0.015120357 0.01574527 0.007719346 0.016732972
0.008317188 0.0010494569 0.00716543 -0.0068907985 -0.00830259 0.017220885 0.003695699 -0.011566524
-0.0048001977 -0.005706929 0.009947377 6.422366e-05 -0.010980953 0.0062217573 0.00071788597 -0.008714307
-0.009286622 -0.002549554 0.016125897 0.01580799 -0.016330456 0.0073678545 0.0071520903 0.009728665
0.021556338 -0.0012921968 -0.010987497 0.006204692 -0.008785538 -0.01138436 -0.016177615 -0.010113102
-0.016349073 -0.018440764 -0.018237462 -0.0017844873 -0.013062398 -0.016197974 -0.005306837 -0.0054692635
0.011657126 0.005066353 0.0065017445 0.007894339 -0.012081179 0.013891734 -0.008220276 -0.008252753
-0.0051726005 0.00745474 0.0068211113 -0.0005784663 0.0075999745 0.01439166 -0.015334334 -0.0069324896

dense.bias f4 [4]
00000000: dab3 0f3c 5937 823c f9c8 d3ba 1b30 3abc
0.008770907 0.015895532 -0.0016157917 -0.011364008
