EEG-ATCNet/results_pytorch_gpu2/saved models1/run-1/subject-2.pth (torch, 194183 bytes, 9 tensors)

conv1.weight f4 [40, 1, 1, 25]
0.05376491 -0.0499451 -0.028291637 0.046820298 -0.108698785 0.06109655 -0.026016768 0.053313587
0.013511417 -0.016128128 0.027218582 0.0028813083 0.036015518 -0.047379743 -0.014254313 -0.01670591
0.009051185 -0.0084772855 0.088602625 0.026314592 -0.046040483 -0.07088344 -0.024302213 -0.04933618
-0.038372967 0.0028347927 0.05963266 0.057641674 -0.11141509 0.062266808 0.024545023 0.09650532
0.06526633 -0.10630825 -0.10891434 -0.058575645 0.09169743 -0.01840874 0.04825338 -0.050019283
0.1112159 -0.04330423 0.086323746 0.0046121627 -0.057267386 0.057674695 -0.05993385 0.027996881
-0.03549954 -0.01696062 -0.11068512 -0.05883776 0.053279955 -0.030158663 0.10563096 0.08253571
-0.009511168 -0.076989435 0.06399549 0.028168004 -0.072663374 0.068922 0.06272685 0.094618574
-0.061784618 -0.02331098 -0.0026339074 0.008985839 -0.090235226 -0.085739225 0.055964496 -0.03171319
0.047510725 0.0005234965 0.030116003 0.025534688 0.043530818 0.05640356 -0.10267502 0.05822024
-0.07484591 -0.08156873 0.01332393 -0.01066796 0.07409844 -0.053356178 -0.08820907 0.09154841
-0.007987207 0.0690188 0.039756365 -0.07969356 0.020419592 0.020536158 -0.07851539 -0.05565469
0.03340858 0.017593993 -0.048860967 -0.03327937 0.09329519 -0.028908575 0.052548017 0.035636283
-0.08310337 -0.10403101 0.09576983 -0.0041322573 0.06508659 0.013267207 0.026533572 0.07313204
0.09821297 -0.07375891 0.016282633 0.08684673 0.08552483 0.07428167 -0.07328362 -0.07413649
-0.060199957 0.01887763 0.11167422 -0.06732033 0.059000272 -0.060032275 -0.10387336 -0.02243132
0.06799608 0.10393965 -0.06445533 0.028601732 0.09694553 0.07551299 0.0658436 0.072935276
0.063640065 0.021287607 -0.08268703 -0.0990052 -0.057997733 -0.017755644 -0.07270227 0.03503132
0.027798826 -0.029792747 0.037496373 0.030964108 0.06449361 0.07311206 -0.035866868 0.10715928
-0.0119974585 -0.0038916562 -0.10190182 -0.067689665 -0.06103752 -0.04256994 0.08011652 -0.03633027
-0.08168152 0.040493242 0.032756723 0.06965084 -0.05777279 0.022460727 -0.04026684 -0.026996352
-0.08998012 -0.049711544 -0.034603763 0.049719818 0.025684563 0.034447942 0.11671365 0.10547922
0.07499855 0.0039954814 -0.07563964 0.085878536 -0.025142152 -0.0070252377 -0.09112667 -0.018348357
-0.067737155 0.10365807 -0.09323019 -0.08321874 -0.00139726 -0.056064688 0.043849465 -0.039213084
-0.04615083 0.010111448 0.08485736 -0.07341406 0.056077603 0.07369562 0.11004209 -0.07537585
0.029459374 -0.0786581 0.09537317 -0.040177334 0.06588912 0.003217151 -0.009858144 -0.0048313825
0.018330866 0.05113522 0.016790757 0.034342017 -0.097714625 0.07606177 0.09238206 0.089268304
0.076557145 -0.08227045 -0.045656905 0.09185421 -0.0869919 0.098308705 -0.08909172 -0.07967532
0.051256973 -0.0814643 -0.023817286 0.08158147 0.09056867 0.1090829 -0.016798075 -0.07930797
0.113922656 -0.015915282 -0.037278235 0.03406794 -0.067278646 0.08007645 0.07503197 -0.08049926
-0.084522285 -0.0062947087 0.049220536 0.0010331365 -0.05274937 0.0046328395 -0.101201735 -0.07447823
-0.07057484 0.092534475 0.09585922 -0.039088957 0.0023406402 0.047053847 0.009443875 -0.05874636
00000000: 9838 5c3d 3c93 4cbd ddc3 e7bc a4c6 3f3d
00000010: 789d debd 6040 7a3d 1e21 d5bc 595f 5a3d
00000020: fe5e 5d3c 231f 84bc 81f9 de3c 55d4 3c3b
00000030: 0285 133d 4311 42bd ec8a 69bc d5da 88bc
00000040: 6c4b 143c 50e4 0abc 4b75 b53d b391 d73c
00000050: f294 3cbd 562b 91bd 6f15 c7bc bc14 4abd
00000060: f92c 1dbd eec7 393b 6041 743d ad19 6c3d
00000070: 982d e4bd 7b0b 7f3d a512 c93c 95a4 c53d
00000080: 5baa 853d 24b8 d9bd 7b0e dfbd 04ed 6fbd
00000090: ddcb bb3d edcd 96bc 56a5 453d 05e1 4cbd
000000a0: 29c5 e33d c75f 31bd 81ca b03d a021 973b
000000b0: 3591 6abd 4d3c 6c3d 327d 75bd b759 e53c
000000c0: f767 11bd 00f1 8abc e1ae e2bd ddff 70bd
000000d0: 153c 5a3d 4d0f f7bc 0b55 d83d 7b08 a93d
000000e0: bbd4 1bbc a3ac 9dbd 1110 833d 96c0 e63c
000000f0: 89d0 94bd fa26 8d3d ef76 803d 62c7 c13d
00000100: de11 7dbd abf6 bebc a29d 2cbb 5739 133c
00000110: 3fcd b8bd 0c98 afbd 073b 653d b1e5 01bd
00000120: 9b9a 423d 413b 093a d6b5 f63c 1f2e d13c
00000130: 5f4d 323d 6b07 673d 4847 d2bd 5978 6e3d
00000140: d048 99bd 820d a7bd 9d4c 5a3c abc8 2ebc
00000150: ecc0 973d 028c 5abd f5a6 b4bd bc7d bb3d
00000160: c6dc 02bc bb59 8d3d 92d7 223d 6136 a3bd
00000170: fd46 a73c 723b a83c adcc a0bd 2cf6 63bd
00000180: 6fd7 083d 4721 903c 7022 48bd f34f 08bd
00000190: 8c11 bf3d add1 ecbc 973c 573d 5af7 113d
000001a0: 1a32 aabd 360e d5bd f922 c43d e367 87bb
000001b0: 1e4c 853d b35e 593c ef5c d93c 40c6 953d
000001c0: e223 c93d e90e 97bd 2863 853c b3dc b13d
000001d0: a427 af3d fd20 983d b915 96bd dfd4 97bd
000001e0: 3b94 76bd 42a5 9a3c 74b5 e43d 3edf 89bd
000001f0: 45aa 713d 67e4 75bd 8ebb d4bd e3c1 b7bc
00000200: 8741 8b3d 50de d43d 2801 84bd 2e4e ea3c
00000210: 618b c63d 8ea6 9a3d 02d9 863d 175f 953d
00000220: b955 823d 5963 ae3c d157 a9bd 3dc3 cabd
00000230: 088f 6dbd 4974 91bc ede4 94bd 007d 0f3d
00000240: 5dba e33c eb0f f4bc cc95 193d 71a8 fd3c
00000250: 3a15 843d c7bb 953d 23e9 12bd 5376 db3d
00000260: fd90 44bc 280b 7fbb e7b1 d0bd e1a0 8abd
00000270: 7b02 7abd d15d 2ebd 2114 a43d 0dcf 14bd
00000280: a448 a7bd 3edc 253d ea2b 063d 19a5 8e3d
00000290: 29a3 6cbd 8fff b73c d8ee 24bd 7427 ddbc
000002a0: 7f47 b8bd 559e 4bbd adbc 0dbd 02a7 4b3d
000002b0: 6f68 d23c 4919 0d3d 9107 ef3d 7d05 d83d
000002c0: d798 993d 87ec 823b f5e8 9abd 16e1 af3d
000002d0: eaf6 cdbc f733 e6bb 9fa0 babd 4b4f 96bc
000002e0: c7b9 8abd af4a d43d 78ef bebd 966e aabd
000002f0: 4424 b7ba 16a4 65bd 7f9b 333d e69d 20bd
00000300: a708 3dbd 7daa 253c b2c9 ad3d 1c5a 96bd
00000310: a1b1 653d bbed 963d bf5d e13d a75e 9abd
00000320: c954 f13c 7f17 a1bd 0253 c33d fd90 24bd
00000330: e0f0 863d d6d6 523b 0e84 21bc 9350 9ebb
00000340: 9d2a 963c 2a73 513d c58c 893c 37aa 0c3d
00000350: 9b1e c8bd 46c6 9b3d ce32 bd3d 4dd2 b63d
00000360: fec9 9c3d 697d a8bd bc02 3bbd 0f1e bc3d
00000370: cf28 b2bd 1356 c93d b875 b6bd d02c a3bd
00000380: d5f2 513d c1d6 a6bd 781c c3bc 3014 a73d
00000390: 117c b93d db66 df3d 1e9c 89bc 386c a2bd
000003a0: 4850 e93d c460 82bc 10b1 18bd d38a 0b3d
000003b0: 63c9 89bd 1fff a33d 5daa 993d ccdc a4bd
000003c0: 051a adbd d843 cebb 799b 493d 4f6a 873a
000003d0: b90f 58bd 13cf 973b db42 cfbd 0b88 98bd
000003e0: 8b89 90bd b782 bd3d d751 c43d be1b 20bd
000003f0: 6d65 193b 89bb 403d 7cba 1a3c 06a0 70bd

conv1.bias f4 [40]
-0.041122675 -0.15300749 -0.12417973 -0.099311 -0.0066154813 0.07679727 0.09229747 -0.09795626
-0.032202385 -0.15132014 0.14937851 0.19971482 0.19746025 0.078518346 -0.042656645 -0.007965197
0.07385299 -0.17477757 0.013774472 -0.16055869 -0.19850996 -0.008287547 -0.06285372 -0.122786455
0.030167256 0.0106333755 0.02734876 -0.111784585 -0.19920889 0.0016101542 -0.07915455 -0.06457746
0.14817797 0.037846096 0.09270652 -0.05529272 -0.155955 0.037748706 -0.13755013 0.026337173
00000000: 4070 28bd ffad 1cbe f151 febd 9163 cbbd
00000010: aec6 d8bb e347 9d3d 7506 bd3d 4b9d c8bd
00000020: a6e6 03bd abf3 1abe aef6 183e 0b82 4c3e
00000030: 0533 4a3e 3ace a03d bcb8 2ebd 7580 02bc
00000040: 3d40 973d e4f8 32be 53ae 613c 7f69 24be
00000050: 3246 4bbe 7ec8 07bc 73b9 80bd 7777 fbbd
00000060: 5221 f73c 9c37 2e3c 820a e03c 51ef e4bd
00000070: 6afd 4bbe cf0b d33a c81b a2bd 3041 84bd
00000080: f7bb 173e 8204 1b3d eadc bd3d 9f7a 62bd
00000090: abb2 1fbe 639e 1a3d f1d9 0cbe 0ec1 d73c

conv2.weight f4 [40, 40, 22, 1]
-0.015094727 0.012912949 -0.012487557 0.014189145 0.012241102 0.012651282 0.0118177645 0.0051331664
-0.002343839 -0.0015268911 -0.007895655 -0.014574575 0.016166495 0.0020483811 0.0070195063 0.00016814002
0.0045921635 -0.010103743 -0.010880969 0.014156375 0.007556197 0.010637825 -0.0155617315 0.002533576
-0.014657404 -0.0027178272 0.0004478813 -0.015931895 -0.01262201 0.0011984267 0.012293982 0.012480629
-0.01238959 -0.0067521 -0.015257159 -0.014000892 -0.0069088447 0.011689584 -0.009013968 -0.005043104
0.009888756 -0.0034237024 0.006853237 0.004627559 0.02296859 0.002946623 -0.010036926 -0.011080953
-0.0053992844 0.012623712 0.0010039946 0.00033053235 -0.017091677 -0.014678418 0.013001894 -0.0029672773
-0.01728036 -0.009647154 -0.009569244 -0.0038308778 0.0037615437 0.0030086094 -0.017243374 -0.0039642043
-0.011896793 0.008414692 0.0030470735 0.0066740788 0.012041336 0.005491199 -0.019638615 0.0020002539
-0.012365271 0.0024679205 0.004202432 0.016276944 -0.01313964 -0.01737215 -0.005046645 0.007821806
0.016886514 0.017594205 0.016439397 0.008619246 0.0029698366 0.0023992776 -0.0022652445 0.011198083
-0.008254379 0.010245898 0.01312623 0.015317237 -0.014874394 0.011689772 -0.008250687 0.001310952
0.011813 0.008323515 -0.0061141294 0.0059639947 -0.019244626 0.010873952 0.014020975 -0.0057551414
-0.0017658346 -0.010660879 -0.01783792 -0.015518553 -0.009474903 -0.021162113 -0.006398535 0.0053770486
-0.0060754265 -0.0047936314 0.0048932643 -0.0054765544 0.014903274 -0.0063742246 -0.009033945 -0.0019701852
-0.010072409 0.010664648 0.015750812 -0.012536718 -0.0068092383 0.015220159 -0.0116700325 0.004960876
-0.017049264 -0.01683387 -0.0009791536 -0.012042057 0.0077040833 -0.004830877 0.0012147283 -0.008548082
0.003771097 0.016358491 -0.0029663278 -0.0074181226 -0.011555701 0.01883031 0.0071417494 0.007892727
0.0031295836 0.011465768 0.0098117795 0.013621221 0.01600829 0.0094020255 0.020752314 0.017051626
0.007111045 -0.0009516686 0.0033736818 0.016446788 0.013818481 -0.004894219 -0.0017442771 0.008871533
0.012907801 0.020191187 0.012756319 0.00882478 0.0071256952 -0.014796465 -0.006034233 0.0059748967
-0.007282951 -0.010657358 0.015891755 0.008175683 -0.011481299 0.003453065 0.0123882815 0.0112724025
0.018232947 -0.004415303 0.008631737 -0.013227736 -0.00015256536 -0.0129603855 -0.0061205355 0.008698452
0.005171131 -0.009899271 -0.004843052 -0.006260547 -0.008613782 -0.011778367 0.010283753 0.0075907386
0.010234017 -0.014870092 0.0061431634 -0.012269337 -0.011553479 -0.011348264 -0.0048277914 -0.010332605
3.0522242e-05 -0.012585174 0.0062151267 -0.018365825 -0.01160612 -0.016024077 0.008468202 0.008535438
-0.014366609 -0.0110616535 0.012297636 0.0020729383 0.01007422 -0.013575243 0.008024818 0.011952262
-0.0028441933 0.0014346694 0.014965606 0.00892487 0.008862223 0.002750139 -0.0034192714 -0.0091508
0.019299895 -0.0029285455 0.016614635 0.0145608615 -0.014381087 -0.0006905936 -0.00492276 -0.0056797713
0.007758702 0.005531284 -0.013456109 -0.016352355 -0.01891938 -0.022931956 0.0021613599 -0.020451346
-0.009937124 -0.008998986 -0.0008643346 -0.003833402 0.0066104587 -3.405128e-05 0.009257975 0.0035512315
-0.0023940692 0.0009791739 0.010267495 0.0013364541 0.012038801 0.0025176117 0.0031057377 0.013643828
00000000: e04f 77bc d590 533c 9c98 4cbc 9679 683c
00000010: e78e 483c 5347 4f3c 4c9f 413c 1f34 a83b
00000020: 189b 19bb f721 c8ba c75c 01bc 33ca 6ebc
00000030: 996f 843c 223e 063b e303 e63b be4e 3039
00000040: dc79 963b 2b8a 25bc 1846 32bc 24f0 673c
00000050: f999 f73b 464a 2e3c a2f6 7ebc 5a0a 263b
00000060: 9c25 70bc 931d 32bb 9cd1 ea39 9b83 82bc
00000070: 8ccc 4ebc 8714 9d3a b36c 493c 8d7b 4c3c
00000080: b5fd 4abc b840 ddbb 2af9 79bc ff63 65bc
00000090: 9763 e2bb ab85 3f3c 52af 13bc 9f40 a5bb
000000a0: 7304 223c 3260 60bb 1e91 e03b c7a2 973b
000000b0: a028 bc3c 211c 413b eb71 24bc e38c 35bc
000000c0: 7bec b0bb b0d3 4e3c 7898 833a 4d4b ad39
000000d0: d803 8cbc bf7d 70bc e505 553c a776 42bb
000000e0: 8b8f 8dbc 190f 1ebc 52c8 1cbc 770f 7bbb
000000f0: 3b84 763b 172c 453b fa41 8dbc 28e6 81bb
00000100: c4ea 42bc c7dd 093c 69b1 473b 3bb2 da3b
00000110: 0649 453c 84ef b33b 29e1 a0bc b116 033b
00000120: b597 4abc d6bc 213b 8eb4 893b 3a57 853c
00000130: a547 57bc 0a50 8ebc 545e a5bb 0827 003c
00000140: 9655 8a3c b921 903c eaab 863c bd37 0d3c
00000150: 97a1 423b 333d 1d3b 7f74 14bb 2a78 373c
00000160: 603d 07bc 69de 273c 660f 573c 26f5 7a3c
00000170: bbb3 73bc 7586 3f3c e42d 07bc 40d4 ab3a
00000180: 508b 413c 5a5f 083c 0959 c8bb 9d6d c33b
00000190: e8a6 9dbc a928 323c 3bb8 653c a095 bcbb
000001a0: 9473 e7ba f8aa 2ebc d420 92bc 8741 7ebc
000001b0: a03c 1bbc 2b5c adbc cdaa d1bb f431 b03b
000001c0: 5f14 c7bb e513 9dbb ad57 a03b ab74 b3bb
000001d0: dd2c 743c dfde d0bb 1d03 14bc 391e 01bb
000001e0: bf06 25bc c7ba 2e3c d907 813c ce66 4dbc
000001f0: 0820 dfbb f95d 793c aa33 3fbc d88e a23b
00000200: e6aa 8bbc 2fe7 89bc f156 80ba 0c4c 45bc
00000210: 8972 fc3b 554c 9ebb 8537 9f3a 410d 0cbc
00000220: 8224 773b 3e02 863c b966 42bb b913 f3bb
00000230: 1f54 3dbc 0642 9a3c 5605 ea3b 7f50 013c
00000240: b319 4d3b ebda 3b3c 96c1 203c 8b2b 5f3c
00000250: d123 833c f40a 1a3c c200 aa3c daaf 8b3c
00000260: c503 e93b 6679 79ba fd18 5d3b 6abb 863c
00000270: e966 623c af5f a0bb 3aa0 e4ba e859 113c
00000280: 3e7b 533c fd67 a53c e1ff 503c cf95 103c
00000290: aa7e e93b df6c 72bc d1ba c5bb 11c9 c33b
000002a0: d2a5 eebb 339c 2ebc 6d2f 823c 4df3 053c
000002b0: 0f1c 3cbc d14c 623b 38f8 4a3c e2af 383c
000002c0: 435d 953c 3fae 90bb 216c 0d3c 25b9 58bc
000002d0: f4f9 1fb9 cc57 54bc c68e c8bb f483 0e3c
000002e0: 9772 a93b 8d30 22bc 77b2 9ebb 4625 cdbb
000002f0: d220 0dbc 0dfa 40bc 307d 283c bbbb f83b
00000300: 94ac 273c b0a1 73bc 974c c93b 5405 49bc
00000310: ce4a 3dbc 12ee 39bc 7332 9ebb 164a 29bc
00000320: 0205 0038 0c32 4ebc 43a8 cb3b ed73 96bc
00000330: 9827 3ebc ed44 83bc 37be 0a3c 39d8 0b3c
00000340: ed61 6bbc f03b 35bc 067c 493c 22da 073b
00000350: 570e 253c b26a 5ebc 877a 033c 6cd3 433c
00000360: a565 3abb 840b bc3a 4d32 753c 9e39 123c
00000370: db32 113c ad3b 343b db15 60bb 3ded 15bc
00000380: d01a 9e3c d7ec 3fbb 6a1b 883c ae90 6e3c
00000390: a79e 6bbc f408 35ba 1b4f a1bb 601d babb
000003a0: b63c fe3b c63f b53b 0377 5cbc 60f5 85bc
000003b0: d1fc 9abc ccdb bbbc 9aa5 0d3b 9589 a7bc
000003c0: 52cf 22bc 7c70 13bc 8394 62ba d039 7bbb
000003d0: 8c9c d83b 49d2 0eb8 c3ae 173c c7bb 683b
000003e0: d1e5 1cbb a057 803a ff38 283c f52b af3a
000003f0: 643e 453c 84fe 243b a289 4b3b 5d8a 5f3c

batchnorm.weight f4 [40]
1.0002716 1.0029789 1.0009941 1.004632 1.0047952 1.0052392 0.99843574 0.99427044
1.0071849 0.9993603 1.0012251 0.9964757 1.0009501 1.002791 1.0028088 1.0015525
0.9960353 1.0057609 0.99897796 1.005154 1.004895 0.9929071 0.9974528 1.0010772
1.0013219 0.9992845 1.0036029 1.0051801 0.99884343 1.0020943 0.9999626 1.0038607
0.9987234 1.0005786 1.0029545 1.002509 1.0006102 1.0120513 1.0042868 1.0017278
00000000: e608 803f 9d61 803f 9320 803f c897 803f
00000010: 219d 803f aeab 803f 7c99 7f3f 8288 7e3f
00000020: 6feb 803f 14d6 7f3f 2528 803f 0819 7f3f
00000030: 221f 803f 755b 803f 0a5c 803f df32 803f
00000040: 2bfc 7e3f c6bc 803f 05bd 7f3f e3a8 803f
00000050: 66a0 803f 292f 7e3f 1159 7f3f 4c23 803f
00000060: 512b 803f 1cd1 7f3f 0f76 803f bea9 803f
00000070: 34b4 7f3f a044 803f 8dfd 7f3f 827e 803f
00000080: 56ac 7f3f f612 803f d060 803f 3752 803f
00000090: ff13 803f e68a 813f 788c 803f 9e38 803f

batchnorm.bias f4 [40]
-0.00846195 0.0013288708 0.0035627473 -0.0023028941 0.00095006486 -0.003945269 0.0035754016 0.0014477265
0.005332201 0.0013869434 -0.004309007 0.0009394257 -0.003141333 -0.0045722597 0.0012251454 0.010859709
-0.0039429204 -0.0072831027 0.001153043 0.0007451917 0.007984417 -0.005616105 0.0062940908 0.0018087543
0.004045399 -0.0036186755 -0.004745421 -0.0038657316 0.0043652407 -0.00549333 -0.0067420816 0.005650258
0.001996586 -0.00024482884 -0.003677191 0.005023282 0.010621726 0.004672087 0.0012360251 -0.0026050762
00000000: fea3 0abc 812d ae3a fb7c 693b 27ec 16bb
00000010: c60d 793a 5147 81bb 4951 6a3b a4c1 bd3a
00000020: beb9 ae3b 19ca b53a 9232 8dbb cb43 763a
00000030: d3de 4dbb e5d2 95bb 0f95 a03a ecec 313c
00000040: 9d33 81bb 18a7 eebb b421 973a f858 433a
00000050: 12d1 023c 4e07 b8bb a93e ce3b b913 ed3a
00000060: 448f 843b 4d27 6dbb 7a7f 9bbb 3758 7dbb
00000070: 4b0a 8f3b 6401 b4bb aeec dcbb cd25 b93b
00000080: 28d9 023b 5f5c 80b9 07fd 70bb 589a a43b
00000090: bf06 2e3c 4e18 993b 1f02 a23a edb9 2abb

batchnorm.running_mean f4 [40]
0.07044303 -0.04208413 0.11977323 0.07000601 0.020893617 -0.015070408 0.040804017 -0.038236544
-0.031597413 0.07415667 0.09798712 -0.007140017 0.0027295195 -0.061885644 0.0715001 0.092115134
-0.039539095 -0.08715781 0.077525616 -0.002974926 -0.075174004 0.09444551 0.09855493 0.099236175
-0.044157326 -0.0664294 -0.026822163 -0.07547528 -0.00428621 -0.007875835 -0.0011872068 0.07525827
0.009894874 -0.053547986 0.013443205 0.0073024374 -0.061021198 0.011718542 -0.045781165 -0.07208974
00000000: 6f44 903d 6960 2cbd ab4b f53d 505f 8f3d
00000010: 1729 ab3c dfe9 76bc 1d22 273d ec9d 1cbd
00000020: 4a6c 01bd 74df 973d 79ad c83d cef6 e9bb
00000030: bde1 323b cd7b 7dbd a56e 923d dca6 bc3d
00000040: bff3 21bd cb7f b2bd c0c5 9e3d faf6 42bb
00000050: d4f4 99bd a66c c13d 2bd7 c93d 563c cb3d
00000060: 50de 34bd 230c 88bd 27ba dbbc c992 9abd
00000070: 5673 8cbb a509 01bc 0d9c 9bba 0221 9a3d
00000080: 1c1e 223c 2255 5bbd e340 5c3c 4949 ef3b
00000090: 5df1 79bd 21ff 3f3c 0885 3bbd c9a3 93bd

batchnorm.running_var f4 [40]
0.10294941 0.11643248 0.2753399 0.13036479 0.06429089 0.12349191 0.2273837 0.14446156
0.19283563 0.10817198 0.31818134 0.22294421 0.16544168 0.21163085 0.18338402 0.21966031
0.14556712 0.31927362 0.08373808 0.30875167 0.23559353 0.17568253 0.28993735 0.08881254
0.19409911 0.18679063 0.11251619 0.10395284 0.3112688 0.2596067 0.08651186 0.0912982
0.039745655 0.0758936 0.13933854 0.13478342 0.14833167 0.08178531 0.18518922 0.3197369
00000000: 24d7 d23d 2774 ee3d 5af9 8c3e 597e 053e
00000010: f1aa 833d 54e9 fc3d 46d7 683e bbed 133e
00000020: b476 453e 4589 dd3d aae8 a23e 7d4b 643e
00000030: 8b69 293e c2b5 583e 05c9 3b3e a2ee 603e
00000040: 8c0f 153e d577 a33e df7e ab3d b314 9e3e
00000050: 6e3f 713e 1fe6 333e ab72 943e 59e3 b53d
00000060: ebc1 463e 0b46 3f3e e36e e63d 3ae5 d43d
00000070: a05e 9f3e 2beb 843e 212d b13d 8dfa ba3d
00000080: 57cc 223d 1b6e 9b3d c3ae 0e3e aa04 0a3e
00000090: 42e4 173e 0e7f a73d 3ea2 3d3e 8eb4 a33e

dense.weight f4 [4, 2840]
-0.009376978 0.011814001 0.0055526285 0.0066418396 -0.0067304564 0.0051581417 -0.0031182296 -0.0027201583
0.01864793 0.009160513 -0.013917361 -0.004811241 -0.00043032118 0.013886575 -0.002870623 -0.017287936
-0.011761157 0.0107757365 -0.010514869 0.013882839 0.013394265 0.0067260056 -0.013319268 -0.009689311
0.009006293 -0.010913778 0.012580134 0.02029695 -0.009498656 0.0017953145 -0.012618262 0.008674255
-0.005823003 -0.011263615 0.018307678 -0.0074657896 -0.010278902 0.008804662 -0.015594299 0.009025035
0.021674544 -0.0017885468 0.02183974 0.009814482 0.0028821374 -0.0016008299 -0.006793685 -0.013627032
-0.028149763 -0.018876867 -0.016983341 -0.016231135 0.006378594 -0.013078769 0.022741346 -0.0048937593
0.015499996 0.015755923 0.0017738232 0.012797541 0.004375287 -0.016605664 -0.016764373 -0.020568492
-0.0036689453 0.009766406 0.01616143 0.010399744 0.014349977 0.010223722 0.0005281921 0.021446949
-0.0071851374 -0.01972195 -0.0015230366 -0.01050387 0.014618362 0.009273006 0.01590468 0.004262465
-0.021439556 0.003893641 0.0147697935 -0.013577476 -0.0148756495 0.017444238 -0.008394534 0.009969868
0.003419763 0.0091076605 -0.003623433 0.012956009 0.0009562583 -0.01261761 -0.015364433 0.01815609
0.005883261 0.010899349 -0.0053859972 0.002977343 -0.016131112 -0.011118067 -0.008906578 -0.023335407
-0.0052799024 -0.01083873 0.01046106 0.005040301 0.0055124927 -0.0019785766 0.015122791 0.0026061654
0.0100119775 -0.0066546807 0.009819985 0.0003383268 -0.0045698946 -0.008592019 -0.003228772 -0.016127136
0.011601981 -0.0024582418 -0.008674636 -0.0069386833 -0.01550591 -0.0035176484 -0.006773048 0.0137407575
-0.02225409 0.010329143 0.00531416 0.019341717 -0.009242893 0.018340195 0.0045829266 0.0040894467
0.011713697 -0.014135865 0.008444193 -0.012445949 -0.0066810604 -0.019387236 0.0029897948 -0.0021481146
-0.0061023007 -0.0053662495 -0.004507958 0.017113073 0.020163842 -0.005401164 0.0036300754 -0.009386133
-0.010700067 0.0026419908 0.00947503 0.018677229 0.010821262 -0.01011542 -0.004161194 -0.0054517025
-0.0051972354 0.022394981 0.00081187766 0.0066042845 -0.0014128691 -0.02080704 0.006004781 0.01152921
-0.007975718 -0.006475182 0.011316196 -0.012349764 0.0012982747 -0.013243804 -0.0050640698 -0.009114659
0.0020189052 -0.009028703 0.0038073983 0.01592135 -0.015140516 -0.00921104 -0.0035012488 0.006311808
-0.011228517 -0.0089435885 -0.007981996 0.00046009067 0.0125148855 0.01736475 -0.006187507 0.009376384
-0.009641461 0.00448174 0.00095432095 0.008587396 -0.013393204 0.009020017 0.010450453 0.020639308
0.010484592 0.0070788115 0.005462764 -0.0032972316 -0.007795711 0.018706944 0.010387739 -0.00056539313
0.0024275093 -0.007228465 0.009630336 -0.00049864117 -0.01676073 0.00034794025 0.005575729 -0.014591516
-0.0052210577 -0.0048259664 0.008186598 0.00881963 -0.01729624 -0.00089413585 0.002969543 0.0052123955
0.0066712294 -0.009329418 -0.021664128 0.007929181 -0.0044365395 -0.0132709425 -0.005958331 -0.006160111
-0.012050726 -0.0128346365 -0.013116681 0.0007504289 -0.010243586 -0.01866817 -0.015289694 -0.0052265334
0.009894483 0.009415943 0.0065294057 0.014901325 -0.008832243 0.023202287 -0.008697696 -0.006965505
-0.006940701 0.005920076 -0.0015340372 -0.0035330076 0.010125389 0.016044697 -0.0074006286 -0.0073901946
00000000: e5a1 19bc 838f 413c d3f2 b53b caa3 d93b
00000010: 298b dcbb a105 a93b 365b 4cbb af44 32bb
00000020: 8bc3 983c fa15 163c a505 64bc 9da7 9dbb
00000030: bb9c e1b9 8484 633c 1021 3cbb 6e9f 8dbc
00000040: deb1 40bc b78c 303c 8f46 2cbc d974 633c
00000050: 9f73 5b3c d365 dc3b 0f39 5abc eabf 1ebc
00000060: 218f 133c b4cf 32bc e81c 4e3c ca45 a63c
00000070: 40a0 1bbc c250 eb3a d4bc 4ebc 761e 0e3c
00000080: e4ce bebb 078b 38bc fcf9 953c 95a3 f4bb
00000090: d768 28bc 6e41 103c 3b7f 7fbc bedd 133c
000000a0: d08e b13c ac6d eaba 41e9 b23c eccc 203c
000000b0: 3ee2 3c3b f0d2 d1ba 8f9d debb ea43 5fbc
000000c0: 559a e6bc a9a3 9abc a620 8bbc 28f7 84bc
000000d0: 8603 d13b 5548 56bc 0f4c ba3c d45b a0bb
000000e0: b2f3 7d3c 9112 813c a17f e83a c7ac 513c
000000f0: 915e 8f3b 9a08 88bc 7055 89bc 417f a8bc
00000100: b072 70bb 4703 203c fa64 843c b063 2a3c
00000110: 2a1c 6b3c 6681 273c 5f76 0a3a 83b1 af3c
00000120: 4d71 ebbb ed8f a1bc a1a0 c7ba 6d18 2cbc
00000130: db81 6f3c ceed 173c 884a 823c 26ac 8b3b
00000140: 02a2 afbc 752c 7f3b 01fd 713c 1074 5ebc
00000150: ffb8 73bc 38e7 8e3c 3a89 09bc a858 233c
00000160: 1a1e 603b 4c38 153c 1e77 6dbb 7145 543c
00000170: 69ad 7a3a 18ba 4ebc 1abb 7bbc 15bc 943c
00000180: 5fc8 c03b 2f93 323c 057d b0bb 871f 433b
00000190: 6525 84bc 8e28 36bc e5ec 11bc e529 bfbc
000001a0: 0803 adbb ee94 31bc de64 2b3c 1c29 a53b
000001b0: 24a2 b43b 02ab 01bb 95c5 773c 33cc 2a3b
000001c0: 4709 243c 820f dabb 01e4 203c 7461 b139
000001d0: 0ebf 95bb 8ac5 0cbc ce99 53bb 0e1d 84bc
000001e0: 3c16 3e3c 741a 21bb 0f20 0ebc e55d e3bb
000001f0: 800c 7ebc 5988 66bb 72f0 ddbb ea20 613c
00000200: 364e b6bc 913b 293c 6822 ae3b 8572 9e3c
00000210: 816f 17bc 2d3e 963c 602c 963b c400 863b
00000220: ceea 3f3c 1d9a 67bc 8359 0a3c 18ea 4bbc
00000230: ccec dabb fbd1 9ebc 6ff0 433b 62c7 0cbb
00000240: cff5 c7bb 5dd7 afbb 7eb7 93bb b730 8c3c
00000250: a42e a53c 3ffc b0bb 8fe6 6d3b 4cc8 19bc
00000260: 554f 2fbc 4025 2d3b 283d 1b3c fd00 993c
00000270: aa4b 313c 26bb 25bc a05a 88bb 32a4 b2bb
00000280: 924d aabb ae75 b73c 30d4 543a c168 d83b
00000290: 0530 b9ba 8773 aabc c1c3 c43b 03e5 3c3c
000002a0: 96ac 02bc c32d d4bb 9167 393c aa56 4abc
000002b0: df2a aa3a 8afc 58bc 7ff0 a5bb a755 15bc
000002c0: 9c4f 043b 20ed 13bc 8b85 793b 7e6d 823c
000002d0: ed0f 78bc e7e9 16bc 3575 65bb 48d3 ce3b
000002e0: d0f7 37bc 2188 12bc ebc6 02bc 5338 f139
000002f0: 3c0b 4d3c 8540 8e3c 92c0 cabb 689f 193c
00000300: 38f7 1dbc 8fdb 923b 652b 7a3a 26b2 0c3c
00000310: 2b6f 5bbc b2c8 133c 6038 2b3c c413 a93c
00000320: 91c7 2b3c 60f5 e73b fc00 b33b 5e16 58bb
00000330: 2a73 ffbb 4e3f 993c 5631 2a3c e436 14ba
00000340: d916 1f3b c2dc ecbb 8fc8 1d3c 3eb7 02ba
00000350: cc4d 89bc c06b b639 9bb4 b63b 4111 6fbc
00000360: 6815 abbb 2423 9ebb 1521 063c 3680 103c
00000370: d8b0 8dbc 7164 6aba aa9c 423b becc aa3b
00000380: 549a da3b 6ada 18bc f878 b1bc 65e9 013c
00000390: 6460 91bb 5e6e 59bc 1a3e c3bb c2da c9bb
000003a0: 6970 45bc 5e48 52bc 59e7 56bc 6eb8 443a
000003b0: b7d4 27bc fded 98bc a081 7abc 5743 abbb
000003c0: 781c 223c 5445 1a3c a0f4 d53b b024 743c
000003d0: 1db5 10bc b912 be3c c880 0ebc e43e e4bb
000003e0: d26e e3bb 32fd c13b bf11 c9ba 088a 67bb
000003f0: f6e4 253c 2b70 833c f980 f2bb 7229 f2bb

dense.bias f4 [4]
0.010789516 0.017718935 -0.00023027099 -0.016555412
00000000: 83c6 303c 4d27 913c e674 71b9 379f 87bc
