EEG-ATCNet/results_pytorch_gpu2/saved models1/run-1/subject-5.pth (torch, 194183 bytes, 9 tensors)

conv1.weight f4 [40, 1, 1, 25]
000000 b7 71 7a 3d a1 be 3a bd 49 f3 83 bc b5 b2 69 3d
       0.061143603 -0.045591954 -0.016107218 0.057055194
000010 61 2e c6 bd 83 8e 92 3d 70 d6 85 bc ad 96 79 3d
       -0.09676815 0.07156088 -0.016337603 0.06093471
000020 0c 7d 94 3c ca d5 26 bc c4 57 05 3d 42 d2 b7 3b
       0.018126033 -0.010182807 0.032554403 0.0056097815
000030 e5 b5 25 3d 12 c8 36 bd e6 ea 2f bc 6b d7 49 bc
       0.04045667 -0.044624396 -0.0107371565 -0.012319426
000040 b5 76 65 3c c2 2c 02 bb f8 8d c1 3d 26 d5 fe 3c
       0.014005353 -0.0019863104 0.094509065 0.031107496
000050 08 3b 3b bd 6f e1 98 bd 46 61 db bc 94 ab 64 bd
       -0.045710593 -0.07464873 -0.026779782 -0.055827692
000060 d7 3c 2c bd e9 d0 35 3b ac 56 7e 3d 01 4e 6a 3d
       -0.04205021 0.0027742928 0.062094375 0.057203297
000070 6d 26 de bd b9 b5 86 3d b4 4e e7 3c b2 46 d0 3d
       -0.10847173 0.065776296 0.02823577 0.10169734
000080 80 ae 95 3d 6a 86 ca bd 12 db d1 bd e2 e8 4c bd
       0.07308674 -0.09888919 -0.102468625 -0.05002678
000090 73 1d c8 3d 5e 42 8c bc 89 6c 3a 3d 44 71 5e bd
       0.09771242 -0.01712149 0.045513663 -0.054307237
0000a0 9e 56 d0 3d e1 a2 55 bd 96 04 98 3d 41 c3 04 bc
       0.10172771 -0.052157287 0.0742275 -0.008103193
0000b0 88 4f 8a bd e5 bd 36 3d 9d 91 90 bd 83 33 9d 3c
       -0.06753451 0.04461469 -0.070590235 0.019189602
0000c0 a7 c3 36 bd 96 1f cb bc b6 d6 e2 bd 5f a3 6f bd
       -0.044620182 -0.024795335 -0.11076109 -0.058505412
0000d0 98 6e 5d 3d 6b 6b ee bc c3 29 d6 3d ea fb ab 3d
       0.05406055 -0.029103955 0.10457184 0.08397658
0000e0 7c 5c 1a bc 8a c8 a0 bd 43 23 76 3d 16 65 e6 3c
       -0.009421464 -0.0785075 0.060092222 0.028124373
0000f0 45 00 9f bd ad 30 82 3d 81 29 79 3d d6 cc b6 3d
       -0.07763723 0.063569404 0.060830597 0.08925788
000100 15 47 8d bd 3d 54 d5 bc 04 73 1d bc c5 50 14 3c
       -0.068983234 -0.026041145 -0.009609941 0.00905246
000110 7b 18 b9 bd f0 b7 ae bd 58 c3 5e 3d 0a 53 f6 bc
       -0.090378724 -0.08531177 0.054385513 -0.030068893
000120 9d 30 48 3d b3 8b 8e 3b 37 bc 16 3d ec 92 00 3d
       0.048874486 0.0043501495 0.03680059 0.031390116
000130 92 e3 43 3d f0 b4 79 3d b0 71 c7 bd ec 83 74 3d
       0.04782445 0.06096357 -0.09738481 0.059696123
000140 c2 a8 96 bd 27 19 a5 bd c1 7f 15 3c 08 c4 91 bc
       -0.07356407 -0.08061438 0.009124697 -0.01779367
000150 38 08 86 3d 2e f2 79 bd ea 01 c7 bd 85 8d a7 3d
       0.06544536 -0.061021976 -0.09717162 0.081812896
000160 bb fd 58 bc 0a e4 84 3d af a0 24 3d a7 a7 a0 bd
       -0.013244088 0.064888075 0.040192302 -0.07844477
000170 ba c7 cf 3c 03 a6 fe 3c c3 3b 8a bd fa 25 47 bd
       0.025363792 0.03108502 -0.0674968 -0.0486202
000180 0e af 31 3d 78 6d dc 3c 14 2a 1e bd 88 43 d6 bc
       0.043379836 0.026907668 -0.038614348 -0.026155248
000190 ef e2 c3 3d c0 46 e5 bc 91 19 66 3d ec 8d 30 3d
       0.095647685 -0.027987838 0.056176726 0.043104097
0001a0 a6 c5 99 bd 20 01 c5 bd ab bb d2 3d a2 52 a0 3b
       -0.075084016 -0.09619355 0.10289701 0.004892663
0001b0 56 e8 96 3d 72 cf bc 3c 4e 1e 0d 3d fb 1b ab 3d
       0.07368533 0.023048136 0.03445273 0.08354946
0001c0 b6 84 d4 3d f2 b1 9a bd 11 fa 59 3c d5 95 a7 3d
       0.10376875 -0.075534716 0.013304249 0.08182875
0001d0 74 7c a2 3d 48 6a 83 3d 8e f2 b2 bd ae ad b6 bd
       0.07933894 0.06416756 -0.0873767 -0.089198455
0001e0 e9 c4 a1 bd 03 8c f5 b8 17 50 c4 3d d6 53 ac bd
       -0.07898886 -0.000117085896 0.095855884 -0.08414428
0001f0 32 64 32 3d 64 0c 97 bd 5a 42 ed bd aa f3 10 bd
       0.043552585 -0.0737541 -0.11584921 -0.035388626
000200 2d 5b 52 3d 4a 61 ba 3d 01 76 a0 bd 38 aa 50 3c
       0.051356483 0.09100588 -0.078350075 0.012735896
000210 0b 32 aa 3d bd f7 76 3d d2 4e 6a 3d d9 21 88 3d
       0.08310326 0.060294855 0.057204075 0.06647081
000220 be e3 67 3d 1f 02 81 3c d5 d1 b0 bd 81 79 d0 bd
       0.056613676 0.015748082 -0.08633772 -0.10179425
000230 c6 64 75 bd 89 1d ac bc a7 08 9b bd fa 7a 01 3d
       -0.05991056 -0.021010177 -0.0757001 0.03161142
000240 9a c5 c6 3c 82 ff 0e bd 43 55 03 3d a1 fa d9 3c
       0.024264146 -0.03491164 0.032063734 0.026608767
000250 3f 0f 6b 3d 95 49 83 3d dd 5f ef bc 5a 4f eb 3d
       0.057387587 0.06410519 -0.029220516 0.114897445
000260 2e fd 18 bc 53 da 8b bb db f5 d6 bd e3 ec 98 bd
       -0.0093377065 -0.0042679696 -0.10496112 -0.074670576
000270 09 03 8d bd f3 e6 55 bd 8c 78 98 3d 61 dd 24 bd
       -0.068853445 -0.052222203 0.074448675 -0.040250186
000280 ad 07 b0 bd ce 84 22 3d be df 07 3d 6b b8 91 3d
       -0.08595214 0.039677434 0.03317236 0.07115253
000290 e8 34 62 bd 09 19 c6 3c 2a 6d 25 bd 33 03 cd bc
       -0.055226237 0.02418186 -0.04038731 -0.02502594
0002a0 b9 b8 b3 bd 4e be 3d bd c5 e8 df bc 65 fb 66 3d
       -0.087754674 -0.046324067 -0.027332673 0.056392092
0002b0 10 35 fa 3c da 36 23 3d 47 92 fa 3d e4 22 f6 3d
       0.03054288 0.039847232 0.122349314 0.120183736
0002c0 1b 3c ad 3d 69 ad 4c 3c 26 f1 9b bd 37 22 a6 3d
       0.0845873 0.012492516 -0.07614355 0.08111995
0002d0 8f 75 15 bd b8 6c a0 bc 9e 81 d2 bd 00 9f de bc
       -0.036489066 -0.019583091 -0.10278629 -0.027175426
0002e0 a5 ae 9a bd 0b 52 c9 3d 6a 2b c5 bd a9 b6 ae bd
       -0.07552842 0.098301016 -0.09627421 -0.085309334
0002f0 9d 75 ed ba b9 b3 67 bd 58 f2 2e 3d f2 03 1f bd
       -0.0018116717 -0.05656788 0.042711586 -0.038822122
000300 98 be 42 bd d7 35 37 3c 40 d9 b0 3d 6b 10 8c bd
       -0.047545046 0.01118227 0.08635187 -0.06839069
000310 98 7d 7c 3d 0f fd a5 3d 88 41 f5 3d 80 1f 82 bd
       0.061643213 0.08104908 0.1197539 -0.063536644
000320 73 51 85 3c e2 7f bb bd 84 40 aa 3d 23 6b 5c bd
       0.01627419 -0.09155251 0.08313087 -0.05381311
000330 8b 15 5d 3d 97 24 1d bc 02 97 b0 bc 00 33 7c bc
       0.053975623 -0.009591243 -0.021556381 -0.015393019
000340 39 5f 46 3c 77 be 42 3d 26 ea 94 3c 20 1b 1b 3d
       0.012107664 0.047544923 0.018178057 0.037867665
000350 fe 6f be bd db 45 b0 3d 13 38 cb 3d 8f d8 b9 3d
       -0.092987046 0.08607074 0.09922805 0.090745084
000360 d0 29 9c 3d 21 ae b2 bd 2e 77 50 bd 46 02 b2 3d
       0.076251626 -0.08724619 -0.05089491 0.0869184
000370 dd 8b bd bd fa a4 ba 3d 68 05 c2 bd 0c 1c b2 bd
       -0.092551924 0.09113498 -0.094736874 -0.08696756
000380 6d 6b 2d 3d 3d f5 97 bd d2 f9 a4 bc 64 a3 ac 3d
       0.042338777 -0.07419822 -0.020138655 0.08429602
000390 3f 03 bf 3d e6 cb e2 3d 55 c9 4a bc 3f 79 98 bd
       0.09326791 0.11074047 -0.012377103 -0.07445001
0003a0 e6 e3 ef 3d 37 cc 71 bc e0 ff 11 bd 0d dd 09 3d
       0.1171339 -0.014758161 -0.035644412 0.033658076
0003b0 fe ad 8f bd 28 f6 9e 3d 36 ff 91 3d 8b e4 ad bd
       -0.07015608 0.07761794 0.07128756 -0.08490857
0003c0 fb 07 b7 bd 65 1d 3e bc e0 e4 32 3d ee d8 64 bb
       -0.08937069 -0.011603688 0.043675303 -0.003491934
0003d0 47 78 6f bd 85 e3 ad ba 95 14 e2 bd 9a bd b0 bd
       -0.058464315 -0.0013266659 -0.11039082 -0.08629914
0003e0 fe 60 a8 bd ac ab ab 3d 4d 7c aa 3d 83 fc 51 bd
       -0.08221625 0.08382353 0.0832449 -0.051266205
0003f0 84 5d 1b bc c4 e1 0f 3d ed da 01 ba f0 53 8c bd
       -0.009482745 0.035127416 -0.0004953582 -0.06851947

conv1.bias f4 [40]
000000 7b 3e 28 bd 6b b7 1a be 80 72 fe bd 7e 3f d2 bd
       -0.04107521 -0.15109031 -0.12424183 -0.102660164
000010 da a7 03 bc 72 e8 a3 3d 9a f0 bb 3d b0 7d d1 bd
       -0.008035624 0.0800332 0.091767505 -0.10229051
000020 a5 07 16 bd 77 96 19 be 7b 71 19 3e c4 44 4c 3e
       -0.036628384 -0.14998804 0.14984696 0.19948107
000030 d3 7d 44 3e 61 e8 a7 3d 8d 78 2a bd 2d a3 97 bb
       0.19188623 0.0819862 -0.041618872 -0.0046276064
000040 a8 fc 96 3d 94 9f 31 be 6f 08 7c 3c 53 a3 29 be
       0.07372409 -0.1734603 0.01538287 -0.1656621
000050 2b 62 4a be bd 1b eb ba 0d 0c 80 bd d4 b3 ff bd
       -0.1976401 -0.0017937344 -0.062522985 -0.12485471
000060 2c c3 fd 3c 2d 0f 4c 3c 5b 28 fd 3c 91 9b df bd
       0.030976854 0.01245479 0.030903032 -0.10918344
000070 5f f6 49 be c1 90 1a ba a1 77 a5 bd 48 20 85 bd
       -0.1972289 -0.0005896204 -0.08079458 -0.06500298
000080 51 39 1a 3e eb d7 12 3d 84 92 b0 3d d0 d4 6c bd
       0.15060927 0.035850447 0.08621696 -0.05782014
000090 1d 8a 20 be 5e 15 18 3d bb fa 0a be 4f f5 e6 3c
       -0.15677686 0.037129752 -0.13572209 0.028193144

conv2.weight f4 [40, 40, 22, 1]
000000 80 92 f4 bb f0 70 9e 3c 29 37 5c bb fb 26 9d 3c
       -0.007463753 0.019340962 -0.0033602214 0.019183626
000010 b4 48 8d 3c 43 f7 9c 3c 74 fe ac 3c 8f 91 48 3c
       0.017246582 0.019160872 0.021117426 0.012241735
000020 f7 7b f9 3b 31 03 be 3b 5e 0c 8a 3a 0c 6e f9 bb
       0.0076136547 0.0057987203 0.001053225 -0.0076119956
000030 97 4f b8 3c 78 b8 33 3c 5e f8 90 3c c4 a1 25 3c
       0.022498889 0.010969274 0.017696556 0.010109369
000040 bb 47 6e 3c 28 e2 97 ba d1 91 93 3a 0a 68 ce 3c
       0.014543469 -0.0011587786 0.0011258667 0.025196094
000050 89 59 9c 3c af c7 af 3c f7 29 66 bc 39 12 03 3b
       0.019085662 0.021457521 -0.014048091 0.0019999875
000060 01 ff 54 bc 47 4d 86 3a 55 f6 0b 3b 3c ac fc bb
       -0.013000251 0.0010246419 0.0021356542 -0.0077109616
000070 f3 c2 73 bc 7f 07 86 3b 3d 0a 8f 3c f0 a2 87 3c
       -0.0148780225 0.004090249 0.017460937 0.016557187
000080 eb fc bd bb ae 77 c1 3a 7d 86 04 bc 23 76 1d bc
       -0.0057979724 0.0014760399 -0.008088705 -0.0096106855
000090 66 73 9d ba 4f 14 9f 3c 31 7d e2 b9 ef f4 99 3b
       -0.0012012541 0.019418864 -0.00043199354 0.004698388
0000a0 c5 07 97 3c 7b 28 01 3c 07 24 a4 3c 6b 73 3b 3c
       0.018436322 0.007883186 0.02003671 0.011441092
0000b0 b4 e4 69 3c e8 2f e9 3a 01 62 6b bc a3 88 86 bc
       0.0142757185 0.0017790766 -0.014366628 -0.016422575
0000c0 f4 c3 31 bc 3b 65 39 3c 54 13 ee 3b a4 f9 aa 3b
       -0.0108499415 0.011315639 0.0072654877 0.0052177478
0000d0 0b 87 81 bc 84 80 8a bc 1d 2c 21 3c 0e 31 6a bb
       -0.015811464 -0.016906984 0.009837178 -0.0035734805
0000e0 ed 4e 82 bc ab 8f a3 bb 88 c6 1a bc 30 73 d8 bb
       -0.015906775 -0.004991492 -0.009446748 -0.0066055283
0000f0 7f 49 0e 3b 96 0f 5c 3b 94 fb 95 bc e7 aa c6 bb
       0.0021711288 0.0033578626 -0.018308438 -0.0060628536
000100 3d 57 41 bc 17 e2 0d 3b 09 00 d1 3b f5 d3 ff 3b
       -0.011800584 0.0021649653 0.006378178 0.0078072497
000110 22 a7 51 3c e7 0b ff 3b 50 80 8e bc f6 15 28 3b
       0.012796195 0.0077834013 -0.017395169 0.0025647855
000120 f4 39 0a bc 3a 8b 37 3b 88 78 8e 3a f8 92 9c 3c
       -0.008436669 0.002800657 0.0010869661 0.019113049
000130 0a 11 3a bc 71 c3 90 bc fe f5 19 bc 65 e3 ef 3b
       -0.0113566015 -0.017671319 -0.009397028 0.0073208087
000140 1b 08 85 3c 27 9d 96 3c 26 92 5f 3c 7d 2f 87 3b
       0.016239217 0.018385483 0.013645684 0.004125534
000150 12 0a b8 3a cc f3 3e 3a d3 2a f6 bb 5b 0a 23 3c
       0.0014041087 0.00072842534 -0.0075124293 0.009951199
000160 65 a6 0b bc 02 6e 00 3c 3d b0 65 3c f4 cf 85 3c
       -0.008523558 0.007838728 0.014019069 0.016334511
000170 6f 64 57 bc 20 53 80 3c be a7 0f bc aa 75 4b 3b
       -0.013146504 0.015664637 -0.00876802 0.0031045475
000180 35 fb 8a 3c 2a ef 0a 3c 99 af 59 bb 28 03 39 3c
       0.016965488 0.008479873 -0.0033216237 0.011292256
000190 24 1c 4d bc cb 3f 55 3c bc 53 7c 3c a4 95 0c bb
       -0.012518916 0.013015698 0.015400823 -0.0021451497
0001a0 54 71 22 3b 7a 59 82 bb 68 0b 52 bc c6 16 fd bb
       0.0024786787 -0.0039779516 -0.012820102 -0.007723662
0001b0 8b 0b 05 3b 34 71 8b bc c4 4a 3c bc d9 8b 90 3b
       0.002030107 -0.017021753 -0.011492435 0.0044112024
0001c0 df 7e 0d bc 1c e4 1a bc 9e 69 54 b9 a9 92 0b bc
       -0.008636205 -0.0094538 -0.00020257241 -0.008518853
0001d0 4b 95 55 3c a7 ed c0 bb 25 00 3a bc b5 bb 08 bc
       0.0130360825 -0.0058877054 -0.0113525735 -0.008345534
0001e0 5b a8 6d bc 21 39 0c 3c 5a 75 8b 3c e7 3d 5f bc
       -0.014505471 0.0085585425 0.017023731 -0.0136255985
0001f0 ab b7 36 bc a5 1e 05 3c 68 3f 81 bc a5 2f 5f 3b
       -0.011152188 0.008124982 -0.015777305 0.0034055498
000200 2c 3f a3 bc ea d3 a7 bc 0b e9 8a bb ba 02 8d bc
       -0.019927584 -0.02048679 -0.0042392067 -0.017213214
000210 39 f4 c0 3b 05 69 0c bc a1 ee 96 bb bf cb 35 bc
       0.0058884886 -0.0085699605 -0.0046060835 -0.01109594
000220 51 44 37 3b 51 89 2f 3c 4a 82 01 bc 00 d6 7a bc
       0.0027964304 0.010713891 -0.0079045985 -0.015309811
000230 e2 42 a9 bc af 83 5c 3c 3c 42 95 3a fc 0b 07 3a
       -0.020661775 0.01345913 0.0011387537 0.0005151627
000240 78 62 bb bb 6f 5e 8e 3b 19 1b 29 3a 29 60 8a 3b
       -0.0057185255 0.0043447535 0.0006450876 0.004222889
000250 b2 c1 66 3b 08 20 ae bb 11 25 0b 3c b6 4f 02 3a
       0.0035210666 -0.005313877 0.008492724 0.00049709843
000260 9d 5b 3b bc 0f f7 49 bc ce 33 7d ba 4a cc 15 3c
       -0.0114354165 -0.01232697 -0.00096589036 0.009142945
000270 a3 0a e1 3b cf 2d d0 bb 42 a6 6d bb f4 eb a9 3b
       0.006867723 -0.006353117 -0.0036262427 0.0051855985
000280 40 1a 05 bb b4 82 44 3c 6c e6 cf 3b 94 48 e0 3b
       -0.0020309836 0.011994053 0.006344607 0.0068445895
000290 d4 3a 81 3b c4 6e 84 bc ec 35 10 bc fb 2b 9b ba
       0.0039437804 -0.016166098 -0.0088019185 -0.0011838669
0002a0 26 e2 2b bc f3 a3 2a bc cc 3c 43 3c 5a 09 a6 3b
       -0.01049093 -0.010415065 0.011916351 0.0050670328
0002b0 3e e0 6c bc 65 c5 17 3b 6b b1 c8 3b 67 20 1b 3c
       -0.01445776 0.0023158428 0.0061246655 0.009468175
0002c0 67 59 8a 3c 45 79 d7 bb 17 29 12 3c 00 4c 48 bc
       0.016888333 -0.0065757358 0.008920929 -0.012225151
0002d0 f2 a9 c4 b9 44 1d 0c bc 31 50 96 bb 8b 9f 19 3c
       -0.00037510652 -0.008551899 -0.0045871963 0.009376417
0002e0 61 7a 00 3c 73 cc 26 bc 64 85 53 bb f6 a3 21 bb
       0.007841677 -0.01018058 -0.0032275552 -0.0024664379
0002f0 a9 59 4d bb a7 1f 35 bc 20 87 1b 3c ba 77 02 3c
       -0.003133396 -0.01105491 0.0094926655 0.007963115
000300 a3 da 3f 3c 52 5f 24 bc 60 99 07 3c ea 12 f7 bb
       0.011709842 -0.010032492 0.008276314 -0.0075400965
000310 2a 47 49 bb f8 20 1b bc 4f ac b6 ba fd 8f 7d bb
       -0.0030712583 -0.00946831 -0.001393685 -0.003869056
000320 9e 6e 93 3b 5b ac 17 bc 99 91 fb 3b eb 23 3c bc
       0.0044992706 -0.009257401 0.0076772687 -0.011483173
000330 4e 37 96 3b 18 cd 54 bb a1 d0 8f 3c 79 ff 6f 3c
       0.0045842296 -0.0032470878 0.017555537 0.014648312
000340 c1 f7 12 bc 3c 93 8b bb 29 35 a7 3c 0a d1 7a 3c
       -0.008970202 -0.004259495 0.02041109 0.015308628
000350 cc 4c a4 3c 4e 36 93 bb 9d 8f 6a 3c b9 b0 8e 3c
       0.02005615 -0.0044925576 0.014316467 0.017418252
000360 ea 24 f0 3b b1 f9 08 3c 87 c0 a1 3c 44 f7 71 3c
       0.0073286192 0.008360312 0.019745125 0.014768425
000370 dc cb ff 3b 7a 15 10 3b 54 4e 42 bb 62 d1 f1 bb
       0.0078062844 0.0021985457 -0.0029648738 -0.0073796967
000380 2f 4e 9c 3c 74 cd 8d 3a 36 e6 74 3c b8 5d 85 3c
       0.01908025 0.0010818676 0.014947465 0.01628004
000390 1b bb df bb bf 31 4b 3a e9 e8 11 bb a9 e3 b6 3a
       -0.0068277246 0.0007751248 -0.002226407 0.0013953346
0003a0 e7 55 6a 3c 7e e9 02 3c 95 52 39 bc 3b 70 26 bc
       0.014302707 0.007990239 -0.011311193 -0.010158594
0003b0 19 0b 41 bc 32 48 5d bc 57 f9 d6 3b 33 f8 37 bc
       -0.011782431 -0.013505982 0.0065604853 -0.011228609
0003c0 73 19 1c 3b 69 38 a7 bb e2 cb a1 3a 39 26 aa ba
       0.002381888 -0.00510316 0.0012344087 -0.0012981362
0003d0 bb 2a c9 3b fe 62 cd b9 84 2a 18 3c 57 07 0e 3b
       0.006139127 -0.00039174402 0.00928748 0.0021671855
0003e0 e5 23 9c 3b 88 6b 22 3b 2e 5e 1c 3c 26 ba fb 3a
       0.004765021 0.0024783332 0.009543939 0.0019205257
0003f0 49 e5 28 3c 25 42 06 bb 1f d3 c7 ba b4 8e 83 3c
       0.010308572 -0.0020486203 -0.0015245414 0.016059257

batchnorm.weight f4 [40]
000000 ef 55 81 3f 61 c9 81 3f 39 51 80 3f 5b 16 80 3f
       1.010435 1.0139581 1.0024787 1.0006822
000010 50 d3 80 3f 90 14 81 3f 7e 6e 81 3f 00 46 80 3f
       1.0064487 1.00844 1.0111845 1.0021362
000020 f0 1c 80 3f 09 ad 80 3f 14 b9 80 3f 6b 40 80 3f
       1.0008831 1.0052806 1.0056481 1.0019659
000030 7e d9 80 3f 41 6b 81 3f 01 46 81 3f ea cd 7f 3f
       1.0066373 1.0110856 1.0099488 0.99923575
000040 d3 bc 80 3f 03 7c 80 3f 7e b6 80 3f d0 db 80 3f
       1.0057625 1.0037845 1.0055692 1.0067081
000050 0d b1 81 3f 02 7c 80 3f 3f 5e 81 3f 3c 00 80 3f
       1.0132157 1.0037844 1.0106887 1.0000072
000060 e7 a4 80 3f 7e 34 80 3f 43 a4 81 3f aa 55 80 3f
       1.0050324 1.0016019 1.0128254 1.0026143
000070 43 67 80 3f c1 8a 81 3f 5a 5b 81 3f a4 e1 80 3f
       1.0031513 1.0120469 1.0106003 1.006886
000080 4c bb 80 3f 55 39 80 3f 77 c0 80 3f ca 6c 80 3f
       1.0057158 1.0017496 1.0058736 1.00332
000090 66 1b 7f 3f 19 51 80 3f 91 67 80 3f bd e9 80 3f
       0.9965118 1.0024749 1.0031606 1.0071331

batchnorm.bias f4 [40]
000000 cc 84 47 ba e6 fa 7c 3b 32 42 7c bb 02 9e 3a bc
       -0.0007611036 0.0038601696 -0.0038491604 -0.011390211
000010 fe 68 31 3b 60 9f bb 3a 67 a2 4e bb 69 24 0c bb
       0.0027070637 0.0014314465 -0.0031529905 -0.0021384007
000020 74 25 1c 3c 55 28 dc ba 56 8f 98 3b 3a 3e 43 3b
       0.009530414 -0.0016796688 0.004655759 0.0029791729
000030 05 44 22 b9 6a a3 8f 3a 4c 2b 44 bb e4 67 4f 3c
       -0.00015474863 0.0010958735 -0.0029933034 0.012659047
000040 eb 03 6d 3b 51 24 91 3b 55 52 63 3b 44 07 44 bb
       0.0036165665 0.004429378 0.0034686525 -0.0029911557
000050 99 92 48 3c d7 9b 8d bb c9 38 61 3b b8 3a 34 bb
       0.012241983 -0.004321556 0.0034366122 -0.002750082
000060 53 f3 1b bc bd f7 3e bc c5 d3 1b bb 6e ac 21 bc
       -0.009518462 -0.011655745 -0.0023777348 -0.009867771
000070 5f bb 1a bb 4a f9 54 3c ee 6a c1 3a 09 3d 4a bb
       -0.0023610217 0.012998888 0.0014756599 -0.0030859134
000080 14 eb c5 bb 0f fe 23 3c b2 06 e0 bb dc 95 a1 3b
       -0.0060399864 0.010009303 -0.0068367356 0.0049311947
000090 71 d5 44 ba de c7 ef 3a 68 ad 0a bb de 39 f6 bb
       -0.0007508612 0.0018293818 -0.0021160487 -0.0075142225

batchnorm.running_mean f4 [40]
000000 90 2c 03 3c a5 a6 a6 3d ec e1 f1 3d 27 4e ab bc
       0.00800623 0.08137254 0.11810669 -0.02091129
000010 8e d7 71 3d b0 77 bf 3d 9b 80 83 3c f8 45 2f b9
       0.05904346 0.093490005 0.016052535 -0.00016715366
000020 c5 34 12 3e 52 e8 00 3d d2 da 45 3b 67 3f 2e bd
       0.14277942 0.031471558 0.0030190242 -0.042540934
000030 df 92 a3 3d 25 00 62 bc d9 a8 a7 bc 51 54 75 3d
       0.07986998 -0.01379398 -0.020466255 0.059894864
000040 85 44 70 bd cc 45 8d ba c4 94 0e 3e 31 b3 6b bd
       -0.058659095 -0.0010778247 0.13923937 -0.057543937
000050 4e c1 c6 3c 98 2e 08 3e db cf 8e 3d 6e f8 d8 3d
       0.024262097 0.13299024 0.06973239 0.10594259
000060 74 a3 09 bd bd a3 62 bd e8 fb 56 3c a9 80 f4 3c
       -0.033603147 -0.055331934 0.013121583 0.029846506
000070 bd 42 2d bd 81 7c 16 bc 37 a8 84 bb 0a 76 28 bd
       -0.042299975 -0.0091849575 -0.004048373 -0.041128196
000080 30 8f ee 3d 08 e4 30 bd fc de 02 3e dd 52 9c 3d
       0.116484046 -0.043186218 0.12780374 0.076329924
000090 76 6d de bb 2f cb 33 3c 2b 22 06 be 16 4c a4 bd
       -0.006787951 0.010973736 -0.13098972 -0.08022325

batchnorm.running_var f4 [40]
000000 a0 79 25 3e 98 f7 94 3d 02 92 64 3e f7 84 81 3e
       0.16159678 0.07273787 0.22321323 0.25296757
000010 c3 cb 0d 3e 55 d7 2a 3e 01 ce c8 3d 04 78 b0 3c
       0.1384726 0.16683705 0.09804917 0.021541603
000020 99 4a 25 3e 77 2c e7 3d 82 39 f6 3d 91 0b 8e 3d
       0.16141738 0.11287778 0.120226875 0.069358
000030 8c 95 20 3e a7 90 9d 3d bb ae 05 3d 54 35 4d 3d
       0.15682048 0.07693606 0.03263734 0.050099686
000040 b5 4a 00 3e d3 ed 57 3e 89 8b 19 3e b0 4d 33 3e
       0.12528498 0.21086816 0.14994635 0.17510104
000050 01 4f 1f 3e 41 e1 2b 3e 96 33 da 3d 9d b7 0c 3e
       0.15557481 0.16785146 0.106543705 0.13741918
000060 9d 1c 16 3e ab aa 4c 3e 55 4f ab 3d 49 09 f9 3d
       0.14659353 0.1998698 0.08364741 0.12159974
000070 58 65 b3 3d 33 17 7c 3d 12 4a 7a 3d f6 2f ca 3d
       0.08759564 0.061545562 0.061105795 0.09872429
000080 d2 7a 3f 3e fe c7 8c 3d 41 d0 40 3e 01 00 bd 3d
       0.18699196 0.06874083 0.18829443 0.09228516
000090 91 7e 42 3e e7 a7 34 3d bd d9 7a 3e 59 0b 40 3e
       0.18993594 0.044105437 0.24497123 0.18754329

dense.weight f4 [4, 2840]
000000 a6 b3 99 bb 49 f3 69 3c 73 1e 27 3c 3f 79 b5 3c
       -0.004690605 0.014279195 0.010200131 0.022152541
000010 c4 d1 db bb 15 cb 27 3b 5f fe 3d 3c 21 63 f2 3a
       -0.0067083556 0.0025603224 0.011596291 0.0018492677
000020 97 06 e8 3b 0b df 87 3c c2 c2 93 bc db 2a 5d bb
       0.0070808637 0.016585847 -0.018037204 -0.0033747468
000030 ad 67 15 bc d1 7e 2a 3c 3d 58 f6 bb 84 3a 8b bc
       -0.0091189565 0.010406212 -0.007517843 -0.016995676
000040 c0 22 01 bc 34 3e 70 3c 66 e3 ad bb e2 71 9e 3c
       -0.00788182 0.014663268 -0.005306649 0.019341413
000050 b5 25 41 3c 9b ec 3a 39 45 d0 a2 bc 15 be 67 bc
       0.011788775 0.00017826485 -0.019874701 -0.01414444
000060 a7 dd 28 3c 99 f8 a9 bc d1 5d f2 3b ae d0 a5 3b
       0.010306752 -0.020748423 0.0073964377 0.005060277
000070 da ff 52 bc 15 c8 dc 3b aa 84 24 bc 9b 36 1b 3c
       -0.012878383 0.006737719 -0.010041395 0.009473468
000080 cf d9 90 ba 2c 81 46 bc d6 d6 a2 3c 3c 6b 18 bc
       -0.001105124 -0.012115758 0.019877832 -0.00930291
000090 9a ca ed bb e3 8f 65 3c 8d af c0 bb 20 2b 6c 3c
       -0.007256818 0.014011356 -0.0058803023 0.014414579
0000a0 ca 2f b9 3c 00 bc 77 bb 4e 86 20 3c 83 9c 35 3c
       0.022605795 -0.0037801266 0.009797646 0.011084679
0000b0 56 ff ba 3a 3c d3 e3 bb 8e ad 8e bc e5 df 9a bc
       0.001426677 -0.0069526713 -0.017416742 -0.01890559
0000c0 a3 0e 5f bc 39 79 a4 bc 91 aa 54 bc 53 5f 79 bc
       -0.0136143295 -0.020077335 -0.012980119 -0.015220481
0000d0 d2 84 e6 b9 ae b1 0b bc 8b 2e c5 3b 53 72 74 bc
       -0.00043967977 -0.008526249 0.0060175112 -0.014919835
0000e0 e8 03 64 3c 6a ea b9 3c 42 00 8a bb b7 d3 7b 3c
       0.013916947 0.022694785 -0.0042114565 0.015370301
0000f0 c2 57 40 3c 1e 00 b8 bc 7f 4b 5d bc 42 8d 4c bc
       0.011739673 -0.022460993 -0.013506769 -0.01248485
000100 e8 d3 0f bb 0a 80 bd 3a 01 79 6e 3c 16 b8 0d 3c
       -0.0021946374 0.0014457714 0.014555217 0.008649847
000110 72 c2 62 3c 1f 61 da 3b 56 5b b1 3a 87 dd 96 3c
       0.013840305 0.00666441 0.0013531249 0.01841618
000120 9a 6b 21 bb bc 6d 85 bc 05 8a fe 3b 9c 63 42 bc
       -0.0024630786 -0.016287677 0.007767918 -0.011864569
000130 b9 e7 b5 3b b7 b6 c7 3b 0c 90 39 3c 28 f5 68 3c
       0.005551305 0.0060947794 0.011325847 0.014218606
000140 a0 09 8a bc a0 f4 38 3c 34 07 8f 3c cd 2e 7f bc
       -0.016850293 0.011288792 0.01745949 -0.015575123
000150 4d 16 50 bc 84 40 b7 3c 60 fa 2a bb f6 00 ae 3b
       -0.012700629 0.02236963 -0.0026089177 0.005310173
000160 37 3b e3 3a 93 5d 20 3c 49 3a f2 bb b9 9f a4 3b
       0.0017336373 0.009787935 -0.007392202 0.0050239232
000170 71 64 fd ba a4 1a 96 bb 76 1a 0a bc e9 bf c9 3c
       -0.0019332302 -0.0045808125 -0.00842916 0.024627643
000180 62 c2 4c 3c 91 b2 f2 39 fd ff f5 bb e2 31 16 3a
       0.012497516 0.0004629088 -0.007507323 0.0005729479
000190 99 25 85 bc 70 2f 42 bc f9 c6 d3 bb 52 29 43 bc
       -0.01625328 -0.01185213 -0.0064629284 -0.011911707
0001a0 28 43 80 bc be 29 e6 bb 8e e8 28 3c 9d f7 3b 39
       -0.015657023 -0.007024019 0.010309352 0.00017925953
0001b0 be d8 56 3c 5f 7e 32 bb ac b9 94 3c da a5 25 3a
       0.013113199 -0.0027235968 0.018154941 0.00063189643
0001c0 5c 18 b6 3b ee bd bd bb 36 21 12 3c a3 8f c2 bb
       0.005557103 -0.0057904636 0.008919051 -0.005937533
0001d0 da aa 95 bb f9 d7 ed bb 44 97 82 bb 58 28 8d bc
       -0.0045674862 -0.007258412 -0.0039853174 -0.017231151
0001e0 c8 73 b3 3c cc fb 7d bb 42 cd 29 bc 52 c1 3c bc
       0.021905795 -0.003875482 -0.010363879 -0.0115207005
0001f0 8a 44 5f bc 65 20 66 3b 98 53 fb bb 2b 17 34 3c
       -0.013627181 0.0035114523 -0.0076698773 0.010991852
000200 07 6b c6 bc 1d be 2d 3c 93 7a bc 3b e6 92 94 3c
       -0.024220956 0.010604409 0.0057519167 0.018136453
000210 fb 6b 57 bc cb 16 a6 3c 42 65 99 3b ec 0b fe ba
       -0.013148303 0.02027454 0.0046812603 -0.0019382215
000220 69 b7 03 3c 8f 26 1b bc a9 f3 88 3c 7f 9a ce bb
       0.008039334 -0.009469642 0.016717749 -0.0063050385
000230 bc 23 14 bb e5 55 86 bc e4 91 d7 3b f9 c2 66 3b
       -0.0022604307 -0.01639838 0.006578671 0.0035211428
000240 31 cc 15 ba f8 f6 79 3b a9 7a 7d 3b 77 3b a4 3c
       -0.0005714326 0.003814159 0.0038677847 0.020047886
000250 7f d2 bc 3c 10 05 bc bb 9c 6d ac ba 6f 8f a0 bb
       0.023049591 -0.005737908 -0.0013155225 -0.004899911
000260 e5 2b 46 bc 26 e8 76 b9 69 fd cb 3b 79 a0 6e 3c
       -0.012095426 -0.0002354687 0.006225277 0.014564627
000270 0d ad 87 3c 55 4d c3 bb 7f 57 81 bb ed a6 05 bc
       0.01656201 -0.0059601464 -0.003947198 -0.008157474
000280 62 18 43 bc f7 02 a8 3c 4d 95 b7 3b 3a 33 9b ba
       -0.011907669 0.020509226 0.005602515 -0.0011840828
000290 22 ec 37 3c f9 c8 c7 bc 37 1d dc 3b 66 b1 49 3c
       0.011225732 -0.024387823 0.00671735 0.0123103615
0002a0 d3 05 81 bc ff 9b 12 bc 07 d4 1a 3c e1 65 79 bc
       -0.015749848 -0.008948325 0.009449965 -0.015222044
0002b0 9e 71 39 bc 16 2d 3d bc d7 69 57 bc 1f 98 5a bc
       -0.011318592 -0.011546394 -0.013147793 -0.013341933
0002c0 b0 a8 23 bb 48 68 a6 ba 78 a1 f8 3b 85 73 86 3c
       -0.0024972372 -0.0012695873 0.007587608 0.016412506
0002d0 93 61 83 bc 19 2a 4d bc 43 f1 84 ba 4d c4 8b 3c
       -0.016037738 -0.012522244 -0.0010142702 0.017061377
0002e0 ff c2 00 bc e6 17 96 bc 39 8d 59 bc 5f b4 6c bb
       -0.007858991 -0.018321943 -0.013278299 -0.0036118252
0002f0 16 c0 2e 3c 4f 93 69 3c 34 2b 5a bb a4 f4 4e 3c
       0.010665914 0.0142563125 -0.0033289911 0.012631569
000300 11 74 37 bc df cf 30 bc fc e6 90 3a 0c 2e 0a 3c
       -0.011197106 -0.010791748 0.0011055167 0.00843383
000310 5c 07 95 bc a6 73 85 3c ca 5a e0 3b 1e 8c 12 3c
       -0.018191986 0.016290497 0.0068467604 0.008944539
000320 60 8e 66 3c 04 b4 2f b9 40 6c ac 3b ab ca b7 bb
       0.014072031 -0.00016756362 0.005261928 -0.0056088767
000330 5a 5e 2d bc a3 3d 91 3c ff 7a 93 b8 39 60 3c bc
       -0.010581577 0.017729586 -7.032416e-05 -0.011497551
000340 22 6a 11 bc ca c7 d4 bb 82 72 d0 3b df 55 cb 3b
       -0.008875402 -0.0064935433 0.0063613066 0.006205305
000350 53 2a 32 bb a1 67 e6 3b 45 56 ba 3a 80 6e e6 bb
       -0.0027185872 0.0070313965 0.0014216384 -0.0070322156
000360 ec 72 d6 bb 91 6f 01 bc d1 a2 0f 3c a0 2c 2b 3c
       -0.0065444615 -0.007900135 0.008766846 0.010447651
000370 77 74 97 bc 65 0b 17 3b 88 b1 16 3b 96 f1 5d 3c
       -0.018488152 0.0023047563 0.0022994 0.013546368
000380 5c ed 81 3c 20 f6 b5 bb c6 64 11 bc 5a 32 0a 3c
       0.015860252 -0.005553022 -0.008874124 0.008434856
000390 1a f8 15 bb 14 f9 45 bc cc aa 37 bc 5d f8 be bb
       -0.0022883476 -0.012083311 -0.011210155 -0.005827947
0003a0 95 e6 90 bc 9a 63 82 bc df cb 7f bc b0 7a cc ba
       -0.017688075 -0.015916634 -0.0156125715 -0.0015600529
0003b0 0d a7 29 bc 3e 2b a2 bc 3f 6a 52 bc be 5d 6d bb
       -0.010354769 -0.01979601 -0.012842714 -0.0036219205
0003c0 09 d3 21 3c cf e7 13 3c d5 f8 a5 3b 7f 44 9f 3c
       0.009876975 0.009027435 0.0050650635 0.019441841
0003d0 9b d7 9b bb e0 fb 99 3c ab cb 46 bc 7e 1f 26 bc
       -0.004755927 0.018796861 -0.012133519 -0.010139344
0003e0 d9 65 78 3a 2b 2c 88 3b 20 7e 23 3c b4 e4 10 b9
       0.00094756257 0.004155656 0.009978801 -0.00013818109
0003f0 84 98 16 3c 18 e4 89 3c 8d 30 b3 bc 3d be 4d bc
       0.009191636 0.016832396 -0.021873737 -0.012557563

dense.bias f4 [4]
000000 6a fb 45 3c 06 a0 8f 3c 35 ee 32 3a f4 9f 8f bc
       0.012083868 0.01753236 0.0006825657 -0.017532326
