EEG-ATCNet/results_pytorch_gpu2/saved models1/run-1/subject-9.pth (torch, 194183 bytes, 9 tensors)

conv1.weight f4 [40, 1, 1, 25]
0.05890767 -0.043844048 -0.031989556 0.041654505 -0.11037834 0.054615356 -0.022430765 0.052365813
0.022379605 -0.0022561303 0.047289915 0.027470304 0.055533163 -0.022543658 0.007921763 0.0053470647
0.025962925 0.009198601 0.09819266 0.036535386 -0.047189463 -0.070142284 -0.036152475 -0.06987611
-0.07170466 0.0061000884 0.069953375 0.05239564 -0.103030264 0.06273985 0.023356058 0.09873657
0.061671395 -0.09819682 -0.10414322 -0.06356152 0.093057565 -0.022663252 0.049924474 -0.039580498
0.10946162 -0.03981932 0.08047919 -0.0010621788 -0.054646645 0.046787404 -0.057428442 0.025155544
-0.04042469 -0.03159619 -0.12881048 -0.0649864 0.051342145 -0.032347593 0.0996282 0.08550195
-0.010130036 -0.07964005 0.050397936 0.022770187 -0.072057135 0.0567588 0.056548018 0.09016806
-0.06206178 -0.013572557 -0.003989461 0.02188899 -0.068738684 -0.06836055 0.061602496 -0.020798514
0.0549552 0.012243161 0.041925598 0.0625239 0.05821888 0.06282672 -0.089675374 0.052139234
-0.082052976 -0.084448814 0.0051540956 -0.013325638 0.06792055 -0.04436844 -0.07353139 0.09701985
0.00030504778 0.07229689 0.038065664 -0.07486311 0.022504259 0.022390662 -0.075336196 -0.04917623
0.03372749 0.017232286 -0.05109177 -0.039239865 0.107129216 -0.014723022 0.04773143 0.028900743
-0.08745319 -0.11141985 0.08826831 -0.0042933277 0.06691188 0.017592432 0.03479205 0.07876357
0.09556195 -0.0733269 0.006539573 0.06061246 0.05531782 0.047135603 -0.08808969 -0.08483216
-0.072588176 0.0065654316 0.0967103 -0.07216837 0.05175158 -0.09494161 -0.1264811 -0.039106824
0.040896878 0.08561608 -0.073757045 0.014270954 0.085347116 0.06054243 0.06092902 0.07081371
0.053433012 0.015057915 -0.08320188 -0.10166659 -0.058712877 -0.024978772 -0.074849635 0.03565064
0.032145053 -0.024386182 0.04663172 0.049240176 0.088276505 0.09786413 -0.014744549 0.112449944
-0.00032809738 0.0018167752 -0.09675269 -0.063424505 -0.059573006 -0.03198827 0.08504949 -0.024038522
-0.058549333 0.05680254 0.055096395 0.08240654 -0.04352086 0.026490742 -0.037512362 -0.026421119
-0.08761431 -0.062263843 -0.037618693 0.027686777 0.014258014 0.02820018 0.12904243 0.11954986
0.08575678 0.01998944 -0.059346505 0.09391857 -0.020855896 -0.007354217 -0.09061142 -0.027914701
-0.081559874 0.07637324 -0.10933895 -0.0984547 -0.02168073 -0.070873976 0.023612257 -0.044262536
-0.052740477 0.0047694314 0.08371849 -0.059762187 0.063251145 0.08743701 0.12224383 -0.052966893
0.020395232 -0.079127215 0.082264 -0.045814537 0.06060437 0.002501509 -0.004646357 -0.0018237834
0.02370448 0.06012464 0.028122503 0.046305355 -0.08468496 0.09000888 0.10615767 0.0994978
0.0813142 -0.07259825 -0.03652002 0.09352544 -0.090916894 0.08636635 -0.10609136 -0.09949319
0.018061375 -0.08456748 -0.02417903 0.081468634 0.09156688 0.097237214 -0.026178999 -0.08950349
0.10082736 -0.02175573 -0.04211293 0.02821975 -0.07006763 0.06932973 0.07282013 -0.080628954
-0.085416816 -0.0045115054 0.044203572 -0.0073526655 -0.053590205 -0.000262149 -0.09176504 -0.06701691
-0.055107813 0.10347419 0.091858976 -0.037832886 -0.007726497 0.029276475 -0.0025943683 -0.07259971
00000000: 2b49 713d d195 33bd 7b07 03bd ea9d 2a3d
00000010: 0a0e e2bd 5ab4 5f3d b9c0 b7bc 897d 563d
00000020: 6f55 b73c 96db 13bb 12b3 413d 6709 e13c
00000030: be76 633d 7aad b8bc 48ca 013c 6e36 af3b
00000040: 33b0 d43c bbb5 163c 3c19 c93d 21a6 153d
00000050: bd49 41bd c2a6 8fbd 9e14 14bd 351b 8fbd
00000060: e5d9 92bd 40e3 c73b b743 8f3d d09c 563d
00000070: 8801 d3bd c07d 803d 3455 bf3c 6636 ca3d
00000080: 259b 7c3d 6a1b c9bd 0a49 d5bd 8b2c 82bd
00000090: f794 be3d 49a8 b9bc 9b7d 4c3d 291f 22bd
000000a0: 6a2d e03d 9519 23bd 46d2 a43d ce38 8bba
000000b0: 29d5 5fbd 26a4 3f3d 163a 6bbd 0013 ce3c
000000c0: 5c94 25bd 026b 01bd e5e6 03be 9717 85bd
000000d0: 244c 523d e97e 04bd df09 cc3d a51b af3d
000000e0: 73f8 25bc 531a a3bd 116e 4e3d 8b88 ba3c
000000f0: b192 93bd ea7b 683d e59e 673d 08aa b83d
00000100: 7e34 7ebd 6e5f 5ebc 06ba 82bb 8a50 b33c
00000110: dec6 8cbd 9e00 8cbd e652 7c3d a561 aabc
00000120: b418 613d 8a97 483c 2dba 2b3d 880c 803d
00000130: ec76 6e3d 4cab 803d b9a7 b7bd f38f 553d
00000140: 640b a8bd 80f3 acbd b0e3 a83b c753 5abc
00000150: ee19 8b3d aebb 35bd a097 96bd 58b2 c63d
00000160: d2ee 9f39 6410 943d beea 1b3d d551 99bd
00000170: da5a b83c 9f6c b73c dd49 9abd 046d 49bd
00000180: d625 0a3d b92a 8d3c 9b45 51bd fbb9 20bd
00000190: 9066 db3d d438 71bc 0882 433d 40c1 ec3c
000001a0: a81a b3bd 1730 e4bd 04c6 b43d 0baf 8cbb
000001b0: 1909 893d 011e 903c 1c82 0e3d cb4e a13d
000001c0: fcb5 c33d 6a2c 96bd ea49 d63b c544 783d
000001d0: f094 623d 4311 413d 5e68 b4bd 7cbc adbd
000001e0: 1ca9 94bd d522 d73b 0d10 c63d 03cd 93bd
000001f0: 77f9 533d bf70 c2bd 4384 01be 7a2e 20bd
00000200: 7c83 273d 7c57 af3d ef0d 97bd b8d0 693c
00000210: 78ca ae3d 57fb 773d b590 793d c706 913d
00000220: 93dc 5a3d 79b5 763c bf65 aabd 9336 d0bd
00000230: ea7c 70bd 48a0 ccbc c44a 99bd 6806 123d
00000240: 88aa 033d 88c5 c7bc e700 3f3d 11b0 493d
00000250: 50ca b43d fd6c c83d 1f93 71bc 284c e63d
00000260: 7c04 acb9 dc20 ee3a 4626 c6bd b5e4 81bd
00000270: d302 74bd 2206 03bd 6d2e ae3d 6fec c4bc
00000280: 6dd1 6fbd c8a9 683d c2ac 613d c3c4 a83d
00000290: ee42 32bd 1d03 d93c 90a6 19bd 1a71 d8bc
000002a0: 226f b3bd 5f08 7fbd 0f16 1abd 61cf e23c
000002b0: 729a 693c 1004 e73c b323 043e 8fd6 f43d
000002c0: 40a1 af3d e5c0 a33c 5215 73bd 6158 c03d
000002d0: fcd9 aabc a5fb f0bb 7b92 b9bd 5fad e4bc
000002e0: dd08 a7bd 9369 9c3d 19ed dfbd 9ea2 c9bd
000002f0: c99b b1bc 6026 91bd 7e6e c13c a24c 35bd
00000300: 6606 58bd e448 9c3b 9a74 ab3d 32c9 74bd
00000310: d189 813d 2d12 b33d f95a fa3d d0f3 58bd
00000320: e713 a73c 730d a2bd 077a a83d 06a8 3bbd
00000330: 4a3c 783d 5bf0 233b 7840 98bb 040c efba
00000340: e62f c23c 4145 763d 2a61 e63c afaa 3d3d
00000350: 4f6f adbd 9356 b83d 3169 d93d 81c5 cb3d
00000360: 0f88 a63d 64ae 94bd 0496 15bd 448a bf3d
00000370: a332 babd d7e0 b03d 6d46 d9bd 16c3 cbbd
00000380: 73f5 933c b731 adbd 1a13 c6bc 07d9 a63d
00000390: 6b87 bb3d 4e24 c73d 5775 d6bc 9b4d b7bd
000003a0: 937e ce3d 1339 b2bc 9c7e 2cbd 1b2d e73c
000003b0: 9e7f 8fbd bffc 8d3d b822 953d cb20 a5bd
000003c0: 03ef aebd 40d5 93bb ce0e 353d a1ee f0bb
000003d0: 6781 5bbd 0b71 89b9 4fef bbbd 2940 89bd
000003e0: bbb8 61bd 47ea d33d 8f20 bc3d a8f6 1abd
000003f0: 8e2e fdbb 38d5 ef3c 4706 2abb 28af 94bd

conv1.bias f4 [40]
-0.04882639 -0.1599379 -0.12262372 -0.10732474 -0.003705774 0.07991 0.10392319 -0.09802467
-0.032312363 -0.15493849 0.15205744 0.20232904 0.19215891 0.08934003 -0.037687298 -0.003272982
0.06471938 -0.17298388 0.011707419 -0.16440454 -0.19848567 -0.007797036 -0.062551275 -0.12742472
0.031160235 0.009082721 0.031309593 -0.10450557 -0.19524488 0.008322334 -0.08278123 -0.07185975
0.14638315 0.02988748 0.087799884 -0.054425683 -0.16373733 0.03985559 -0.131429 0.021087429
00000000: 2efe 47bd c3c6 23be 2522 fbbd 13cd dbbd
00000010: 92dc 72bb dba7 a33d aed5 d43d 28c1 c8bd
00000020: f859 04bd 32a8 1ebe f2b4 1b3e 582f 4f3e
00000030: 4ec5 443e e8f7 b63d ff5d 1abd 877f 56bb
00000040: 988b 843d b022 31be 79d0 3f3c aa59 28be
00000050: d43f 4bbe 477e ffbb e21a 80bd a07b 02be
00000060: c043 ff3c b1cf 143c 7d3e 003d 0407 d6bd
00000070: 46ee 47be 665a 083c 3589 a9bd 342b 93bd
00000080: 77e5 153e 97d6 f43c 6dd0 b33d 77ed 5ebd
00000090: c2aa 27be 9d3f 233d 5395 06be 8bbf ac3c

conv2.weight f4 [40, 40, 22, 1]
-0.008546982 0.000587258 -0.0056314273 0.0114304265 0.010904254 0.0085165 0.0063120928 -0.0037109933
-0.0014177844 0.0068155453 -0.0028340616 -0.015137675 -0.007397038 -0.0005925124 -0.00072904 -0.0038630655
-0.0039367448 -0.018351777 -0.0060214954 -0.0011008808 -0.010344573 -0.003942425 -0.018731387 -0.010292113
-0.012669946 -0.010551804 -0.01156393 -0.020471685 -0.01520083 -0.0050788415 0.0063838265 0.0050625564
-0.016759105 -0.021898085 -0.026786711 0.005024862 0.007901307 0.0076985047 -0.014217478 -0.017852014
0.018872267 0.0019224166 -0.009416565 0.0032933482 0.009718887 0.00096408353 -0.013298438 -0.0064316606
0.0014183912 0.021428006 0.0038360294 -0.0037007201 -0.01824414 -0.014903298 0.007325373 0.005403309
-0.012389124 -0.012172133 -0.012802554 -0.001959559 0.006143879 0.0046148133 -0.0040686307 0.0071326992
0.0031278974 0.016980046 -0.007998387 0.00037837925 0.006419625 -0.003640907 -0.007961783 -0.0019683826
0.007560227 0.023114806 0.01876292 0.01750547 -0.0061085303 -0.015621989 0.011553719 0.03323287
0.031513065 0.017720694 0.0076919715 -0.0022327888 0.0090511255 0.0035369035 -0.004484696 -0.0040128864
-0.0056462386 0.0046147737 0.004763064 0.0059886524 0.00060549856 0.015392673 0.005525028 0.008825474
0.012370079 0.0059039756 0.0013157884 0.0048587588 -0.006623799 0.01641595 0.016812366 0.005552842
0.0042725047 -0.006362852 0.00639492 0.0062890965 0.0039530913 -0.002777949 0.016528593 0.0142971035
0.0006624799 0.009923267 0.016677575 0.022775969 0.0075977575 -0.012668357 -0.015793355 -0.006692554
0.009786065 0.027010905 0.01270832 -0.030386508 -0.0220222 0.004727645 0.007585916 0.017159678
-0.013505706 -0.0032778298 0.012506646 0.0030213085 0.0051068803 0.006628581 0.00084702414 -0.0045334776
0.014460144 0.022324163 0.0204377 0.019508872 0.0037524104 0.008428863 0.012064334 0.018035399
0.029010039 0.028666725 0.022609565 0.017481832 0.01916629 0.017402384 0.02080518 0.024977878
0.028177781 0.011374633 -0.00040788515 0.008218658 0.009068644 -0.009526849 -0.011916912 -0.0108155245
0.0017387433 0.012187993 0.009588992 -0.00070099405 -0.0019926596 -0.009154077 0.0046259924 0.004554447
0.0014042758 -0.005698631 0.005510485 0.007869106 -0.0077555403 0.0010724234 0.0081647495 0.0034634578
-0.0013665326 -0.009674463 -0.0031896683 -0.0075610406 0.0016727732 -0.00070946384 -0.0023614299 0.0035363694
-0.00025036282 -0.004747268 -0.006498704 -0.010871236 -0.017448938 0.00058196776 0.0038212982 0.0017564704
-0.0015901324 -0.020197725 0.010163666 -0.004141451 -0.012374033 -0.004529493 0.002025643 -0.0065059187
-0.0017922431 -0.008941323 -0.00067413657 -0.013123892 -0.0033058657 -0.017349409 0.0024049662 0.0064194542
-0.008929054 -0.014754165 -0.0032108135 -0.004953694 0.008693829 0.0014795801 0.0075664367 0.0036660596
0.0061212727 0.009614752 0.009998825 0.008992596 0.006541169 0.006674977 0.0007398882 -0.0016731386
0.016252255 0.009239198 0.015369138 0.016501399 0.0008254607 0.00041167747 0.0033956598 0.00497268
0.006761049 0.008818844 -0.00025829 -0.0014662818 -0.0027499364 -0.008266799 0.010509138 0.0013049905
0.0047055455 0.0016208844 -0.000870747 -0.008763184 -0.0030665842 0.00346963 0.0019768204 -0.0015451766
-0.008843204 -0.013229672 -0.0063610147 0.0029127083 0.0022086725 -0.0059330715 -0.013144086 -0.004645405
00000000: a408 0cbc 38f2 193a d687 b8bb af46 3b3c
00000010: c2a7 323c ca88 0b3c acd5 ce3b 2334 73bb
00000020: f3d4 b9ba f054 df3b aabb 39bb 0304 78bc
00000030: da62 f2bb d652 1bba 0c1d 3fba 7c2b 7dbb
00000040: cfff 80bb 7756 96bc f74f c5bb 6e4b 90ba
00000050: 497c 29bc 752f 81bb 9172 99bc 40a0 28bc
00000060: 9b95 4fbc 79e1 2cbc a376 3dbc 3cb4 a7bc
00000070: e70c 79bc 696c a6bb 6b2f d13b cde3 a53b
00000080: 644a 89bc 9d63 b3bc ce6f dbbc 99a7 a43b
00000090: 7c74 013c bd43 fc3b 6df0 68bc 633e 92bc
000000a0: 039a 9a3c 99f9 fb3a f047 1abc 37d5 573b
000000b0: f73b 1f3c 8dba 7c3a b1e1 59bc aec0 d2bb
000000c0: 50e9 b93a c989 af3c e565 7b3b c887 72bb
000000d0: bc74 95bc f62c 74bc af09 f03b 3e0e b13b
000000e0: c1fb 4abc a06d 47bc cec1 51bc f26b 00bb
000000f0: 9852 c93b dc37 973b 2652 85bb 6bb9 e93b
00000100: 69fd 4c3b bd19 8b3c ab0b 03bc 3461 c639
00000110: b85b d23b 489c 6ebb 2372 02bc fbff 00bb
00000120: c8bb f73b 435b bd3c b2b4 993c a267 8f3c
00000130: 112a c8bb 5ff3 7fbc cf4b 3d3c 311f 083d
00000140: d813 013d fd2a 913c ef0c fc3b fb53 12bb
00000150: 2c4b 143c 65cb 673b 5bf4 92bb 887e 83bb
00000160: 1504 b9bb 8737 973b 7a13 9c3b 753c c43b
00000170: 52ba 1e3a 8d31 7c3c 4b0b b53b b998 103c
00000180: dfab 4a3c 2376 c13b 8876 ac3a 3936 9f3b
00000190: 740c d9bb be7a 863c 16ba 893c 9df4 b53b
000001a0: 5e00 8c3b 797f d0bb 7a8c d13b c414 ce3b
000001b0: ef88 813b 400e 36bb f966 873c 663e 6a3c
000001c0: 46aa 2d3a 3395 223c 699f 883c ab94 ba3c
000001d0: 9cf6 f83b f18e 4fbc 1161 81bc 364d dbbb
000001e0: bb55 203c f945 dd3c 8f36 503c 20ed f8bc
000001f0: e767 b4bc 5cea 9a3b 4793 f83b 7492 8c3c
00000200: 0947 5dbc dcd0 56bb ade8 4c3c 2501 463b
00000210: 9e57 a73b 9134 d93b d40a 5e3a 918d 94bb
00000220: 3dea 6c3c 2ae1 b63c f76c a73c 12d1 9f3c
00000230: 00eb 753b 3719 0a3c 7ca9 453c f9be 933c
00000240: 76a6 ed3c 7bd6 ea3c b237 b93c 0f36 8f3c
00000250: a002 9d3c 728f 8e3c a06f aa3c 689e cc3c
00000260: 17d5 e63c ab5c 3a3c 6bd9 d5b9 8da7 063c
00000270: a694 143c 8016 1cbc 273f 43bc 9933 31bc
00000280: 8be6 e33a 26b0 473c 261b 1d3c eac2 37ba
00000290: 4897 02bb fbfa 15bc a395 973b 783d 953b
000002a0: ad0f b83a 95bb babb 4c91 b43b 6ced 003c
000002b0: 3022 febb 8f90 8c3a 71c5 053c 2efb 623b
000002c0: 3a1d b3ba a481 1ebc c109 51bb 9bc2 f7bb
000002d0: f440 db3a 50fb 39ba 38c2 1abb 6fc2 673b
000002e0: 2143 83b9 f88e 9bbb 15f3 d4bb 451d 32bc
000002f0: 13f1 8ebc 328f 183a bf6e 7a3b 5e39 e63a
00000300: fd6b d0ba b375 a5bc 8185 263c 02b5 87bb
00000310: 75bc 4abc 246c 94bb a6c0 043b 9a2f d5bb
00000320: b3e9 eaba a07e 12bc 8ab8 30ba 9805 57bc
00000330: 39a7 58bb 5920 8ebc a39c 1d3b 495a d23b
00000340: 2b4b 12bc 74bb 71bc 836c 52bb 9952 a2bb
00000350: 9070 0e3c 78ee c13a dfef f73b 4642 703b
00000360: f594 c83b 3187 1d3c 1dd2 233c ae55 133c
00000370: 4d57 d63b c4b9 da3b 0ef5 413a 374d dbba
00000380: 7323 853c 0160 173c d6ce 7b3c f12d 873c
00000390: bb63 583a 6ad6 d739 b889 5e3b ddf1 a23b
000003a0: ca8b dd3b ea7c 103c 196b 87b9 4130 c0ba
000003b0: 4738 34bb 7871 07bc 852e 2c3c 370c ab3a
000003c0: fa30 9a3b db73 d43a d842 64ba 7593 0fbc
000003d0: bff8 48bb bb62 633b 8b8d 013b 8687 caba
000003e0: 16e3 10bc 44c1 58bc 0f70 d0bb 23e3 3e3b
000003f0: 60bf 103b 366a c2bb 4b5a 57bc 7b38 98bb

batchnorm.weight f4 [40]
1.0541425 0.9791432 1.0826143 1.1052037 1.0607867 0.96241385 1.0884073 1.0957426
1.0154513 1.1007375 1.0885646 1.0598141 1.0639828 0.9966295 1.06109 1.0029533
1.0683155 1.0805706 1.0757341 1.0207921 1.0872468 1.0599817 0.99174947 1.03963
1.0769144 1.0636744 1.0092834 1.0323863 1.0620227 1.0587647 0.9821647 1.0185934
1.0232098 1.0284104 0.97319204 0.9905665 1.0918266 1.0279686 0.9921136 0.97829026
00000000: 24ee 863f 21a9 7a3f 1b93 8a3f 5177 8d3f
00000010: dcc7 873f c160 763f ee50 8b3f 4b41 8c3f
00000020: 4ffa 813f f7e4 8c3f 1656 8b3f fda7 873f
00000030: 9730 883f 1c23 7f3f ccd1 873f c660 803f
00000040: 90be 883f 2350 8a3f a8b1 893f 51a9 823f
00000050: e72a 8b3f 7bad 873f 4be3 7d3f 9912 853f
00000060: 55d8 893f 7c26 883f 3330 813f 3c25 843f
00000070: 5cf0 873f 9a85 873f 256f 7b3f 4561 823f
00000080: 8af8 823f f4a2 833f 1d23 793f c495 7d3f
00000090: f9c0 8b3f 7a94 833f 28fb 7d3f 3b71 7a3f

batchnorm.bias f4 [40]
0.012309172 0.045629412 0.023104077 -0.004154717 -0.05448197 -0.1176099 -0.026382465 0.022543948
0.06062544 0.02938561 0.028905332 0.019385854 0.001741252 -0.018029993 -0.028857255 0.01203688
-0.0213876 -0.017400773 0.015189928 -0.1041487 0.019327262 0.0046536326 -0.033672396 0.021117538
0.0054795863 0.024006166 0.07688874 -0.017190738 0.0998354 -0.027830275 0.111376524 -0.022688985
-0.06954169 0.045094967 -0.038650274 -0.0503379 -0.036845617 0.088828176 0.031666785 -0.14850938
00000000: 69ac 493c e8e5 3a3d c344 bd3c 4b24 88bb
00000010: 7c28 5fbd 76dd f0bd 0a20 d8bc 16ae b83c
00000020: 6252 783d 17ba f03c e0ca ec3c 15cf 9e3c
00000030: b93a e43a a3b3 93bc 0d66 ecbc 5536 453c
00000040: 0c35 afbc 118c 8ebc 2ddf 783c ea4b d5bd
00000050: 3554 9e3c 807d 983b 11ec 09bd b0fe ac3c
00000060: 1a8e b33b 94a8 c43c d877 9d3d 97d3 8cbc
00000070: 8176 cc3d 51fc e3bc 6019 e43d 40de b9bc
00000080: e06b 8ebd 80b5 383d c04f 1ebd 1d2f 4ebd
00000090: 6eeb 16bd 8ceb b53d 08b5 013d d812 18be

batchnorm.running_mean f4 [40]
0.08692377 0.04408213 0.0016747091 0.012347084 -0.01704729 0.011721996 0.02034152 -0.058266893
0.049243893 0.0053682327 0.029436331 -0.07466034 -0.10528633 0.03445398 -0.011745481 0.06868085
-0.012532852 0.01431522 0.012540762 -0.07263082 -0.0052198665 0.02264583 0.05961018 0.06288583
0.018646693 -0.013567415 0.013325205 0.00031190593 -0.033840146 -0.037059695 0.0038482754 0.035534296
-0.0028122652 0.006284239 0.02020145 -0.07882165 -0.0015600674 0.0005023991 -0.039209608 -0.0076181563
00000000: 1705 b23d 778f 343d ea81 db3a 6c4b 4a3c
00000010: c2a6 8bbc 9d0d 403c 42a3 a63c 44a9 6ebd
00000020: f7b3 493d 00e8 af3b 7624 f13c 85e7 98bd
00000030: 5ca0 d7bd 9e1f 0d3d 1e70 40bc 8ca8 8c3d
00000040: 9756 4dbc 628a 6a3c c577 4d3c 78bf 94bd
00000050: 6a0b abbb bf83 b93c ce29 743d 49ca 803d
00000060: f3c0 983c dd49 5ebc f651 5a3c 4e87 a339
00000070: f79b 0abd e8cb 17bd 5933 7c3b 698c 113d
00000080: fb4d 38bb 04ec cd3b 837d a53c 3f6d a1bd
00000090: 2d7b ccba 6fb3 033a 419a 20bd baa1 f9bb

batchnorm.running_var f4 [40]
0.11993881 0.12991463 0.09328572 0.088822536 0.24970408 0.18317278 0.16548982 0.09119002
0.1826542 0.06463986 0.12334594 0.30956995 0.13387527 0.22016597 0.23300938 0.19162862
0.14647767 0.15962413 0.15191957 0.13350011 0.15734996 0.114446506 0.20052138 0.14697106
0.20544513 0.101717874 0.26860565 0.07986705 0.17619553 0.24877328 0.12361822 0.16360068
0.10684728 0.11619011 0.27604473 0.44876763 0.15475707 0.13193363 0.16469397 0.15314452
00000000: 7ba2 f53d 5708 053e 950c bf3d 97e8 b53d
00000010: 6db2 7f3e a591 3b3e 2a76 293e d5c1 ba3d
00000020: b409 3b3e e761 843d cc9c fc3d f47f 9e3e
00000030: 9916 093e 3073 613e 039a 6e3e 4b3a 443e
00000040: 3efe 153e 8274 233e ce90 1b3e 41b4 083e
00000050: 5920 213e ee62 ea3d 7a55 4d3e 957f 163e
00000060: 3560 523e 7651 d03d ae86 893e 5691 a33d
00000070: 9a6c 343e 6cbe 7e3e 8d2b fd3d f086 273e
00000080: bfd2 da3d 15f5 ed3d bc55 8d3e dfc4 e53e
00000090: a378 1e3e 9c19 073e 89a5 283e ebd1 1c3e

dense.weight f4 [4, 2840]
-0.014800323 0.012362604 0.0053512133 0.0063440767 -0.017973408 0.00961783 0.0030806072 0.018599685
0.013639888 0.021211173 0.005023361 0.0059982296 -0.015376506 -0.005355236 -0.028038098 -0.018557701
-0.012360453 0.037406597 -0.00029386437 0.027219042 0.038956597 0.01869098 -0.0005421977 -0.014353753
0.024572795 -0.004327326 0.036517162 0.03538687 0.013871192 0.00814401 0.00016010979 0.012727861
-0.007297677 -0.024366714 0.011518244 -0.018392012 -0.02295588 0.00675102 -0.013407115 -0.004402528
0.0093814675 -0.011805439 0.009287727 0.0037087623 0.008813798 -0.0053114113 -0.0052308147 -0.011851468
-0.017326416 -0.020570496 -0.0005696534 -0.00076308876 0.022705765 0.0039096284 0.029857049 -0.0028756645
0.03201885 0.03403206 0.00349106 -0.0059553236 -0.0013170359 -0.019601796 -0.018447725 -0.0374401
-0.002367455 0.011822233 0.03241027 0.011861642 0.045659233 0.03307395 0.02056884 0.02354995
-0.011661374 -0.022512622 -0.01665241 -0.0044886605 -0.0007395899 0.0019100042 0.008312991 -0.008062184
-0.030385638 0.0029961425 0.008918193 -0.017772831 -0.02718026 0.0090740025 0.0047086794 0.019487904
0.018949967 0.05379017 0.031732433 0.042872686 0.037280384 0.028792508 0.007983486 0.025983337
0.02514978 0.035659436 0.017583942 0.008740336 0.009885954 -0.00019344372 -0.011398186 -0.020341247
0.008159832 0.0030078925 0.009700429 -0.0025899305 0.0039686016 0.011457318 -0.0039939526 -0.0009917299
0.01413149 -0.004341414 -0.0067421068 -0.010811595 -0.013605577 0.004794254 0.007505712 -0.010685749
0.01367843 -0.010336441 -0.018400053 -0.0032750485 0.00296244 0.013597513 0.015055701 0.036939654
-0.011050963 0.009100141 0.020831682 0.03973398 0.005698884 0.05129904 0.0317662 0.025587765
0.028262848 -0.0072932583 0.015939854 -0.021934915 0.007234422 -0.014826538 0.03974983 0.02828136
0.008084638 0.026694873 0.004275485 0.0030835173 0.014822661 0.0037420536 0.008198037 -0.007835033
-0.025457578 -0.017838161 -0.014764622 0.0025312658 -0.017424582 -0.04546366 -0.045456864 -0.043240815
-0.059826203 -0.015729774 -0.025566053 -0.022665998 -0.01506655 -0.046229057 -0.008221341 0.009876038
-0.008854238 -0.015891261 -0.0060128146 -0.033340804 -0.034546867 -0.03860774 -0.051290564 -0.072351895
-0.04904533 -0.037789736 -0.01570164 -0.010817946 -0.028308595 -0.029113255 -0.021474892 -0.02274922
-0.027078176 -0.013763908 -0.012216261 -0.00748344 0.028560672 0.022511384 -0.007071135 -0.01768681
-0.021755688 -0.03868617 -0.041533705 -0.032188993 -0.03634636 0.0051876153 0.029565293 0.03735604
0.030199774 0.02814869 0.009923531 0.02038618 0.009552557 0.018538909 0.018560153 0.01206233
0.007847299 -0.0041671447 0.022935463 0.018713906 0.021807639 0.029424742 0.011492778 0.009156974
-0.0069634803 -0.008465583 0.018093374 0.02013979 0.011094652 0.028320942 0.016854925 0.006190357
0.020350516 -0.023001064 -0.06282442 -0.04832272 -0.06061471 -0.08471946 -0.06474557 -0.06395421
-0.044789303 -0.03090462 -0.035139743 -0.02527512 -0.047798503 -0.044230223 -0.042121243 -0.036611203
-0.017003695 -0.035783816 -0.037337568 -0.0313115 -0.045775216 -0.042806294 -0.044126127 -0.043443006
-0.04331447 -0.035277624 -0.03551443 -0.036247727 -0.02341965 -0.019481726 -0.037120588 -0.026766462
00000000: 0e7d 72bc 858c 4a3c 3b59 af3b f9e1 cf3b
00000010: f83c 93bc 1a94 1d3c 03e4 493b 5e5e 983c
00000020: d679 5f3c 0ec3 ad3c 029b a43b cc8c c43b
00000030: beed 7bbc fa7a afbb 27b0 e5bc 5206 98bc
00000040: 7f83 4abc a937 193d cf11 9ab9 78fa de3c
00000050: f490 1f3d d31d 993c 4622 0eba 012c 6bbc
00000060: e34c c93c 3ecc 8dbb 0593 153d d3f1 103d
00000070: ff43 633c 746e 053c 25e3 2739 8588 503c
00000080: 5a21 efbb b49c c7bc 04b7 3c3c d8aa 96bc
00000090: f80d bcbc a937 dd3b 84a9 5bbc 1543 90bb
000000a0: bab4 193c 9a6b 41bc 8d2b 183c b50e 733b
000000b0: c067 103c 590b aebb 4167 abbb a92c 42bc
000000c0: 21f0 8dbc 7583 a8bc cb54 15ba 050a 48ba
000000d0: 7101 ba3c 571c 803b c596 f43c a575 3cbb
000000e0: 3326 033d 3465 0b3d 45ca 643b e024 c3bb
000000f0: 64a0 acba f293 a0bc af1f 97bc ca5a 19bd
00000100: 4e27 1bbb 0ab2 413c a2c0 043d 5557 423c
00000110: 2d05 3b3d 8d78 073d fc7f a83c d3eb c03c
00000120: 590f 3fbc 646c b8bc a36a 88bc 9d15 93bb
00000130: 0ae1 41ba 1b59 fa3a 3633 083c 4017 04bc
00000140: 4deb f8bc ee5a 443b 9d1d 123c 5498 91bc
00000150: 23a9 debc 20ab 143c 444b 9a3b 19a5 9f3c
00000160: f63c 9b3c 1553 5c3d def9 013d 459b 2f3d
00000170: 51b3 183d 44de eb3c 2bcd 023c 02db d43c
00000180: e906 ce3c a10f 123d 330c 903c a033 0f3c
00000190: b2f8 213c 27d7 4ab9 75bf 3abc b0a2 a6bc
000001a0: d1b0 053c 1020 453b 8cee 1e3c d3bb 29bb
000001b0: 0b0b 823b 7ab7 3b3c b4df 82bb effc 81ba
000001c0: c487 673c 6c42 8ebb e4ec dcbb 1e23 31bc
000001d0: ede9 5ebc 1e19 9d3b 7af2 f53b 4813 2fbc
000001e0: 7e1b 603c 2d5a 29bc b5bb 96bc 32a2 56bb
000001f0: 7f25 423b 1ac8 5e3c 30ac 763c 094e 173d
00000200: 190f 35bc c218 153c 34a7 aa3c 19c0 223d
00000210: b4bd ba3b f11e 523d 461d 023d 6f9d d13c
00000220: 7d87 e73c 49fc eebb 4c94 823c dab0 b3bc
00000230: bb0e ed3b 02eb 72bc b8d0 223d 50ae e73c
00000240: 6e75 043c 35af da3c 5e19 8c3b d614 4a3b
00000250: bfda 723c 3e3d 753b 0f51 063c 835e 00bc
00000260: 698c d0bc 5621 92bc 50e7 71bc 98e3 253b
00000270: ffbd 8ebc 1a38 3abd fa30 3abd 481d 31bd
00000280: 520c 75bd badb 80bc e66f d1bc 0bae b9bc
00000290: b1d9 76bc ae5a 3dbd ceb2 06bc 1bcf 213c
000002a0: 5e11 11bc 642e 82bc 2507 c5bb 5e90 08bd
000002b0: 0481 0dbd 2623 1ebd 0e16 52bd 3b2d 94bd
000002c0: c2e3 48bd 69c9 1abd baa0 80bc c13d 31bc
000002d0: 6de7 e7bc ec7e eebc 1dec afbc 925c babc
000002e0: 0dd3 ddbc 0482 61bc b626 48bc a537 f5bb
000002f0: 12f8 e93c cb69 b83c fbb4 e7bb eee3 90bc
00000300: fc38 b2bc 6475 1ebd 3f1f 2abd 9bd8 03bd
00000310: ecdf 14bd dffc a93b ea32 f23c a602 193d
00000320: 8465 f73c 1598 e63c 4e96 223c eb00 a73c
00000330: 5482 1c3c e9de 973c 760b 983c 14a1 453c
00000340: f591 003c 8b8c 88bb 27e3 bb3c e84d 993c
00000350: efa5 b23c 280c f13c 344c 3c3c 2207 163c
00000360: e82d e4bb 3bb3 0abc 8e38 943c 33fc a43c
00000370: 58c6 353c 5201 e83c 5713 8a3c 7ad8 ca3b
00000380: 20b6 a63c ba6c bcbc 17aa 80bd 0bee 45bd
00000390: 2147 78bd 6581 adbd 5399 84bd 6dfa 82bd
000003a0: fd74 37bd b02b fdbc b1ee 0fbd c50d cfbc
000003b0: 5dc8 43bd c02a 35bd 5387 2cbd a1f5 15bd
000003c0: 554b 8bbc 0d92 12bd 47ef 18bd 7d40 00bd
000003d0: cb7e 3bbd a755 2fbd 99bd 34bd 4bf1 31bd
000003e0: 846a 31bd 457f 10bd 9477 11bd 7f78 14bd
000003f0: 91da bfbc 2498 9fbc c20b 18bd 5745 dbbc

dense.bias f4 [4]
-0.037344296 -0.0074892635 0.014840152 0.0548763
00000000: 55f6 18bd 7f68 f5bb 1c24 733c f9c5 603d
