EEG-ATCNet/results_pytorch_gpu2/saved models1/run-1/subject-7.pth (torch, 194183 bytes, 9 tensors)

conv1.weight f4 [40, 1, 1, 25]
0.04952204 -0.04846782 -0.037915893 0.035975635 -0.101480044 0.07393067 -0.005121335 0.066218354
0.03472884 -0.006272341 0.036085647 -0.001396645 0.018828917 -0.051394485 -0.024112051 0.0025563543
0.025426487 0.023371221 0.11538334 0.054938387 -0.034112517 -0.058863044 -0.038544424 -0.059248734
-0.061495762 -0.015978895 0.052756757 0.03794104 -0.10109832 0.07370399 0.03571573 0.10196205
0.055367507 -0.11249052 -0.12560348 -0.092770614 0.065824725 -0.038209442 0.045712326 -0.029048137
0.12537801 -0.020747233 0.10137333 0.019998515 -0.047879916 0.042571563 -0.06782761 0.023344772
-0.033732843 -0.011471949 -0.110201575 -0.0496615 0.060185045 -0.026259355 0.09335498 0.0796157
-0.024448631 -0.08205562 0.050651662 0.029171607 -0.056090925 0.07838463 0.07433473 0.1081541
-0.046141062 -0.023974774 -0.03152162 -0.016955413 -0.10301093 -0.094977215 0.0453165 -0.023865974
0.056909673 0.026024038 0.05411469 0.024347857 0.045872916 0.06356528 -0.0772288 0.052929502
-0.08608146 -0.07805796 0.001886696 -0.017224196 0.06301277 -0.054343473 -0.08233616 0.08714567
-0.013987782 0.057076525 0.031277686 -0.07103364 0.028815944 0.023918223 -0.07421604 -0.04767755
0.042773336 0.01996325 -0.049571585 -0.047042318 0.09719432 -0.018154897 0.038097862 0.021104831
-0.087707125 -0.11477001 0.08480394 -0.0102436505 0.061100427 0.012159637 0.03345901 0.08427813
0.10056725 -0.06990446 0.010700021 0.059046276 0.038832586 0.037299667 -0.0954702 -0.082956955
-0.07368643 0.008167305 0.10157578 -0.07188853 0.050066777 -0.050580245 -0.092934355 -0.024970774
0.043037534 0.09039239 -0.06560259 0.019740235 0.101310275 0.084948294 0.08421662 0.08368854
0.071352094 0.018267037 -0.08122677 -0.10458425 -0.06869436 -0.044029243 -0.095490485 0.020497328
0.032203197 -0.024405874 0.04933975 0.042828955 0.07164002 0.07950702 -0.014081814 0.10897969
0.012808837 0.014452671 -0.102030285 -0.08257731 -0.08343358 -0.05021402 0.06071286 -0.034285992
-0.05604528 0.061216418 0.06339231 0.0831018 -0.04975009 0.0037887914 -0.06185542 -0.054782525
-0.11659606 -0.08034983 -0.03142821 0.045082707 0.03917827 0.054732364 0.15189952 0.10545215
0.06785568 0.005609739 -0.07224117 0.08104907 -0.042018726 -0.016526544 -0.096126646 -0.025439609
-0.06817313 0.08536168 -0.090181224 -0.07505809 0.0002495133 -0.045168392 0.03855588 -0.021452513
-0.041454446 0.0045665535 0.0795435 -0.073410146 0.054137673 0.07590774 0.104045294 -0.069182545
0.015150053 -0.089010544 0.06726432 -0.056985497 0.061651703 0.011104504 -0.00096735836 -0.007794299
0.016029403 0.03649621 0.0030847865 0.018710142 -0.11003634 0.07647541 0.09758631 0.09875914
0.07240505 -0.071334794 -0.027514117 0.09562386 -0.098838806 0.07905816 -0.09882856 -0.0788727
0.050188452 -0.09198488 -0.028204568 0.08243648 0.093117 0.089834794 -0.032295946 -0.088771075
0.104224935 -0.018834647 -0.041345343 0.032692287 -0.06835505 0.07072089 0.080621324 -0.07078001
-0.06863052 0.014818461 0.064249 -0.0013960253 -0.062271487 -0.0086586485 -0.09752666 -0.08935768
-0.07152132 0.07054217 0.09654029 -0.03932614 -0.014635992 0.01798202 2.0164063e-05 -0.064090624
00000000: 9fd7 4a3d 3186 46bd b24d 1bbd 305b 133d
00000010: c5d4 cfbd f768 973d dfd0 a7bb 7d9d 873d
00000020: d43f 0e3d 3688 cdbb 8bce 133d a10f b7ba
00000030: 1a3f 9a3c 0683 52bd a386 c5bc 8288 273b
00000040: 354b d03c 0175 bf3c 1a4e ec3d 1307 613d
00000050: 91b9 0bbd 601a 71bd c2e0 1dbd cdae 72bd
00000060: fbe2 7bbd 2ce6 82bc 7817 583d 1068 1b3d
00000070: a30c cfbd 1ef2 963d a84a 123d 7bd1 d03d
00000080: 0ac9 623d 6e61 e6bd 339e 00be 85fe bdbd
00000090: 1dcf 863d 8181 1cbd d93c 3b3d 5cf6 edbc
000000a0: 1863 003e 1af6 a9bc d29c cf3d edd3 a33c
000000b0: bb1d 44bd 855f 2e3d 34e9 8abd 893d bf3c
000000c0: 732b 0abd d7f4 3bbc 5db1 e1bd db69 4bbd
000000d0: 9884 763d dc1d d7bc e530 bf3d 8e0d a33d
000000e0: 7f48 c8bc c70c a8bd 1e78 4f3d 4bf9 ee3c
000000f0: 99bf 65bd 1f88 a03d cf3c 983d e67f dd3d
00000100: 69fe 3cbd bf66 c4bc d01c 01bd 14e6 8abc
00000110: 65f7 d2bd 6a83 c2bd cb9d 393d 9382 c3bc
00000120: 1e1a 693d 5d30 d53c 5da7 5d3d 2875 c73c
00000130: 3de5 3b3d 832e 823d 222a 9ebd 9bcc 583d
00000140: 7a4b b0bd dadc 9fbd 034b f73a c219 8dbc
00000150: d70c 813d 4397 5ebd dc9f a8bd 6e79 b23d
00000160: 032d 65bc 13c9 693d 081d 003d 167a 91bd
00000170: 6a0f ec3c 26f0 c33c 94fe 97bd 8949 43bd
00000180: 1833 2f3d f889 a33c 930b 4bbd 72af 40bd
00000190: d10d c73d 94b9 94bc 810c 1c3d 0ae4 ac3c
000001a0: cb9f b3bd 8a0c ebbd b0ad ad3d fcd4 27bc
000001b0: 7144 7a3d 3739 473c 510c 093d 039a ac3d
000001c0: 34f6 cd3d 122a 8fbd 244f 2f3c 82da 713d
000001d0: eb0e 1f3d 89c7 183d e185 c3bd 56e5 a9bd
000001e0: e9e8 96bd 29d0 053c f606 d03d 4b3a 93bd
000001f0: d212 4d3d 3b2d 4fbd 5e54 bebd 828f ccbc
00000200: 2048 303d a51f b93d a75a 86bd 46b6 a13c
00000210: c37b cf3d 5ff9 ad3d c379 ac3d e664 ab3d
00000220: 0c21 923d c1a4 953c 395a a6bd 4430 d6bd
00000230: a1af 8cbd 0258 34bd 8490 c3bd 03ea a73c
00000240: 80e7 033d d4ee c7bc 7a18 4a3d 6a6d 2f3d
00000250: 01b8 923d 94d4 a23d 69b7 66bc be30 df3d
00000260: 28dc 513c e5ca 6c3c 41f5 d0bd 4b1e a9bd
00000270: 3adf aabd 37ad 4dbd 0cae 783d 786f 0cbd
00000280: bc8f 65bd 11be 7a3d d4d3 813d 4731 aa3d
00000290: c0c6 4bbd 5f4d 783b 1c5c 7dbd a463 60bd
000002a0: eac9 eebd 748e a4bd deba 00bd a5a8 383d
000002b0: 6579 203d 0b2f 603d 8c8b 1b3e 4cf7 d73d
000002c0: ebf7 8a3d e7d1 b73b 2ef3 93bd 0efd a53d
000002d0: d41b 2cbd ad62 87bc 0cde c4bd ba66 d0bc
000002e0: 5b9e 8bbd 1bd2 ae3d efb0 b8bd 0eb8 99bd
000002f0: 1cd1 8239 7e02 39bd c5ec 1d3d 2ebd afbc
00000300: 23cc 29bd 07a3 953b b4e7 a23d 0f58 96bd
00000310: 77bf 5d3d 8475 9b3d b315 d53d 94af 8dbd
00000320: ee37 783c 294b b6bd e0c1 893d a069 69bd
00000330: 7f86 7c3d aaef 353c 5296 7dba 5267 ffbb
00000340: 1850 833c 0d7d 153d 212a 4a3b 0346 993c
00000350: bc5a e1bd 249f 9c3d 55db c73d 3b42 ca3d
00000360: 1949 943d fa17 92bd 4965 e1bc 71d6 c33d
00000370: 006c cabd 3fe9 a13d a166 cabd 0388 a1bd
00000380: 6892 4d3d 9262 bcbd 440d e7bc 75d4 a83d
00000390: 20b4 be3d 4efb b73d c148 04bd 9ccd b5bd
000003a0: e273 d53d 1e4b 9abc bc59 29bd 59e8 053d
000003b0: bcfd 8bbd 1dd6 903d cb1c a53d 1cf5 90bd
000003c0: 288e 8cbd 21c9 723c fb94 833d d6fa b6ba
000003d0: 6310 7fbd 01dd 0dbc 0fbc c7bd 2901 b7bd
000003e0: c579 92bd 6a78 903d eab6 c53d 7214 21bd
000003f0: cdcb 6fbc 074f 933c ff25 a937 f241 83bd

conv1.bias f4 [40]
-0.051832806 -0.15718533 -0.12444344 -0.095974244 -0.018545367 0.07764111 0.10059622 -0.0926149
-0.040793505 -0.15528539 0.14708234 0.18707429 0.1936233 0.08578281 -0.042967558 -0.0005796256
0.07873489 -0.1840214 0.014631971 -0.17139694 -0.1956762 -7.492739e-05 -0.05546533 -0.12381449
0.024926351 0.020637408 0.02752544 -0.10913068 -0.19603206 0.001075238 -0.07624079 -0.056003653
0.15691428 0.034614976 0.092226095 -0.06805741 -0.16837822 0.0430429 -0.12733407 0.031030383
00000000: a34e 54bd 31f5 20be 34dc febd 258e c4bd
00000010: 74ec 97bc 4d02 9f3d 6405 ce3d e1ac bdbd
00000020: 1717 27bd 2203 1fbe c19c 163e 6790 3f3e
00000030: 3045 463e e6ae af3d c0fe 2fbd 04f2 17ba
00000040: c23f a13d 1b70 3cbe efba 6f3c ae82 2fbe
00000050: 575f 48be 5622 9db8 9d2f 63bd 7492 fdbd
00000060: 5932 cc3c c80f a93c 087d e13c e87f dfbd
00000070: a1bc 48be 00ef 8c3a 2224 9cbd 1664 65bd
00000080: 23ae 203e 6fc8 0d3d 09e1 bc3d af61 8bbd
00000090: 576b 2cbe c04d 303d dd63 02be 6e33 fe3c

conv2.weight f4 [40, 40, 22, 1]
-0.02284222 0.024921756 0.014364509 0.009122231 0.014394138 0.0016672368 -0.02210696 0.058940437
0.032354936 0.0017602235 0.008258261 0.00030448198 0.0106298495 0.0046748095 5.727405e-05 -0.0043145167
-0.0010835889 -0.0070716743 -0.021804472 -0.012479824 -0.0039467914 -0.0018214228 -0.016115902 0.013625599
-0.013165663 -0.020818405 -0.010504849 -0.0144855445 -0.010489108 0.05128205 0.021886313 0.0001320492
-0.015978977 -0.008710192 0.0042781485 -0.0065495367 -0.0069608926 0.0023551146 -0.0028659026 0.009569443
-0.000560396 -0.009578644 0.009825393 0.01800342 0.003031101 -0.03260875 -0.024613908 -0.004323938
-0.008288183 -0.0014272804 0.020703288 -0.03577948 -0.022058949 -0.004457843 0.0038321046 0.0052440846
-0.007654317 0.008488102 0.016678592 0.014035573 0.013610735 0.012333848 0.012332661 0.011024305
0.00037955822 -0.0035334346 0.015186347 0.0035381508 -0.0038721652 0.0048038065 -0.0026891413 0.003213899
0.002998577 -0.016212994 -0.007162221 0.0072262096 -0.01283781 -0.023937097 -0.0032615555 -0.0015752878
0.003379519 0.005788319 -0.004859781 -0.010033406 0.0014541416 0.0019874002 -0.0033490027 0.0033225426
-0.0032370966 -0.004704989 0.00067997765 0.011689041 -0.00011175788 0.0071670306 0.009280004 -0.012281711
0.001566502 0.0069281976 -0.0046050856 -0.0031215725 -0.0057560806 0.010885005 0.01295133 0.005277564
-0.0005768245 -0.011019336 0.003457314 -0.0031122644 -0.00458464 -0.010115616 -0.0092357285 -0.013792215
0.0072932215 0.00856779 0.003823697 0.000116482195 0.0057621673 -0.025124772 -0.012685061 0.0009473539
0.010983496 0.024388496 -0.0022666832 -0.004048684 0.0024226508 0.008625946 0.009454154 0.008308809
-0.002185656 -0.001930487 -0.0031709978 -0.016163351 0.025463412 -0.018375374 -0.015507769 0.00261567
0.0023725403 0.014592245 0.028686449 -0.060515795 -0.03408327 0.0077055064 -0.0051828846 -0.008638628
-0.0046913065 0.00544391 0.007582867 0.009040828 -0.00039539617 -0.008836121 0.02116341 0.01922329
-0.0010996149 -0.0077231214 0.019395977 0.009228547 0.0050441185 0.0013330918 -0.0029062077 0.011022117
0.013447717 -0.010553829 -0.008595406 0.0037166497 -0.0016116452 -0.0084386235 -0.0074210283 -0.0059777345
-0.012862005 -0.009704483 0.0022848842 -0.00041303565 -0.0049108057 0.0037579937 0.0049927095 0.010798439
-0.009697472 -0.0024936884 -0.003233478 -0.012626109 -0.002733127 -0.010550197 -0.005427434 0.02899303
0.014557113 -0.0034154486 -0.0063494593 -0.005688984 0.0076788054 0.005165229 0.011174606 0.009432183
0.0047689998 -0.002626002 0.006643701 -0.006474657 -0.00014911352 0.00012377786 -0.010746367 -0.012632809
-0.009118186 -0.013861488 0.0009671344 -0.027659925 0.0059557795 0.010550358 0.013102487 -0.0068861106
-0.0050805947 -0.008411555 -0.001618625 0.0033704722 0.012186118 -0.0042850645 0.008682688 0.0157018
0.00037608205 -0.002231069 0.007750217 -0.006262737 0.006615474 -0.006873037 0.0002568453 0.0064611374
0.010020067 0.005623434 0.010077512 -0.012748532 -0.011949129 0.0072185406 0.00039900115 0.0021391916
-0.0010700874 0.005539843 -0.0006962822 0.0010775077 -0.0021422268 -0.011139758 0.010607607 -0.0027707967
-0.0027466791 0.00025265836 -0.018069245 0.011625594 0.007984913 -0.013150647 -0.001531767 -0.0052454346
-0.026977608 0.046955094 0.03037621 -0.007528815 0.009429757 0.011243286 0.014965383 0.008561341
00000000: 9b1f bbbc b628 cc3c 1e59 6b3c 6975 153c
00000010: 64d5 6b3c 2f87 da3a a819 b5bc 876b 713d
00000020: 9c86 043d 4db7 e63a a84d 073c e1a2 9f39
00000030: d228 2e3c 252f 993b 8b39 7038 ca60 8dbb
00000040: 3607 8eba 81b9 e7bb 4b9f b2bc 2d78 4cbc
00000050: 1654 81bb cfbc eeba 7f05 84bc e83d 5f3c
00000060: cbb4 57bc 5c8b aabc 881c 2cbc c754 6dbc
00000070: 82da 2bbc 200d 523d ed4a b33c b076 0a39
00000080: 58e6 82bc 31b5 0ebc b62f 8c3b 7f9d d6bb
00000090: 3318 e4bb 4458 1a3b ded1 3bbb 27c9 1c3c
000000a0: 8ae7 12ba bfef 1cbc affa 203c e97b 933c
000000b0: 70a5 463b c190 05bd 1ba3 c9bc d2af 8dbb
000000c0: 29cb 07bc 9513 bbba f199 a93c 818d 12bd
000000d0: f8b4 b4bc 1913 92bb 0c24 7b3b 92d6 ab3b
000000e0: 11d1 fabb ae11 0b3c 8ba1 883c 76f5 653c
000000f0: 8fff 5e3c e813 4a3c ee0e 4a3c 499f 343c
00000100: 71ff c639 3291 67bb 28d0 783c 52e0 673b
00000110: 27c4 7dbb 4069 9d3b 4e3c 30bb 47a0 523b
00000120: c683 443b 1dd1 84bc 10b1 eabb d7c9 ec3b
00000130: ae55 52bc bb17 c4bc d2bf 55bb e379 ceba
00000140: ec7a 5d3b f0ab bd3b cc3e 9fbb 2863 24bc
00000150: e598 be3a 0b3f 023b f17a 5bbb 04bf 593b
00000160: 7825 54bb 4f2c 9abb 8740 323a 6483 3f3c
00000170: 8e5f eab8 69d9 ea3b 280b 183c 3b39 49bc
00000180: 1653 cd3a ef05 e33b 42e6 96bb 4c93 4cbb
00000190: 819d bcbb 0557 323c d131 543c 6aef ac3b
000001a0: 0936 17ba 728a 34bc 1b94 623b 22f7 4bbb
000001b0: bf3a 96bb f8bb 25bc 7451 17bc bef8 61bc
000001c0: fafb ee3b ea5f 0c3c fe96 7a3b e747 f438
000001d0: 90d0 bc3b 77d2 cdbc 01d5 4fbc d857 783a
000001e0: 1ff4 333c 62ca c73c a28c 14bb d3aa 84bb
000001f0: 56c5 1e3b d753 0d3c 99e5 1a3c ac21 083c
00000200: 393d 0fbb 6508 fdba 84d0 4fbb 0169 84bc
00000210: a598 d03c f487 96bc 4c14 7ebc a96b 2b3b
00000220: 9f7c 1b3b 5014 6f3c d8ff ea3c 69df 77bd
00000230: e69a 0bbd 797e fc3b 30d5 a9bb 0889 0dbc
00000240: 88b9 99bb d462 b23b b379 f83b fb1f 143c
00000250: 2d4d cfb9 61c5 10bc e35e ad3c 297a 9d3c
00000260: f420 90ba 3d12 fdbb 50e4 9e3c 5533 173c
00000270: 2249 a53b 23bb ae3a 1376 3ebb 1c96 343c
00000280: d053 5c3c f8e9 2cbc bfd3 0cbc 0993 733b
00000290: d73d d3ba 2742 0abc 192c f3bb dfe0 c3bb
000002a0: 29bb 52bc 8dff 1ebc ffbd 153b b58c d8b9
000002b0: d3ea a0bb ac48 763b e299 a33b f0eb 303c
000002c0: 25e2 1ebc 266d 23bb c2e8 53bb bddd 4ebc
000002d0: 431e 33bb bcda 2cbc 9ed8 b1bb ca82 ed3c
000002e0: f580 6e3c b8d5 5fbb 200f d0bb a86a babb
000002f0: 7d9e fb3b 1541 a93b b215 373c 7189 1a3c
00000300: 4545 9c3b 0119 2cbb 67b3 d93b 5c29 d4bb
00000310: 5b5b 1cb9 5eca 0139 8811 30bc d7f9 4ebc
00000320: 7264 15bc 4b1b 63bc 4a87 7d3a 1197 e2bc
00000330: b328 c33b 69db 2c3c d0ab 563c e2a4 e1bb
00000340: 1e7b a6bb 9ed0 09bc 0b28 d4ba 24e3 5c3b
00000350: 49a8 473c ba69 8cbb d541 0e3c 10a1 803c
00000360: e12c c539 2037 12bb 88f5 fd3b a537 cdbb
00000370: 9ec6 d83b 3737 e1bb 31a9 8639 f3b7 d33b
00000380: 352b 243c c944 b83b 261c 253c 38df 50bc
00000390: 48c6 43bc 8289 ec3b 0731 d139 ae31 0c3b
000003a0: 2d42 8cba 9287 b53b b586 36ba 293b 8d3a
000003b0: 9a64 0cbb 8883 36bc 87cb 2d3c 4196 35bb
000003c0: a101 34bb 3b77 8439 f405 94bc 4779 3e3c
000003d0: 27d3 023c d075 57bc 92c5 c8ba e5e1 abbb
000003e0: 2500 ddbc fc53 403d 88d7 f83c 47b4 f6bb
000003f0: 447f 1a3c c235 383c 5e31 753c de44 0c3c

batchnorm.weight f4 [40]
1.0385857 1.026064 1.0185678 1.042477 1.0480684 1.0148495 1.0089512 1.0425258
1.039118 1.027917 1.0341718 1.022426 1.0186243 1.0412629 1.0194467 1.0447692
1.052328 1.0447706 1.0351205 1.0039145 1.0481175 1.0146049 1.0282985 1.0391268
1.0412773 1.047134 1.0434027 1.0137966 1.0497661 1.0366932 1.004564 1.0116637
1.0229626 1.0156735 1.0013268 1.0291961 1.0420563 1.030496 1.0112916 1.0157162
00000000: 60f0 843f 1156 833f 6e60 823f e36f 853f
00000010: 1b27 863f 97e6 813f 5025 813f 7c71 853f
00000020: d201 853f c992 833f be5f 843f dbde 823f
00000030: 4862 823f 1a48 853f 3b7d 823f ffba 853f
00000040: afb2 863f 0bbb 853f d47e 843f 4580 803f
00000050: b728 863f 93de 813f 499f 833f 1b02 853f
00000060: 9348 853f 7d08 863f 388e 853f 16c4 813f
00000070: bc5e 863f 5db2 843f 8e95 803f 327e 813f
00000080: 70f0 823f 9701 823f 7a2b 803f b3bc 833f
00000090: 1a62 853f 4be7 833f 0172 813f fd02 823f

batchnorm.bias f4 [40]
-0.0015788607 0.07966932 -0.10630782 -0.0130985025 0.1575035 0.016355395 0.21664649 0.20983545
0.05866829 -0.0714606 -0.061648082 0.06786844 0.082706735 -0.037810773 -0.11237975 -0.091896415
-0.14079358 0.033254735 -0.030110348 -0.0972684 -0.116003096 0.1058834 -0.049569163 -0.02620961
-0.01294204 0.038692895 0.16104464 -0.0060724337 0.092639096 0.13414839 -0.025374291 -0.04587222
0.06947267 -0.04834247 0.17717528 0.13226455 0.08470659 0.12592472 -0.12856437 0.0043695625
00000000: c6f1 ceba ab29 a33d eab7 d9bd 1a9b 56bc
00000010: 9948 213e c0fb 853c 94d8 5d3e 1bdf 563e
00000020: 294e 703d ef59 92bd b382 7cbd 9cfe 8a3d
00000030: 2662 a93d 78df 1abd 5b27 e6bd 3034 bcbd
00000040: 312c 10be 1e36 083d faa9 f6bc a834 c7bd
00000050: 0893 edbd 65d9 d83d 0909 4bbd 89b5 d6bc
00000060: da0a 54bc 717c 1e3d e3e8 243e 44fb c6bb
00000070: 91b9 bd3d 325e 093e bfdd cfbc 82e4 3bbd
00000080: b047 8e3d c102 46bd 706d 353e 5c70 073e
00000090: a67a ad3d 69f2 003e 61a6 03be 8c2e 8f3b

batchnorm.running_mean f4 [40]
0.021061491 -0.0068841726 -0.018890196 -0.005452998 0.025530271 0.04572982 0.036279462 -0.022165578
-0.0013074323 -0.021601789 -0.029913032 -0.005157392 -0.026550002 0.02057328 0.019827956 -0.014851238
0.031457607 0.010461312 0.042257596 -0.021994019 -0.007866609 0.07543547 -0.016323766 0.07234372
0.011060709 -0.030079428 0.010359369 -0.018314207 -0.014698568 -0.055454984 -0.04774428 0.015108361
-0.0416381 0.052474704 0.0049604643 -0.0006876416 -0.0019631314 -0.01742077 -0.02312184 0.045518234
00000000: 2689 ac3c a094 e1bb 9dbf 9abc 10af b2bb
00000010: dc24 d13c 314f 3b3d c699 143d 9694 b5bc
00000020: 265e abba 3cf6 b0bc 2d0c f5bc 57ff a8bb
00000030: 647f d9bc 4c89 a83c 3d6e a23c 9b52 73bc
00000040: b1d9 003d ec65 2b3c 4d16 2d3d cd2c b4bc
00000050: f3e2 00bc e97d 9a3d 6bb9 85bc f228 943d
00000060: fa37 353c 2269 f6bc 58ba 293c ad07 96bc
00000070: 43d2 70bc c424 63bd 828f 43bd 0f89 773c
00000080: b68c 2abd b7ef 563d 648b a23b d942 34ba
00000090: e1a7 00bb 01b6 8ebc 036a bdbc 5471 3a3d

batchnorm.running_var f4 [40]
0.023626288 0.035912048 0.05150852 0.033694707 0.07341256 0.10199758 0.06901192 0.033800606
0.06267082 0.07012642 0.055053852 0.083076715 0.047478553 0.059635382 0.049089715 0.11492582
0.053106863 0.06997035 0.055551615 0.046180658 0.08536934 0.1700984 0.073047906 0.1300107
0.03529269 0.038327448 0.053950004 0.06391992 0.020104052 0.081155024 0.08407997 0.10168679
0.073756024 0.11850833 0.078134395 0.042835023 0.058326975 0.053778455 0.052251562 0.10159955
00000000: eb8b c13c 8318 133d 99fa 523d 7603 0a3d
00000010: 5359 963d 1be4 d03d 1f56 8d3d 8172 0a3d
00000020: 8f59 803d 719e 8f3d 2680 613d 2024 aa3d
00000030: df78 423d 3b44 743d 4c12 493d 3a5e eb3d
00000040: 9586 593d 9d4c 8f3d 178a 633d ee27 3d3d
00000050: 1fd6 ae3d 462e 2e3e 249a 953d 8621 053e
00000060: 118f 103d 3efd 1c3d aefa 5c3d 72e8 823d
00000070: 41b1 a43c 9b34 a63d 1f32 ac3d 2a41 d03d
00000080: 660d 973d 7fb4 f23d ed04 a03d c773 2f3d
00000090: 44e8 6e3d cc46 5c3d bc05 563d 6d13 d03d

dense.weight f4 [4, 2840]
0.015102966 0.034613106 0.0020270396 -0.0063057696 -0.008293183 -0.025622431 -0.014653712 0.0022290621
0.016109645 0.014308065 0.028222091 0.055725053 0.037685387 0.051638514 0.019413965 -0.0028456005
-0.02090564 -0.031571783 -0.05221549 -0.031888723 -0.023485964 -0.02526393 -0.03591454 -0.025454333
0.013719547 -0.005389356 -0.010479111 -0.031491958 -0.042794835 -0.032677572 -0.023354426 0.017474746
-0.0059748357 -0.025553089 0.014688623 -0.017571969 -0.044494383 -0.020108374 -0.041244064 -0.024228377
-0.001916307 -0.0045308704 0.03320025 0.04605046 0.033059638 0.021973308 0.003991729 -0.02217491
-0.03608085 -0.049126733 -0.027808318 -0.030912666 -0.017743438 -0.035251733 -0.021371849 -0.037237976
7.785845e-05 0.008468191 0.0080374265 0.028305225 0.00056527776 -0.01314096 -0.03424895 -0.029517412
-0.017649433 -0.019577667 -0.04025447 -0.031536978 -0.016961116 -0.006770972 -0.025668826 0.015386348
-0.007085189 -0.015432982 -0.009526742 -0.025487527 0.015071262 -0.0022920188 -0.0148326615 -0.033583477
-0.020857213 0.014008581 0.03311079 0.017964039 -0.017470645 0.029247012 -0.008712844 -0.016788231
-0.02595817 -0.017562348 -0.01568104 -0.0016786072 0.012893844 0.018629419 0.003033305 0.035778668
0.0136010405 -0.016281342 -0.03614355 -0.022818012 -0.035630547 0.0062672715 -0.0047871764 -0.011404031
-0.017905103 0.018424952 0.031662103 0.031409346 0.016373102 0.0031476016 0.026627544 0.019301133
0.012814753 -0.009691935 0.017700028 -0.018829431 0.00022797339 0.0014814761 0.015740013 -0.0053120083
0.022914529 0.0068926113 -0.02051795 -0.022795986 -0.040946674 -0.015788399 -0.03341374 0.0137216365
-0.013060148 0.00878377 -0.00040989154 0.029044557 -0.0026787852 0.0110441055 -0.0027518757 0.003983932
0.007382502 -0.0010302474 0.034799665 0.023642398 0.0308399 0.01847401 -0.015686976 -0.020715013
-0.020877264 -0.0114094205 0.004158787 0.016576426 0.027852919 -0.018210335 -0.008285309 0.016122723
0.022621397 0.029586907 0.051533576 0.052233122 0.02589554 -0.009858323 -0.014245757 -0.020472735
-0.028157786 -0.0065123593 -0.011638652 -0.012568206 -0.0016515345 -0.016433103 0.02267234 0.026762597
0.004485749 0.005623294 0.010838892 -0.010766262 -0.0005760029 -0.006694043 -0.018628038 -0.03584164
-0.004279188 -0.019352466 -0.0072034593 -0.012357245 -0.020250687 -0.026527619 -0.007726777 0.00021712741
-0.012665616 -0.010684986 -0.025547536 -0.009080225 0.0038992874 0.016651569 0.0065030367 0.019833552
-0.0031129108 0.0043893275 0.008867386 0.006989577 -0.008798357 0.020786393 0.03377519 0.00917568
0.007403012 0.019920418 0.037125286 0.02378392 0.024957534 0.03312487 0.012974284 -0.011189823
-0.023377828 -0.02569804 -0.00035823716 -0.0010466584 0.0008396879 -0.0028209735 -0.010802995 -0.015165574
-0.020592013 -0.021005586 -0.009557444 -0.0006638972 -0.0096560875 0.04457824 0.029850412 0.05933525
0.03374577 0.022252511 -0.016462093 -0.0028428233 -0.0032827724 -0.01501331 -0.0030260105 -0.015667165
-0.01835933 -0.02529987 -0.02493639 -0.016355934 -0.01767025 -0.023687212 -0.019088902 -0.014848389
0.000321012 -0.0051022694 -0.013938899 -0.0020288508 -0.030489184 0.021470502 -0.03432955 -0.0037821287
-0.016999431 0.015209353 -0.015026135 -0.01096318 -0.004213325 0.033261865 -0.014057476 -0.01939807
00000000: 6e72 773c 79c6 0d3d 15d8 043b a1a0 cebb
00000010: 21e0 07bc 22e6 d1bc 1f16 70bc 7515 123b
00000020: 60f8 833c 606c 6a3c 0432 e73c f43f 643d
00000030: fe5b 1a3d e882 533d 090a 9f3c 417d 3abb
00000040: 4e42 abbc 6a51 01bd e9df 55bd c09d 02bd
00000050: a365 c0bc 4df6 cebc 201b 13bd 9b85 d0bc
00000060: f3c7 603c 3299 b0bb 94b0 2bbc b6fd 00bd
00000070: a349 2fbd ebd8 05bd c851 bfbc 3327 8f3c
00000080: 8ec8 c3bb b654 d1bc 8da8 703c 17f3 8fbc
00000090: be3f 36bd 51ba a4bc 89ef 28bd 977a c6bc
000000a0: 982c fbba b277 94bb fcfc 073d 689f 3c3d
000000b0: 8b69 073d 5e01 b43c 0dcd 823b 28a8 b5bc
000000c0: 83c9 13bd 1d39 49bd 45ce e3bc 8f3c fdbc
000000d0: b05a 91bc 1f64 10bd 0414 afbc d986 18bd
000000e0: f047 a338 2bbe 0a3c 69af 033c 5ce0 e73c
000000f0: 262f 143a 2e4d 57bc a148 0cbd 80ce f1bc
00000100: 8b95 90bc 5861 a0bc dfe1 24bd eb2c 01bd
00000110: 0af2 8abc 08df ddbb 6e47 d2bc 0517 7c3c
00000120: e02a e8bb 9eda 7cbc 0d16 1cbc 38cb d0bc
00000130: 74ed 763c b235 16bb b104 73bc d48e 09bd
00000140: bfdc aabc 3f84 653c 2e9f 073d 5229 933c
00000150: 991e 8fbc 6e97 ef3c 51c0 0ebc 7987 89bc
00000160: 3aa6 d4bc eade 8fbc 8675 80bc b604 dcba
00000170: b440 533c b99c 983c 6aca 463b a78c 123d
00000180: e6d6 5e3c 7360 85bc 420b 14bd d7ec babc
00000190: 56f1 11bd af5d cd3b bfdd 9cbb f9d7 3abc
000001a0: b9ad 92bc edef 963c 1fb0 013d 16a7 003d
000001b0: e220 863c fe47 4e3b 0222 da3c 691d 9e3c
000001c0: f8f4 513c ecca 1ebc a6ff 903c 2e40 9abc
000001d0: 240c 6f39 172e c23a 33f1 803c 5b10 aebb
000001e0: 40b7 bb3c 6adb e13b 4315 a8bc a6be babc
000001f0: b3b7 27bd ac56 81bc d9dc 08bd b7d0 603c
00000200: 3bfa 55bc cde9 0f3c b6e6 d6b9 daee ed3c
00000210: 8f8e 2fbb 56f2 343c d058 34bb a58b 823b
00000220: eae8 f13b 5e09 87ba 188a 0e3d b4ad c13c
00000230: f5a3 fc3c cf56 973c f981 80bc 88b2 a9bc
00000240: cc06 abbc 94ee 3abc 6f46 883b 49cb 873c
00000250: ce2b e43c d72d 95bc 1bbf 07bc cd13 843c
00000260: 8250 b93c 3e60 f23c df14 533d 66f2 553d
00000270: e222 d43c ce84 21bc 0967 69bc 70b6 a7bc
00000280: 28ab e6bc a165 d5bb 0bb0 3ebc e0ea 4dbc
00000290: 4d78 d8ba b79e 86bc 58bb b93c 3c3d db3c
000002a0: 31fd 923b 9c43 b83b 9c95 313c fa64 30bc
000002b0: e6fe 16ba b459 dbbb d499 98bc afce 12bd
000002c0: 6e38 8cbb 1089 9ebc ff0a ecbb 0b76 4abc
000002d0: c5e4 a5bc 7350 d9bc e730 fdbb b2ac 6339
000002e0: 7283 4fbc 1410 2fbc 1149 d1bc 39c5 14bc
000002f0: 308b 7f3b df68 883c 6d17 d53b f979 a23c
00000300: fa01 4cbb 59d4 8f3b 8348 113c d208 e53b
00000310: fc26 10bc 3a48 aa3c db57 0a3d 9755 163c
00000320: f794 f23b 2530 a33c af10 183d 7fd6 c23c
00000330: be73 cc3c f2ad 073d 1792 543c 8555 37bc
00000340: dc82 bfbc b284 d2bc c7d1 bbb9 0730 89ba
00000350: 801e 5c3a 15e0 38bb 0cff 30bc 0779 78bc
00000360: 95b0 a8bc e813 acbc d396 1cbc 6309 2eba
00000370: 9134 1ebc ac97 363d da88 f43c 8509 733d
00000380: 0139 0a3d e64a b63c 83db 86bc a94e 3abb
00000390: c823 57bb 63fa 75bc 0850 46bb 6d58 80bc
000003a0: 4e66 96bc ac41 cfbc 6647 ccbc e1fc 85bc
000003b0: 33c1 90bc af0b c2bc 5460 9cbc a846 73bc
000003c0: 804d a839 f030 a7bb fb5f 64bc 78f6 04bb
000003d0: 74c4 f9bc e8e2 af3c 249d 0cbd 97dd 77bb
000003e0: 6442 8bbc a630 793c 2e30 76bc e99e 33bc
000003f0: ef0f 8abb 983d 083d 5451 66bc b4e8 9ebc

dense.bias f4 [4]
-0.016103452 0.010398927 0.015304267 0.007918854
00000000: 63eb 83bc 4360 2a3c c0be 7a3c 15be 013c
