EEG-ATCNet/results_pytorch_gpu2/saved models1/run-1/subject-3.pth (torch, 194183 bytes, 9 tensors)

conv1.weight f4 [40, 1, 1, 25]
0	0x3d4061c0	0.04696822
1	0xbd302c6e	-0.04301112
2	0xbd27d7f8	-0.04097745
3	0x3ca0f64e	0.019648697
4	0xbdd86bd3	-0.10567441
5	0x3d77d412	0.06050498
6	0xbcb3db06	-0.021955024
7	0x3d22d641	0.03975511
8	0x3d141dd5	0.036161263
9	0x3b8111b0	0.003938876
10	0x3d65bc8e	0.056088023
11	0x3d215fa1	0.03939784
12	0x3d913fd2	0.07092251
13	0xbc34fd3a	-0.011046702
14	0x3c383dbe	0.011245189
15	0x3d06a3aa	0.032870926
16	0x3cb280dc	0.02178996
17	0x3bb2e04f	0.0054588686
18	0x3dccec5f	0.10006022
19	0x3c932884	0.017963655
20	0xbd3ebb76	-0.046565495
21	0xbd8e3076	-0.06942837
22	0xbd322237	-0.04348966
23	0xbd4a74f4	-0.04942794
24	0xbd623a24	-0.05523123
25	0x3b5262c1	0.003210232
26	0x3d63a34b	0.05557565
27	0x3d40c604	0.047063842
28	0xbdd25557	-0.102701835
29	0x3d4011a4	0.046891823
30	0x3c688ca5	0.0141936885
31	0x3db29146	0.08719115
32	0x3d80029d	0.062504984
33	0xbdb8dd0d	-0.09026537
34	0xbdc626ee	-0.09675394
35	0xbd5b8556	-0.053593956
36	0x3dbf6f97	0.09347456
37	0xbd1074cc	-0.035267636
38	0x3cc01949	0.023449557
39	0xbd73263b	-0.05936263
40	0x3da75512	0.08170523
41	0xbd159114	-0.03651531
42	0x3da60773	0.081068896
43	0x3b181e8d	0.002321157
44	0xbd6049b7	-0.0547578
45	0x3d400f6e	0.046889715
46	0xbd27c49e	-0.040958993
47	0x3cf42553	0.029802954
48	0xbcb74c89	-0.022375362
49	0xbb2ec1a4	-0.0026665712
50	0xbdec7198	-0.11545104
51	0xbd74d7ec	-0.05977623
52	0x3d35df08	0.044402152
53	0xbd183618	-0.037160963
54	0x3da61287	0.081090026
55	0x3d86c4ac	0.06580481
56	0xbc849009	-0.016181963
57	0xbd897bbe	-0.06713055
58	0x3d8bd0c3	0.068269275
59	0x3d2a8ed0	0.041640103
60	0xbd744484	-0.059635654
61	0x3d48ae26	0.048994206
62	0x3d4ab52a	0.049489178
63	0x3dac83a0	0.08423543
64	0xbd8822fd	-0.066472985
65	0xbcbb9c51	-0.022901686
66	0xbcdff2a1	-0.027337374
67	0x3c98c512	0.018648658
68	0xbda0d1f8	-0.07852548
69	0xbd8f1a5f	-0.06987452
70	0x3d552662	0.052038558
71	0xbcb92f57	-0.022605581
72	0x3d3048f2	0.043038316
73	0x3c0a6cd9	0.008448803
74	0x3cd6a30d	0.026200796
75	0x3d08de3c	0.033415064
76	0x3cd1f756	0.025630634
77	0x3d522b77	0.051310983
78	0xbda2c0a1	-0.07946897
79	0x3d8359f1	0.06413639
80	0xbda1fe6a	-0.07909854
81	0xbda52c67	-0.0806511
82	0x3bde0ffc	0.006776808
83	0xbd38ae5d	-0.04508816
84	0x3d359303	0.044329654
85	0xbd8babab	-0.068198524
86	0xbdbbfe05	-0.0917931
87	0x3daa8545	0.083262004
88	0xbc9e1a98	-0.01929979
89	0x3d7b821f	0.06140339
90	0x3cdb472e	0.02676734
91	0xbd55ec81	-0.0522275
92	0x3ce40e29	0.027838783
93	0x3d098019	0.03356943
94	0xbd86e8c9	-0.06587369
95	0xbd1fd58d	-0.039022017
96	0x3d213e55	0.039366085
97	0x3d102fef	0.035201963
98	0xbd0cbbcb	-0.03435878
99	0xbc69364b	-0.014234136
100	0x3dbbbd2d	0.09166942
101	0xbb2f5a77	-0.0026756802
102	0x3d43108e	0.04762321
103	0x3cd0d4a8	0.025492027
104	0xbd9160b0	-0.0709852
105	0xbdadf8bd	-0.08494709
106	0x3de8c031	0.113647826
107	0x3c861ca5	0.01637108
108	0x3dbfc903	0.09364512
109	0x3d236227	0.039888527
110	0x3d8a1677	0.06742566
111	0x3ddc8516	0.10767572
112	0x3e012fdf	0.12615918
113	0xbd2482b4	-0.04016371
114	0x3d2cecd7	0.042218056
115	0x3db0df45	0.08636335
116	0x3d8226c4	0.0635505
117	0x3d6bf031	0.05760211
118	0xbda155db	-0.07877704
119	0xbdb0be44	-0.0863004
120	0xbda2a223	-0.079410814
121	0x3b2d6306	0.0026456728
122	0x3da6df6c	0.08148083
123	0xbda29b12	-0.079397336
124	0x3d196b52	0.037455864
125	0xbda8874e	-0.08228932
126	0xbdcb818a	-0.09936817
127	0xbcaf6f8c	-0.021415494
128	0x3d403f21	0.046935204
129	0x3db7b7dd	0.08970616
130	0xbd7b0355	-0.061282475
131	0x3cc7daa6	0.024396252
132	0x3dabc583	0.08387282
133	0x3d92c7e2	0.07167031
134	0x3d7e3d9a	0.062070467
135	0x3d7217ab	0.059104603
136	0x3d160139	0.03662226
137	0x3b63ca5f	0.0034758074
138	0xbd9f1780	-0.07768154
139	0xbdbb6397	-0.09149855
140	0xbd5cb49b	-0.053883176
141	0xbce34341	-0.02774203
142	0xbd88b605	-0.066753425
143	0x3d23d4f3	0.039998006
144	0x3d27af83	0.040938865
145	0xbcaa14fc	-0.02076196
146	0x3d477da2	0.048703797
147	0x3d4b3b8d	0.04961734
148	0x3da7858b	0.08179768
149	0x3dba8c39	0.091087766
150	0xbc7ade55	-0.015311797
151	0x3dab4ef2	0.08364667
152	0xbc9a674c	-0.018848084
153	0xb9c68213	-0.00037862416
154	0xbdc10e95	-0.094266094
155	0xbd9b24ec	-0.07575402
156	0xbd762228	-0.060091168
157	0xbd1bc53c	-0.038029894
158	0x3d4ef945	0.05053069
159	0xbd4f768b	-0.05065016
160	0xbd81911b	-0.06326505
161	0x3d240a56	0.04004892
162	0x3d39d89e	0.045372598
163	0x3d82adb3	0.06380787
164	0xbd5ab192	-0.053392
165	0x3c52ac75	0.0128585
166	0xbce94af1	-0.028478118
167	0xbc4249c3	-0.0118584065
168	0xbd731682	-0.059347637
169	0xbd2794d6	-0.040913425
170	0xbc5da1fb	-0.013527389
171	0x3d007b5a	0.031367637
172	0x3c1263fb	0.00893497
173	0x3c6981f0	0.014252171
174	0x3df6d585	0.12052444
175	0x3de68b4e	0.11257039
176	0x3da4d985	0.08049301
177	0x3c919088	0.017769113
178	0xbd3805fb	-0.04492758
179	0x3dc842bb	0.09778353
180	0xbc8201ed	-0.015870059
181	0xbb1aad86	-0.0023601963
182	0xbdb4792c	-0.08812174
183	0xbd0ca55a	-0.03433738
184	0xbdbaa100	-0.091127396
185	0x3d81ae73	0.06332102
186	0xbde7f694	-0.11326328
187	0xbdd45c65	-0.10369185
188	0xbd114041	-0.035461668
189	0xbda0aa65	-0.07845
190	0x3c1098c8	0.008825488
191	0xbd3b2b3e	-0.045695536
192	0xbd67781b	-0.056511026
193	0x3c186937	0.009302429
194	0x3dc68894	0.09694019
195	0xbd471b04	-0.04860975
196	0x3d9469d8	0.072467506
197	0x3dbce840	0.09223986
198	0x3df43bb9	0.11925454
199	0xbd26acf5	-0.04069229
200	0x3cd1c172	0.025604937
201	0xbd88fcda	-0.066888526
202	0x3da5ac2e	0.08089481
203	0xbd50ad36	-0.050946437
204	0x3d70bab7	0.058771815
205	0xb9d3825b	-0.0004034218
206	0xbc95e590	-0.01829794
207	0xbbd46d93	-0.006482789
208	0x3cc4b0d5	0.024010101
209	0x3d653d8c	0.0559669
210	0x3d0013fd	0.031269062
211	0x3d2aa6c3	0.041662943
212	0xbdae65b5	-0.08515493
213	0x3dabc133	0.08386459
214	0x3dc437eb	0.09580978
215	0x3dca9174	0.09891024
216	0x3d7ed910	0.062218726
217	0xbda1ab49	-0.07893998
218	0xbd2abbe5	-0.041683096
219	0x3da429af	0.08015763
220	0xbdb37bff	-0.08763885
221	0x3dba7fcf	0.09106409
222	0xbdda7b80	-0.10668087
223	0xbd9fc58e	-0.078013524
224	0x3c901f02	0.01759291
225	0xbd9daa11	-0.07698453
226	0xbc8a61dc	-0.016892366
227	0x3daf18d8	0.085496604
228	0x3dc913f5	0.098182596
229	0x3dd50926	0.104021356
230	0xbc944256	-0.018098038
231	0xbd9de14a	-0.07708986
232	0x3df23e00	0.11828232
233	0xbc48f0aa	-0.01226441
234	0xbd2394df	-0.039936896
235	0x3ce42b49	0.027852671
236	0xbd9cff5c	-0.076658934
237	0x3d7235a6	0.059133194
238	0x3d97878f	0.073989026
239	0xbd98c4e8	-0.07459432
240	0xbdba5343	-0.09097912
241	0xbc905f6b	-0.017623624
242	0x3cf750e4	0.030189939
243	0xbce7ecf7	-0.028311236
244	0xbd843a50	-0.06456435
245	0xbc666639	-0.014062458
246	0xbdc073d4	-0.093970925
247	0xbd83c4aa	-0.06433995
248	0xbd536e0e	-0.05161863
249	0x3da25e79	0.079281755
250	0x3dc36f15	0.095426716
251	0xbce0e079	-0.027450787
252	0xbc0ed851	-0.008718566
253	0x3ca5fcda	0.02026217
254	0xba170c81	-0.0005762056
255	0xbd655aa9	-0.055994663

conv1.bias f4 [40]
0	0xbd47a2d4	-0.04873927
1	0xbe2301de	-0.15918681
2	0xbe014897	-0.12625347
3	0xbdd7326e	-0.105076656
4	0xbc18e2b1	-0.009331391
5	0x3da746d6	0.08167808
6	0x3dc34a10	0.09535611
7	0xbdbd9e05	-0.092586555
8	0xbd03a2c4	-0.032137647
9	0xbe1dbf3d	-0.15404983
10	0x3e1d1d17	0.15343128
11	0x3e4b1ab9	0.19834413
12	0x3e47ff15	0.195309
13	0x3da5458e	0.08069907
14	0xbd30dd95	-0.043180067
15	0xbaadc764	-0.0013258276
16	0x3d8ad016	0.067779705
17	0xbe33f575	-0.17574103
18	0x3c2cd9e9	0.010550001
19	0xbe25e512	-0.16200665
20	0xbe4c7f3b	-0.1997041
21	0xbc07b921	-0.008283884
22	0xbd89f4e2	-0.06736161
23	0xbe002500	-0.12514114
24	0x3d0f5956	0.034997307
25	0x3c9d2ac5	0.019185433
26	0x3cb347d8	0.021884844
27	0xbdeb86f7	-0.11500352
28	0xbe45295b	-0.19254057
29	0x3bf55321	0.0074867164
30	0xbdad47a2	-0.084609285
31	0xbd8dedc8	-0.06930119
32	0x3e1a79d7	0.1508554
33	0x3cf3b6ce	0.029750254
34	0x3da74b6d	0.08168683
35	0xbd55d941	-0.052209143
36	0xbe214925	-0.15750559
37	0x3d2dad23	0.042401444
38	0xbdfe1c15	-0.124077
39	0x3cf71bf1	0.03016469

conv2.weight f4 [40, 40, 22, 1]
0	0xbc6b0af6	-0.014345875
1	0xbc476478	-0.01216995
2	0xbcae196c	-0.021252356
3	0xbb00f03c	-0.001967444
4	0xbba9e504	-0.0051847715
5	0xbb04e939	-0.0020280613
6	0x3aa8a32a	0.001286601
7	0xbbdb8969	-0.00669973
8	0xbc361b16	-0.011114856
9	0xbbff0f50	-0.007783808
10	0xbc871f01	-0.016494276
11	0xbccf64b3	-0.025316572
12	0xbc366899	-0.011133336
13	0xbae344d1	-0.0017339234
14	0x3ac62a40	0.0015118793
15	0xba84bdbe	-0.0010127348
16	0xbbc05034	-0.005868936
17	0xbc91b4e8	-0.017786458
18	0xbbadd31d	-0.0053047077
19	0x3bec8b27	0.0072187367
20	0x3b7d11e6	0.0038615405
21	0x3c36c6e5	0.011155819
22	0xbc888e01	-0.016669275
23	0xbab43622	-0.0013749043
24	0xbc47c97f	-0.0121940365
25	0xbbe52014	-0.0069923494
26	0xbbeab070	-0.0071621463
27	0xbc37ee99	-0.01122632
28	0xbcb686b4	-0.022281028
29	0xbb849a8d	-0.004046744
30	0x3a99665d	0.001170348
31	0x3aecd527	0.0018068895
32	0xbc404fa4	-0.011737738
33	0xbbb97394	-0.00565953
34	0xbc1cd355	-0.00957187
35	0xbc7b977c	-0.015355941
36	0xbc48c05e	-0.012252895
37	0xbae8d27b	-0.0017762923
38	0xbc24186e	-0.01001559
39	0xbbe3a339	-0.006946948
40	0xbba99f42	-0.0051764557
41	0xbc1c2735	-0.009530832
42	0xbb5567a9	-0.0032563007
43	0xbb26eccb	-0.002547073
44	0x3c3c7121	0.011501581
45	0xbb729f68	-0.0037021283
46	0xbbe33811	-0.006934174
47	0xbbef438c	-0.0073017534
48	0x3a256c79	0.0006310414
49	0x3c4d451b	0.012528683
50	0x3c141abf	0.00903958
51	0xbbb3ddf6	-0.0054891063
52	0xbc2b51df	-0.010456531
53	0xbc5b6eda	-0.013393128
54	0x3ba124bc	0.004917709
55	0xbb6a677b	-0.0035767246
56	0xbbc24855	-0.005929033
57	0xbbf173d1	-0.0073685427
58	0xbbf77d50	-0.00755278
59	0xbc70513b	-0.014667804
60	0xbc128df7	-0.00894498
61	0xbb4d5038	-0.0031328332
62	0xbc17fccb	-0.009276579
63	0xbc1863c5	-0.009301131
64	0xbc3c15db	-0.01147982
65	0x3b1dc414	0.002407317
66	0x3c1fd304	0.0097549
67	0x3c0ec5a9	0.008714118
68	0x3c2d0059	0.010559165
69	0x3bf3ae10	0.0074365214
70	0xbbf8c95a	-0.0075923624
71	0xbba89b47	-0.0051454636
72	0xbc09425a	-0.008377636
73	0x3ba57459	0.00504927
74	0x3baedfb6	0.005336727
75	0x3c2e6c3b	0.010645921
76	0xbb11ce14	-0.0022248076
77	0xbc2ef44f	-0.010678365
78	0xba0151f3	-0.0004933171
79	0x3b1df8dd	0.0024104633
80	0x3c1deb4f	0.0096386215
81	0x3c5f9b6a	0.013647893
82	0x3c58d19c	0.0132335685
83	0x3bf22569	0.0073897135
84	0xba82e60d	-0.0009986773
85	0x3b7891cb	0.0037928696
86	0xbac75877	-0.001520886
87	0x3b7a7476	0.0038216389
88	0xbc080d0c	-0.008303892
89	0xbc1be9a0	-0.00951615
90	0xba0aa5f9	-0.0005289014
91	0x3b50f4d2	0.0031884206
92	0xbbcf0414	-0.006317625
93	0x3c3d5d57	0.0115578985
94	0xbbbfbb02	-0.0058511505
95	0xbbf8b70d	-0.0075901807
96	0x3ae3045f	0.0017320028
97	0xb9377a56	-0.00017497814
98	0xbbe27150	-0.0069104806
99	0x3a827529	0.0009953129
100	0xbbf8dedd	-0.0075949267
101	0x3b72f627	0.0037072988
102	0x3bb760d5	0.00559626
103	0xbb86ba15	-0.004111538
104	0xbb63a352	-0.0034734798
105	0xbc03d321	-0.0080459425
106	0xbb99c68e	-0.004692859
107	0xbb4eb23f	-0.0031539348
108	0x3b8f432b	0.0043720207
109	0x3b306bb3	0.0026919662
110	0xb8eb3876	-0.0001121619
111	0x3c0fb6d7	0.00877162
112	0x3bb351e4	0.0054724086
113	0x3b5f7876	0.00340989
114	0x3c55263a	0.013009602
115	0x3c57d14c	0.013172459
116	0x3cab721b	0.020928433
117	0x3929586a	0.00016150033
118	0x3b4f4027	0.003162393
119	0x3b98831d	0.004654302
120	0x3b7952e8	0.00380438
121	0x3c9ad591	0.018900665
122	0x3c9f0cc2	0.019415263
123	0xb823ce47	-3.905434e-05
124	0x3a83b05f	0.001004707
125	0x3bd1bf1b	0.0064009554
126	0xbb2b92aa	-0.0026179948
127	0x3c1af49b	0.009457733
128	0xbb5592d0	-0.0032588728
129	0xbbfe03d9	-0.0077519235
130	0x3b5fd003	0.0034151084
131	0xbba763bd	-0.0051083253
132	0x3ba87e7c	0.0051420312
133	0xbb83fc45	-0.0040278756
134	0xbb572dea	-0.0032833763
135	0xbc273e72	-0.010207759
136	0xba851ae8	-0.0010155113
137	0x3a2fa0fd	0.00066997093
138	0xbb86add9	-0.0041100797
139	0xbc111deb	-0.008857231
140	0xbc5837d3	-0.013196903
141	0xbbb68e62	-0.0055711726
142	0xbb6676b0	-0.0035165958
143	0xbb5797cd	-0.0032896877
144	0xbb8d9d28	-0.004321713
145	0xbb53a506	-0.0032294407
146	0xbb5b5479	-0.0033467098
147	0xbbdc7d48	-0.006728802
148	0xbacedf6e	-0.001578314
149	0xbb704c95	-0.003666674
150	0xbb6dd21a	-0.003628856
151	0xbb95ce5e	-0.00457172
152	0xbc448f25	-0.011997019
153	0xbc966365	-0.018357942
154	0xba6831b9	-0.0008857507
155	0x3cde8248	0.027161732
156	0x3c9a33ed	0.018823588
157	0x3b88e59d	0.0041777627
158	0x3b1b783d	0.002372279
159	0x3ba49627	0.0050227824
160	0x3b64e850	0.0034928508
161	0x3c9e9168	0.019356444
162	0x3c88c247	0.016694201
163	0x3c8f198f	0.017468242
164	0x3c892794	0.016742505
165	0x3c2af329	0.01043395
166	0x3c2de8b3	0.010614562
167	0x3bc27ac2	0.005935044
168	0xba8a6afe	-0.0010560451
169	0x3aa4749d	0.001254696
170	0x3ca60d1d	0.020269925
171	0x3c97b2a9	0.018517809
172	0xbba870c1	-0.0051403944
173	0x3b6ee141	0.003645018
174	0x3c1a3607	0.009412295
175	0x3b0e379e	0.002170063
176	0x3bc937da	0.006140691
177	0xbc7a023f	-0.015259325
178	0xbb73d6fa	-0.0037206993
179	0xbc2c7fc7	-0.010528511
180	0xbaf44b68	-0.0018638195
181	0xbbdad09b	-0.0066776997
182	0xbbef16e9	-0.0072964323
183	0xbb6c11db	-0.0036021385
184	0xbb8e2589	-0.0043379706
185	0xbc275f12	-0.010215538
186	0xbc18abc3	-0.009318295
187	0xbc3f7808	-0.0116863325
188	0xbc27fa85	-0.0102526
189	0xbc0e0dd1	-0.008670286
190	0x3b49cf55	0.0030793746
191	0x3af23efd	0.0018481907
192	0xb9f189fd	-0.0004606991
193	0xbc6cd419	-0.014454865
194	0x3ba1286b	0.0049181483
195	0xbb088f18	-0.0020837244
196	0xb9f373ae	-0.0004643476
197	0x3bcefd39	0.0063168076
198	0x39346b28	0.00017206057
199	0xbc18a392	-0.009316342
200	0xb9c1831e	-0.00036909519
201	0xbb0fa796	-0.0021919957
202	0x3b9a9446	0.0047173826
203	0xbb887e62	-0.0041654566
204	0x3babd707	0.005244139
205	0xbc38a048	-0.011268683
206	0x3baf8734	0.0053566936
207	0x3ba6c492	0.005089351
208	0xbb951d21	-0.0045505916
209	0xbba91fd5	-0.0051612654
210	0x3c2a9c4b	0.01041324
211	0xb8aa057d	-8.107254e-05
212	0xb895d843	-7.1451555e-05
213	0xbc9aa3ea	-0.018876988
214	0xbb6954cb	-0.003560352
215	0x3bd8c9fd	0.0066158758
216	0xbacf5ff6	-0.0015821445
217	0xbc133a86	-0.008986121
218	0x3a6e9978	0.0009101848
219	0x3bc473b2	0.0059952373
220	0xbbc1dda4	-0.005916314
221	0xbbfef0b4	-0.007780159
222	0xbc1666ef	-0.009179815
223	0xbc3abe7e	-0.011397956
224	0x3b994373	0.00467723
225	0xba55963e	-0.0008147693
226	0x3a9debbc	0.0012048404
227	0x3a89a9c8	0.0010502869
228	0xbc45094a	-0.0120261405
229	0xbb9859f6	-0.004649396
230	0xbc12b16a	-0.008953432
231	0xbb5928d9	-0.003313592
232	0xb92584b7	-0.00015785066
233	0xba855f31	-0.0010175464
234	0xbc26233d	-0.010140237
235	0xbc02b6ac	-0.007978123
236	0xbc2fadc4	-0.010722581
237	0xbc745a60	-0.014914125
238	0xbab68d42	-0.0013927596
239	0xbc0a55ae	-0.008443279
240	0x3aada5fd	0.0013248321
241	0x39c9ed1f	0.00038514377
242	0x3bdc3912	0.0067206705
243	0xbc285d99	-0.010276222
244	0xbb4f1c42	-0.0031602536
245	0x3a021176	0.00049617083
246	0x3b46c05f	0.0030327064
247	0xbacf2c4f	-0.0015806052
248	0x3aabb008	0.0013098726
249	0xbbbcd26a	-0.005762388
250	0xba672081	-0.0008816794
251	0xbb276c06	-0.0025546565
252	0xb9b648bb	-0.00034767934
253	0xbc5a2aa6	-0.013315832
254	0xbc25663d	-0.010095176
255	0x3bb3c567	0.0054861787

batchnorm.weight f4 [40]
0	0x3f85ce68	1.0453615
1	0x3f8545cc	1.0411925
2	0x3f8643f4	1.0489488
3	0x3f8314a3	1.0240673
4	0x3f800e47	1.0004357
5	0x3f7b4ade	0.98161113
6	0x3f7a6240	0.9780617
7	0x3f871cf5	1.0555712
8	0x3f889975	1.0671831
9	0x3f82863c	1.0197215
10	0x3f8450a7	1.0337113
11	0x3f80fd57	1.0077313
12	0x3f800d4a	1.0004056
13	0x3f799ea5	0.975077
14	0x3f84936d	1.0357491
15	0x3f88619d	1.0654789
16	0x3f81f287	1.0152138
17	0x3f86c29d	1.0528141
18	0x3f8106e5	1.0080229
19	0x3f78717d	0.9704817
20	0x3f850400	1.0391846
21	0x3f85a9d6	1.0442455
22	0x3f7cf281	0.9880753
23	0x3f7ea4cd	0.99470216
24	0x3f81ec69	1.0150272
25	0x3f83b39b	1.0289186
26	0x3f85ca3e	1.0452344
27	0x3f78fe38	0.9726291
28	0x3f888c29	1.0667773
29	0x3f86715e	1.0503347
30	0x3f85bb62	1.044781
31	0x3f82eb18	1.0227995
32	0x3f78bdb5	0.9716447
33	0x3f7c97fb	0.98669404
34	0x3f7cd79a	0.9876648
35	0x3f82e113	1.0224937
36	0x3f879c15	1.0594507
37	0x3f866814	1.0500512
38	0x3f87739b	1.0582155
39	0x3f7f96c9	0.99839455

batchnorm.bias f4 [40]
0	0xbd837b64	-0.06420019
1	0x3ce52f7d	0.027976746
2	0xbb9cdea3	-0.0047872826
3	0x3d32a343	0.04361273
4	0x3caff33a	0.021478284
5	0xbce319f1	-0.02772233
6	0x3ded8b49	0.11598832
7	0x3c9991be	0.018746253
8	0x3d007467	0.03136101
9	0xbd0be7d9	-0.034156654
10	0x3bfff403	0.007811071
11	0x3c79c718	0.015245222
12	0x3cb25b6a	0.021772105
13	0xbd378882	-0.04480792
14	0x3dbf293a	0.09334035
15	0xbbcadffa	-0.006191251
16	0xbd158f55	-0.036513645
17	0x3c8b0fe9	0.01697536
18	0x3dc18343	0.09448864
19	0x3d1a3bc6	0.03765466
20	0xbc0f763f	-0.008756219
21	0xbdee0d4a	-0.116236284
22	0x3d0f1a1c	0.03493701
23	0x3d62141f	0.05519497
24	0xbca46f9b	-0.020072749
25	0xbc4684ef	-0.012116655
26	0xbd09624d	-0.033541013
27	0x3d0e6226	0.03476157
28	0x3c927735	0.017879108
29	0xba9e8100	-0.0012092888
30	0xbcb5abe4	-0.02217669
31	0xbcd1ba60	-0.025601566
32	0xbda6a0c8	-0.08136135
33	0xbdf65b9a	-0.1202919
34	0x3db8a56a	0.09015925
35	0xbcd16d61	-0.025564851
36	0xbd58a223	-0.052889
37	0x3a8452fe	0.0010095534
38	0x3cf4aa68	0.029866412
39	0xbcc71587	-0.024302257

batchnorm.running_mean f4 [40]
0	0x3c5ded1d	0.013545302
1	0xbcaa8133	-0.02081356
2	0x3d8ecffc	0.069732636
3	0xbcb1349f	-0.021631537
4	0xbe03d94b	-0.1287586
5	0x3c0b52a1	0.008503587
6	0x3dff5182	0.12466718
7	0x3c0ee8bf	0.008722483
8	0xbcafc9c5	-0.021458516
9	0x3cbe9f59	0.023269342
10	0xbd28d7bd	-0.04122137
11	0xbca6097f	-0.0202682
12	0xbc9f3814	-0.01943592
13	0xbbf7b1d3	-0.00755904
14	0x3cc0355a	0.02346294
15	0x3cb0ffe6	0.021606397
16	0x3cf5f95c	0.03002613
17	0x3c296c3b	0.010340746
18	0xbcb1e576	-0.02171586
19	0x3d0637e5	0.03276815
20	0xbb7a5415	-0.003819709
21	0x3cf943f4	0.03042791
22	0x3d80e149	0.0629297
23	0x3d8158b2	0.063157454
24	0xbccaa360	-0.024736106
25	0x370f8778	8.5550055e-06
26	0x3d6a6712	0.0572272
27	0xbd080d08	-0.033215553
28	0x3c44bdb8	0.012008123
29	0xbb7d0399	-0.003860688
30	0x3cbd73de	0.023126539
31	0xbdd5a3e8	-0.10431653
32	0x3ccf78e0	0.025326192
33	0xbb3bff36	-0.0028686053
34	0xbccbc654	-0.024874844
35	0xbc29c931	-0.010362909
36	0x3d95d112	0.073152676
37	0xbbd5beab	-0.0065229735
38	0xbc172b17	-0.009226582
39	0xbe253a5d	-0.16135545

batchnorm.running_var f4 [40]
0	0x3ecbd2c3	0.39809236
1	0x3ead7e46	0.338854
2	0x3e0e72ae	0.13910934
3	0x3d7a1994	0.06105955
4	0x3e0d741c	0.13813823
5	0x3de0f117	0.10983484
6	0x3e762898	0.24038923
7	0x3ded8296	0.11597173
8	0x3e091ec6	0.13390645
9	0x3dabe96f	0.08394133
10	0x3e1c324c	0.15253562
11	0x3e440c17	0.19145237
12	0x3e49846b	0.1967942
13	0x3dbc6532	0.09198989
14	0x3e0d8448	0.13819993
15	0x3e23e692	0.16005924
16	0x3db018de	0.08598493
17	0x3d406c5e	0.046978347
18	0x3dc92cf3	0.098230265
19	0x3e3f7f3b	0.18700878
20	0x3e3a84e2	0.18214753
21	0x3e416e91	0.18889834
22	0x3e2d84f0	0.16945243
23	0x3e6eb36d	0.23310633
24	0x3ecba0f9	0.3977125
25	0x3d6f5fb3	0.058440875
26	0x3e88c014	0.26709044
27	0x3e41d488	0.1892873
28	0x3dab7ad5	0.08373038
29	0x3e47e903	0.1952248
30	0x3e48e2b8	0.19617736
31	0x3f219b67	0.6312775
32	0x3e219510	0.15779519
33	0x3ead23cf	0.33816382
34	0x3de91059	0.11380071
35	0x3e5eb7fc	0.21749872
36	0x3ea49c95	0.32150713
37	0x3e00b803	0.12570195
38	0x3d84f27f	0.06491565
39	0x3e54ef67	0.2079445

dense.weight f4 [4, 2840]
0	0xbcf999c5	-0.03046883
1	0x39961491	0.00028625553
2	0x3b5d8163	0.0033799044
3	0xbbc1702b	-0.005903264
4	0xbc115d60	-0.00887236
5	0x3c650a5e	0.0139795225
6	0x3c883c49	0.016630309
7	0xbc9734f5	-0.018457869
8	0x3b414bb0	0.0029494576
9	0x3cd7463f	0.026278613
10	0xba1015eb	-0.000549643
11	0xbb13613e	-0.002248838
12	0x3c857247	0.016289843
13	0x3caa633a	0.020799268
14	0x3cadfdf1	0.021239253
15	0xbb200465	-0.0024416682
16	0xbc6cfd72	-0.014464723
17	0x3c8473b1	0.016168447
18	0x3955109c	0.0002031945
19	0x3b4e2ee2	0.003146105
20	0x3ce07157	0.027397795
21	0x3b6b38ee	0.0035892087
22	0xbcd04e3e	-0.025427934
23	0x3a783dab	0.00094696385
24	0x3d119007	0.035537746
25	0x3b9e58e2	0.004832373
26	0x3d05a47c	0.032627568
27	0x3d087410	0.03331381
28	0xbbdecc00	-0.006799221
29	0xbc065c72	-0.008200752
30	0xbca02203	-0.019547468
31	0xbc1e2369	-0.009651997
32	0xbd077d23	-0.033078324
33	0xbd1f8978	-0.03894946
34	0x3b932f68	0.0044917352
35	0xbd2bb039	-0.041916106
36	0xbcda4d20	-0.026648104
37	0xbc343245	-0.010998313
38	0xbc8cfad6	-0.017209452
39	0xbc5ca3bc	-0.013466772
40	0x3c16cfaa	0.009204784
41	0xbc030aab	-0.007998149
42	0xbb766238	-0.0037595164
43	0x3c8e390a	0.017361183
44	0x3c16d1cc	0.009205293
45	0x3afae0d4	0.001914049
46	0xbb3180ff	-0.0027084944
47	0xbc9e7326	-0.019342016
48	0x3b39c95a	0.0028348775
49	0xbcdb6590	-0.026781827
50	0xbc02f6d7	-0.0079934215
51	0xbc88441c	-0.01663404
52	0x3bc1ff51	0.0059203287
53	0xbd129c33	-0.035793494
54	0xbc928678	-0.017886385
55	0xbd1a4edc	-0.037672862
56	0xbc683586	-0.014172917
57	0xbb857b03	-0.004073502
58	0xbb282bf3	-0.0025660961
59	0xbafef4bb	-0.0019451597
60	0xbca76ef4	-0.020438649
61	0xbb7cb35b	-0.0038559053
62	0xbceb97df	-0.028758941
63	0xbcfaa383	-0.030595547
64	0xbb3bc14b	-0.0028649147
65	0xbc010252	-0.007874088
66	0xbc042c52	-0.008067207
67	0xbc1a8967	-0.009432173
68	0xbb74bd4a	-0.003734427
69	0xbcd17650	-0.025569111
70	0xbc89c760	-0.016818702
71	0x3c68c67c	0.014207479
72	0x3c4f5ae0	0.012655944
73	0xbb6f28d0	-0.0036492832
74	0x3bb29605	0.0054500126
75	0xb8ba260e	-8.8762594e-05
76	0x3cbc39a8	0.022976711
77	0x3cc082f1	0.023499938
78	0x3c816339	0.015794383
79	0xb9ecc96f	-0.00045163507
80	0xbcdb0745	-0.026736865
81	0x3ce42a37	0.02785216
82	0x3c786c52	0.015162544
83	0xbb086ccf	-0.0020816808
84	0x399e4ac4	0.00030191813
85	0x3d179fc1	0.037017588
86	0x3a35f1e1	0.0006940645
87	0x3cb8e755	0.022571245
88	0x3c78888d	0.015169275
89	0x3cbaa72b	0.02278479
90	0xbbf01e69	-0.007327844
91	0x3c8aba01	0.016934397
92	0x3cb263e2	0.021776143
93	0x3b2a5881	0.0025992694
94	0xb9ab5347	-0.00032677708
95	0x3cdad763	0.026714033
96	0xbb15960f	-0.0022825038
97	0x3bf2c765	0.0074090236
98	0xbb13c0d2	-0.002254535
99	0x3c79c7a8	0.015245356
100	0xbc9f613b	-0.019455543
101	0xbc543009	-0.012950906
102	0xbcf05024	-0.029335089
103	0xbd3c8a90	-0.04603058
104	0xbd452adb	-0.048136573
105	0xbd232306	-0.039828323
106	0xbc227dfb	-0.009917731
107	0xbc08614c	-0.008323979
108	0x3be493ce	0.0069756275
109	0x3c220767	0.00988946
110	0xba6bf743	-0.00090013834
111	0x3b2f2242	0.00267233
112	0x3c22c0c1	0.009933651
113	0xbaf7f91f	-0.0018918848
114	0x3c32b711	0.010907904
115	0x3bef629b	0.007305456
116	0xbb0fd249	-0.0021945408
117	0x3b6cdf1c	0.0036143726
118	0x3be8e15d	0.0071069435
119	0x3c8a0d38	0.016852006
120	0x3c761af5	0.0150210755
121	0xb92263bf	-0.00015486682
122	0x3a88c3b9	0.0010434306
123	0x3b642e49	0.0034817627
124	0xbd27adcc	-0.04093723
125	0xbc6ee19c	-0.014580157
126	0xbce5df3f	-0.028060554
127	0x3ba958bb	0.005168048
128	0xbd2ac153	-0.041688275
129	0x3ca979d9	0.020687984
130	0xbbc69852	-0.0060606385
131	0x3cddc668	0.027072147
132	0xbc0a3072	-0.008434402
133	0x3cc98848	0.024601117
134	0x3af6eb1f	0.0018838382
135	0xbc1e7a37	-0.009672693
136	0xbc7a6159	-0.015281999
137	0xbd0bf2b0	-0.03416699
138	0xbb4fb951	-0.003169615
139	0xbcd1acc0	-0.025595069
140	0xbc51c336	-0.01280289
141	0xbc5d5cba	-0.013510877
142	0x3c374bbe	0.011187492
143	0xbbfd76e5	-0.0077351206
144	0xb9f700ac	-0.00047112012
145	0xbc3a8cb5	-0.011386086
146	0xbc165258	-0.009174906
147	0x3c4b8d25	0.012423788
148	0x3cc306ea	0.023807008
149	0xbcdf0692	-0.027224813
150	0xbc90a1ce	-0.01765528
151	0xbc2cf855	-0.010557254
152	0xbc860f95	-0.016364852
153	0xbc47e183	-0.012199762
154	0x3cb5d999	0.022198485
155	0x3d3e5025	0.04646315
156	0x3d398674	0.04529424
157	0x3b43c535	0.0029872183
158	0x3ca76677	0.020434601
159	0x3d492df1	0.04911608
160	0x3babf9d8	0.0052482896
161	0x3ca81ee0	0.020522535
162	0x3d0df00a	0.034652747
163	0x3c8133f9	0.015771853
164	0x3c8089ec	0.015690766
165	0xbc157e57	-0.00912436
166	0x3cb1ffd0	0.021728426
167	0xbb600888	-0.0034184773
168	0xbcb371b5	-0.021904806
169	0xbcf8c51b	-0.030367425
170	0xbbf659c5	-0.0075180256
171	0xbc417a6f	-0.011808976
172	0xbbeff339	-0.0073226956
173	0xbc13b9bf	-0.009016453
174	0xbd01184c	-0.031517312
175	0xbc8aee38	-0.016959295
176	0xbb2f7af1	-0.002677616
177	0xbc5110bb	-0.0127603365
178	0x3be4c7ae	0.0069818115
179	0x3c8a047b	0.01684784
180	0x3be33960	0.00693433
181	0x3be7a7e9	0.007069577
182	0x3caf3f2f	0.021392433
183	0x3c87ed92	0.016592775
184	0xbbc40e48	-0.005983148
185	0xbba39c43	-0.004992993
186	0x3c3f1f47	0.011665172
187	0x3c99afc5	0.018760571
188	0x3cf5aa30	0.029988378
189	0x3ce844bb	0.028353086
190	0x3c819c49	0.015821593
191	0x3c9ae429	0.018907623
192	0x3c4f5022	0.0126533825
193	0x3bf8a9a2	0.007588581
194	0xbb9df8c4	-0.004820915
195	0xbb952f54	-0.004552761
196	0xbb1f8f51	-0.0024346898
197	0x3be3523a	0.0069372924
198	0x3c294e40	0.010333598
199	0x3c8fbcd0	0.017546088
200	0x3bf97254	0.007612506
201	0x3ca606cd	0.020266915
202	0x3c6a6d09	0.014308223
203	0x3c865ba5	0.016401121
204	0x3bc5f118	0.0060407035
205	0x3bf39c66	0.0074344156
206	0x3b6452b9	0.0034839346
207	0xbbcae235	-0.0061915168
208	0x3b15ba06	0.0022846474
209	0xbb2a9691	-0.0026029686
210	0x3d1dfad2	0.03856928
211	0xbc430eae	-0.011905355
212	0xbbeb81c8	-0.007187102
213	0x3be5ed45	0.00701681
214	0xbc296907	-0.010339982
215	0xbb41b8a3	-0.0029559515
216	0xbccc45c3	-0.024935609
217	0xbd0f40df	-0.034973975
218	0x3be68224	0.007034557
219	0x3b4c3dbc	0.0031164726
220	0xbd03a12d	-0.03213613
221	0xbc3c0abe	-0.0114771705
222	0x3c70ae08	0.01468993
223	0xbc82319b	-0.015892794
224	0x3cab2a06	0.020894062
225	0xbd1fbb64	-0.03899707
226	0xbd6d45bf	-0.057927843
227	0xbd44091f	-0.04786026
228	0xbd88f52a	-0.06687386
229	0xbd8fecdd	-0.070276
230	0xbd9719c3	-0.073779605
231	0xbd434b6b	-0.047679346
232	0xbd890307	-0.066900305
233	0xbd6190fc	-0.05506991
234	0xbd652208	-0.055940658
235	0xbce5f922	-0.028072897
236	0xbce2ee5e	-0.027701553
237	0xbd25184b	-0.04030637
238	0xbd030ade	-0.031992786
239	0xbcd0f474	-0.02550719
240	0xbc00fd60	-0.007872909
241	0xbcbe302b	-0.023216328
242	0xbcc7220d	-0.024308229
243	0xbcd296f7	-0.025706751
244	0xbd163277	-0.03666922
245	0xbc98a27c	-0.018632166
246	0xbcf59a36	-0.02998076
247	0xbca6072d	-0.020267094
248	0xbc0d3387	-0.008618242
249	0xbc266bbf	-0.010157525
250	0xbc2e2e73	-0.010631192
251	0xbcc768fc	-0.024342053
252	0xbb4cf4e8	-0.0031273905
253	0xbc901428	-0.017587736
254	0xbd1b693b	-0.037942152
255	0xbd41e482	-0.047337063

dense.bias f4 [4]
0	0xbcb9b065	-0.02266712
1	0xbbe0073e	-0.006836801
2	0x3d18c004	0.037292495
3	0x3c394e50	0.011310175
