EEG-ATCNet/results_pytorch_gpu2/saved models1/run-1/subject-8.pth (torch, 194183 bytes, 9 tensors)

conv1.weight f4 [40, 1, 1, 25]
000000 0a cd 6d 3d 69 1e fa bc 5d a7 b0 bc 72 68 23 3d
       0.05805687 -0.030532079 -0.02156418 0.03989453
000010 39 dd e2 bd 34 a3 51 3d 0b 54 05 bd 5b 98 08 3d
       -0.11077351 0.051181033 -0.032550853 0.033348422
000020 05 14 a8 3c 4b d5 8b bc 47 8d 36 3d d3 50 37 3c
       0.020517359 -0.01706948 0.044568326 0.011188704
000030 a8 28 16 3d 28 cf 28 bd 80 61 f1 bc ae 6f 40 bc
       0.036659867 -0.041213185 -0.029465437 -0.0117453765
000040 97 07 67 3b e0 4d 61 b9 a6 53 a6 3d 04 7c da 3c
       0.0035252327 -0.00021486683 0.081214234 0.026670463
000050 81 50 1c bd b1 22 7f bd 1b c6 01 bd 87 a0 61 bd
       -0.038162712 -0.062288944 -0.03168307 -0.05508473
000060 31 67 81 bd dc 2e 12 3b ea 6c 7d 3d 98 da 63 3d
       -0.0631851 0.0022305762 0.061871447 0.05562839
000070 0b a6 c0 bd 55 0c 7e 3d c0 a3 c7 3c 83 b5 b4 3d
       -0.0940667 0.06202348 0.024370074 0.08823683
000080 9b 73 5b 3d 45 74 e7 bd 97 f7 ea bd d6 21 8c bd
       0.053577047 -0.113014735 -0.11473005 -0.06842391
000090 67 0b 9e 3d b4 ab 04 bd e4 6f f8 3c 90 69 53 bd
       0.077170186 -0.03239031 0.030326791 -0.051614344
0000a0 13 02 bb 3d 8f 54 4e bd 91 e2 7e 3d 7c 88 5a bc
       0.09131255 -0.05037361 0.06222779 -0.0133382045
0000b0 16 35 96 bd 28 1c f7 3c 73 cc 77 bd 0c 2a dc 3c
       -0.07334344 0.030164793 -0.060497712 0.026875518
0000c0 45 24 f2 bc 3d a3 f2 bb e3 e6 00 be 91 49 6b bd
       -0.02955831 -0.0074047134 -0.12588076 -0.057443205
0000d0 e6 98 76 3d 10 ea 33 bc 00 da d7 3d 55 88 bc 3d
       0.06020441 -0.010981098 0.10539627 0.09205691
0000e0 fa b8 16 3a 29 d1 70 bd 11 6e 7d 3d 99 7f 0b 3d
       0.00057496096 -0.05879322 0.061872546 0.034057233
0000f0 73 9e 8c bd e8 3a 62 3d 22 07 63 3d 17 ba ba 3d
       -0.06866159 0.05523196 0.055426724 0.09117525
000100 c5 a4 34 bd b5 f7 10 bc 11 09 fc 3a d4 de b6 3c
       -0.04410245 -0.00884812 0.0019228776 0.02232305
000110 24 7e 78 bd c2 b8 63 bd 3b eb 80 3d e7 9c 63 bc
       -0.060667172 -0.05559612 0.06294867 -0.013892389
000120 e7 0a 77 3d 0e 2f ba 3b e9 f1 62 3c f3 39 0b 3d
       0.06031313 0.005681879 0.013851621 0.03399081
000130 17 5b 25 3d b8 aa 67 3d 13 e4 a9 bd da f7 67 3d
       0.040370073 0.056559294 -0.08295455 0.056632854
000140 11 94 97 bd ff e9 a3 bd c7 c0 4c ba 55 b0 a5 bc
       -0.07401288 -0.080036156 -0.00078107085 -0.020225683
000150 cf 01 5a 3d 33 c2 49 bd 70 6e a1 bd 34 3a ba 3d
       0.05322438 -0.04925747 -0.078823924 0.090931326
000160 73 d4 19 bc fd e9 7f 3d a0 ac 02 3d 39 5d 9c bd
       -0.009389031 0.062479008 0.03190291 -0.07634968
000170 a7 fa b5 3c 57 3d b7 3c ea 70 a2 bd 35 06 48 bd
       0.022214247 0.022368116 -0.07931693 -0.048834044
000180 2b 63 ec 3c 02 8e 49 3b fa 19 8c bd b7 9f 52 bd
       0.02885588 0.003075481 -0.06840892 -0.051421847
000190 37 82 eb 3d 2c 67 87 bb 08 06 55 3d 7b 61 11 3d
       0.11499446 -0.004132172 0.052007705 0.035493355
0001a0 bb 5b 9c bd 80 fe c7 bd 3d 7b cf 3d 06 d7 8c 3b
       -0.07634684 -0.09765339 0.10130928 0.0042980937
0001b0 e5 2f 9a 3d 86 d6 8b 3c bc af 29 3d 9d 09 9f 3d
       0.075286664 0.017070066 0.04142736 0.077655055
0001c0 fb 0c c0 3d 4b e1 a1 bd 30 7b 1b bb 09 06 6f 3d
       0.09377476 -0.07904299 -0.0023724549 0.058355365
0001d0 fe b1 56 3d 67 5a 65 3d 45 2b ac bd cb 38 a3 bd
       0.05241584 0.055994418 -0.084066905 -0.07969817
0001e0 3a ed 88 bd ed 25 9a 3b 80 aa b6 3d ef 6d 90 bd
       -0.066858724 0.004704228 0.08919239 -0.07052218
0001f0 24 dd 58 3d 1a 1d 29 bd 1d 4c a1 bd 67 c5 86 bc
       0.05294527 -0.04128752 -0.078758456 -0.01645155
000200 2c 3b 59 3d 67 d5 c7 3d 22 95 74 bd 2b 4c 1b 3d
       0.053034946 0.097575 -0.059712537 0.037914436
000210 19 23 eb 3d 23 79 c1 3d 12 df be 3d 75 98 c4 3d
       0.11481304 0.09446933 0.09319891 0.09599391
000220 cb ba 99 3d 89 10 0e 3d 04 44 69 bd 69 30 a1 bd
       0.07506331 0.034683738 -0.05694963 -0.07870562
000230 39 1c 1d bd 29 3f 11 bc 84 f3 6d bd 39 87 4b 3d
       -0.038356993 -0.008865156 -0.058093563 0.049689505
000240 5d d2 4b 3d b9 a1 87 bc 28 9f 2c 3d 33 63 16 3d
       0.049761165 -0.016556608 0.04214397 0.036715697
000250 17 ea 97 3d b3 09 9f 3d df 00 f0 bc fa a4 bf 3d
       0.07417696 0.07765522 -0.02929729 0.09357639
000260 f4 4f 83 bb a6 5b 12 3c b9 a4 be bd 25 4e 9b bd
       -0.004007334 0.0089329835 -0.09308762 -0.07583264
000270 37 61 90 bd 87 5d 50 bd 66 d7 63 3d 69 6e 30 bd
       -0.07049792 -0.050870445 0.05562534 -0.043074045
000280 2d a7 9f bd a6 0a 39 3d f7 4e 2c 3d ba 43 88 3d
       -0.07795558 0.04517617 0.042067494 0.06653543
000290 1e 08 59 bd db 18 f1 3b c6 b2 19 bd b4 a7 e2 bc
       -0.052986257 0.0073576993 -0.037524007 -0.027667858
0002a0 f1 88 b3 bd b5 ba 87 bd c0 09 1a bd 2e 89 bf 3c
       -0.08766354 -0.066274084 -0.037606955 0.023380842
0002b0 cc 38 bf 3b 46 14 94 3c f9 92 fd 3d 80 ea 07 3e
       0.005835628 0.018076073 0.123815484 0.13273048
0002c0 f8 49 bd 3d df 98 ff 3c 0c 20 45 bd cf ff cc 3d
       0.09242624 0.031200824 -0.048126265 0.10009729
0002d0 b6 08 ca bc 88 9f 54 bc 64 6d c1 bd f0 ec 1b bd
       -0.024662357 -0.012977488 -0.09444693 -0.038067758
0002e0 3d ac a3 bd 39 48 88 3d f5 56 e0 bd f5 d9 d1 bd
       -0.07991836 0.066544004 -0.10954086 -0.1024665
0002f0 ac f4 d0 bc 58 c0 8f bd 3c 72 09 3c e1 6e 50 bd
       -0.025507294 -0.070191085 0.008389052 -0.050886992
000300 32 1c 8e bd 50 eb 0d bc a6 e8 8e 3d 1d a5 8d bd
       -0.069389716 -0.00866206 0.06977968 -0.069162585
000310 c8 d6 75 3d 8a 3f b3 3d cf db ff 3d bf 12 10 bd
       0.060019284 0.087523535 0.12493097 -0.035174128
000320 18 a4 92 3b 0c c5 ac bd bb c6 9f 3d a2 ee 29 bd
       0.004475128 -0.08436021 0.07801577 -0.041487344
000330 f0 e8 5f 3d 3a 2f 5e ba f1 b4 7d bc 42 33 91 bc
       0.054665506 -0.0008475665 -0.015485034 -0.017724637
000340 86 a9 92 b9 6a 50 da 3c 82 9b 55 3c 53 20 b9 3c
       -0.00027973595 0.026649673 0.013037564 0.022598421
000350 8a 8e ca bd c8 71 97 3d 7c ef ba 3d d2 c9 af 3d
       -0.098904684 0.07394749 0.09127709 0.08583416
000360 34 9a 7d 3d 33 f3 a8 bd 9e a3 2b bd cd 4c b8 3d
       0.061914638 -0.082495116 -0.041904084 0.089990236
000370 f7 2e b1 bd c8 21 c1 3d 55 df ac bd 70 b0 9b bd
       -0.08651536 0.094302714 -0.08441035 -0.07602012
000380 3f 1e e7 3c d7 f1 8a bd 5a 51 a3 bb 80 8c c6 3d
       0.028212665 -0.067844085 -0.004984063 0.09694767
000390 33 96 df 3d 56 7e dd 3d 97 55 41 bc 64 27 9b bd
       0.1091732 0.10815112 -0.011800191 -0.075758725
0003a0 6c cb e6 3d c0 b9 1f bc 4a 3d 0f bd f5 b3 06 3d
       0.112692684 -0.009748876 -0.03497056 0.032886464
0003b0 01 a2 97 bd 2b 35 72 3d b3 9f 6f 3d c8 29 b8 bd
       -0.07403947 0.059132736 0.05850191 -0.08992344
0003c0 41 f9 d6 bd 3f b2 c0 bc ae 37 e1 3c 17 57 d3 bc
       -0.1049676 -0.023522494 0.02749237 -0.025798364
0003d0 a9 77 8e bd 74 d8 4b bc 40 4e cd bd 0e e4 99 bd
       -0.06956417 -0.012441743 -0.10024691 -0.07514201
0003e0 4a 8c 72 bd c8 50 c7 3d f0 a2 01 3e 57 21 89 3b
       -0.05921582 0.09732205 0.12659812 0.0041848826
0003f0 d8 92 b6 3c 2b aa 78 3d 29 c9 9c 3c 59 3b 31 bd
       0.022286817 0.06070916 0.01913889 -0.04326949

conv1.bias f4 [40]
000000 a3 e4 1f bd d5 57 1f be 1b b3 fe bd 08 e9 d3 bd
       -0.039036404 -0.15560849 -0.124365054 -0.103471816
000010 a8 82 87 bb 35 94 94 3d e2 03 bc 3d e9 85 c8 bd
       -0.0041354485 0.07254831 0.09180428 -0.09791166
000020 43 17 e4 bc 05 4b 16 be 42 5b 13 3e 25 34 4f 3e
       -0.027843123 -0.14677055 0.14390281 0.20234735
000030 7c 48 48 3e 61 85 a7 3d b2 b4 46 bd 90 b9 42 bc
       0.195589 0.08179737 -0.04851217 -0.011885062
000040 47 23 93 3d a9 f8 2c be ed 19 0b 3c d4 81 26 be
       0.07184463 -0.16891731 0.008490068 -0.16260463
000050 f7 ea 49 be 8d d8 1d bc ed 2b 6b bd fb 17 07 be
       -0.19718538 -0.009634149 -0.057414938 -0.13192742
000060 87 d8 d7 3c ea 7d 8e 3c 1a ad ec 3c dc 15 e2 bd
       0.026348365 0.017394025 0.028891135 -0.110393256
000070 c0 ef 4b be 94 60 0c bb dd 2e aa bd ed ba 8f bd
       -0.19915676 -0.002141987 -0.0830972 -0.07018075
000080 6a 10 10 3e 48 47 fe 3c 37 af bd 3d cf 5a 5b bd
       0.14068761 0.031039849 0.09261935 -0.0535534
000090 90 ed 25 be a5 3d 19 3d ab ef 07 be b0 f1 03 3d
       -0.16203904 0.037412304 -0.1327502 0.032212913

conv2.weight f4 [40, 40, 22, 1]
000000 43 ad 99 bb 26 4d 9c 3a 98 b9 ab bb 41 e0 94 3a
       -0.004689844 0.0011924847 -0.0052406304 0.0011358337
000010 93 c3 83 3b 59 fd c7 3b be a0 02 bc 8c 7d 07 bc
       0.004021117 0.0061031994 -0.007972894 -0.008269679
000020 8c 96 22 ba b7 30 ff bb 76 9a b7 bb 04 83 c3 bb
       -0.0006202243 -0.0077877897 -0.00560313 -0.005966546
000030 59 89 a1 3b ba d6 30 3c fa 0b 16 3c 70 c3 a6 bb
       0.004929703 0.010793382 0.009158129 -0.005089216
000040 3e a9 01 ba 78 85 91 bb 1c 33 1f 3c b7 97 02 3c
       -0.00049461785 -0.0044409595 0.009716775 0.007970742
000050 c3 30 ad 3a 9e f5 84 3c e9 04 de bb 02 5b 82 3b
       0.0013213385 0.0162304 -0.0067754877 0.003978134
000060 eb 6b 91 bb 19 a2 c8 3a 8f 9c af 3b 90 fa 94 3a
       -0.0044379137 0.0015307098 0.0053592394 0.0011366177
000070 2f 71 62 3c 10 32 e2 3b 61 b9 06 3c f9 e1 0e 3c
       0.01382093 0.0069029406 0.008222909 0.008720868
000080 a4 8c 6d 39 ee de d7 3b ed 29 15 3c 24 3f 81 bb
       0.00022654474 0.0065878546 0.009104234 -0.0039442945
000090 98 c4 cc bb 91 1d 0e 3b 5f 8f 92 bb 1e eb a2 3b
       -0.0062490217 0.0021685103 -0.0044726576 0.004971876
0000a0 5c f4 2a bc 4b 96 1a bc b5 cb 33 3b 2b 9a 02 bc
       -0.010434236 -0.009435247 0.0027434651 -0.007971327
0000b0 84 9d 55 3a f0 56 63 bc 7e 03 bf bc 12 79 a6 bc
       0.0008148777 -0.013875708 -0.023317095 -0.020321403
0000c0 14 59 c3 bb 90 ea a5 3c 31 ad 15 3c c4 fe 7e 3c
       -0.0059615467 0.02025345 0.00913553 0.015563671
0000d0 46 17 13 bc 96 61 f3 bc 68 07 1e ba ca 07 45 3c
       -0.008977717 -0.029709619 -0.00060283253 0.012025783
0000e0 4e b4 43 bb f2 8e 0f 3d 88 c2 29 3c 7d 22 69 bc
       -0.0029862109 0.035048433 0.010361321 -0.014229414
0000f0 a7 50 92 bb 16 c6 0c 3c eb 94 84 3c 52 d9 38 3b
       -0.004465181 0.008592149 0.01618429 0.0028205705
000100 5c e1 48 ba 84 1d a2 3c 9c 33 d6 3b a6 98 49 3c
       -0.00076629757 0.019789465 0.006536914 0.012304461
000110 4c d0 a7 3c 25 43 2d 3c b0 d6 04 bb c8 11 01 bc
       0.020485066 0.010575091 -0.0020269565 -0.007877775
000120 3f 59 84 bc b8 ed 53 bc da c9 d6 3b ef 06 aa 3c
       -0.016155837 -0.012935095 0.0065548243 0.02075526
000130 1a c9 c3 3a 2c 3d 62 bc 02 61 b0 bb da 9e a4 bc
       0.0014937252 -0.01380853 -0.005382658 -0.020095278
000140 5b 87 99 3b 2c 0e 75 3c e7 6b 1d 3c 5d d7 39 bb
       0.004685325 0.014956992 0.009608245 -0.0028357126
000150 13 a4 0e bc 27 94 f6 ba a5 86 ce bb 38 75 88 bb
       -0.0087061105 -0.0018812463 -0.006302672 -0.004164364
000160 c4 9b 2d bc 52 43 72 bc 31 77 8e bc 20 0e 0d bc
       -0.010596219 -0.014786558 -0.01739082 -0.008609325
000170 85 3a 6c bc de 25 42 3c 9d 87 02 b8 17 e3 07 3c
       -0.014418249 0.011849849 -3.1120715e-05 0.0082938885
000180 22 13 1e bb a7 81 73 bc 44 1a 4d bc ff 62 d9 3b
       -0.002412029 -0.0148624545 -0.012518469 0.0066341157
000190 53 68 1a bc 98 49 0c 3d 49 15 70 3c 6d 75 00 bc
       -0.009424287 0.034249872 0.014653512 -0.0078404965
0001a0 3a 3e 16 bb cf a3 27 3a 56 f2 82 3c c8 35 ed 3b
       -0.0022925274 0.0006394954 0.015984695 0.0072390772
0001b0 5d c4 18 3c bc f7 50 3c 54 a9 44 bc e8 6c 7c bc
       0.00932416 0.012754377 -0.012003262 -0.015406825
0001c0 79 82 dc bc 3b 63 99 bc 0c 72 dd bb aa 0d 19 3c
       -0.026917683 -0.018724075 -0.00675798 0.009341637
0001d0 04 46 92 3c 8d 7a 7a 3c 8d f0 31 bc 3d b3 d1 bc
       0.017855652 0.015288007 -0.010860574 -0.025598163
0001e0 ca 52 7e bc 58 f4 40 3c b6 88 a5 3b 17 82 07 3d
       -0.015522668 0.011777006 0.0050516976 0.033083048
0001f0 01 5b b9 3b ab 86 e4 bb 5f d3 3b bc 71 68 be 3b
       0.0056566005 -0.0069740615 -0.011463969 0.00581079
000200 e1 3b 65 3c e2 ab 72 ba 39 c2 a6 3b 4c ff 53 3c
       0.013991327 -0.000925718 0.005089071 0.0129392855
000210 86 cc bf 34 3c 48 1d 3c 57 ee 83 3c b7 e8 c3 3b
       3.5725333e-07 0.009599742 0.01610486 0.0059786695
000220 0d 46 e7 3b 3b e6 1d bc 13 7b 2f bc d6 dc 05 bc
       0.0070579113 -0.009637411 -0.0107104955 -0.008170327
000230 99 12 fe 3a 53 cf e0 3c 6e 3c 5c 3c b5 bb 8e bb
       0.0019384205 0.02744261 0.013442142 -0.0043558725
000240 d1 ab 97 bb e6 b4 81 bc 40 79 c3 3b 7c f5 b1 3c
       -0.0046286364 -0.01583333 0.005965382 0.021723501
000250 73 3c 4d 3c 25 15 db 39 6e 3d c1 bb 96 b6 d2 3b
       0.012526619 0.0004178669 -0.0058972156 0.0064304573
000260 62 f6 9b 37 d3 ae 66 bc f5 5a 68 3a e8 e4 94 3c
       1.859217e-05 -0.014079767 0.00088636513 0.018175557
000270 9e 7e 71 3c 25 f6 09 3c f3 04 74 3b 12 c5 d9 ba
       0.014739661 0.008420502 0.0037234395 -0.0016614518
000280 74 b6 8e 3c 26 98 30 3c 9f c5 f0 3b 0b 49 9c 3c
       0.017420985 0.0107784625 0.007347777 0.019077798
000290 12 d8 0c 3c 2e c5 0a bc 80 88 13 3b 52 e1 d1 bc
       0.008596437 -0.008469863 0.002251178 -0.025620136
0002a0 ad d7 82 bc 35 72 ad 3a 6a ad e0 3b f8 cd 4b 3a
       -0.015971983 0.0013232889 0.00685661 0.0007774527
0002b0 71 84 10 bd c1 59 16 bc f8 60 52 3a de 5f 9c bc
       -0.035282556 -0.009176672 0.0008025314 -0.019088682
0002c0 f8 1a cc 3b 6b 27 54 bc 3c 87 fe bb c8 ab 6d bc
       0.006228801 -0.012948851 -0.007767586 -0.014506288
0002d0 86 a1 06 bc fb f3 36 bb e0 ae 3c bc d0 7c 3b bb
       -0.008217221 -0.002791642 -0.011516303 -0.002860833
0002e0 ec c8 28 bb 79 6d 79 bc b1 fd 27 bc 86 a0 15 bb
       -0.0025754524 -0.015223854 -0.010253356 -0.0022831275
0002f0 2f 11 f0 bb f6 06 ea 3b 4f 97 21 3c 44 10 30 3a
       -0.007326267 0.007141943 0.009862735 0.0006716291
000300 ce 24 95 3b fe 88 46 bb c5 a2 e6 3c 07 9c 0c 3c
       0.0045515066 -0.0030294056 0.028153786 0.008582122
000310 e3 c2 c1 3b 75 ea 86 3c 13 95 e4 bb b0 d0 e7 bb
       0.005913125 0.01646922 -0.006975779 -0.007074438
000320 c7 7f 46 bb 2e 69 22 bc d8 98 30 3c 65 cd fa 3b
       -0.0030288564 -0.009912772 0.010778628 0.0076538795
000330 d4 20 89 3c dd c2 72 3c 27 f4 1d 3c 6c ee 0d bc
       0.016739286 0.014816967 0.00964073 -0.008662801
000340 d9 4e 45 ba b1 0a 5f 3c 53 6d a7 3c 0f a4 43 3d
       -0.0007526703 0.013613389 0.020437872 0.04776388
000350 80 2c a7 3c 04 c0 96 bc 9e 16 19 bb a6 86 66 3c
       0.020406961 -0.018402107 -0.0023359428 0.014070189
000360 05 bf 01 3c 35 3f 09 bc a4 62 19 3a 05 ca ee 3a
       0.007919078 -0.008376886 0.00058511854 0.0018218165
000370 dd 0b 0a bb 62 20 4d bc 80 04 ba bc 07 77 7e bc
       -0.00210642 -0.012519928 -0.022707224 -0.015531308
000380 d1 6f 9f ba 46 c4 00 3c fa 93 ad 3c b8 35 a2 3c
       -0.0012164061 0.007859295 0.021188725 0.019801006
000390 d3 e3 3f bc 18 b4 87 bc 80 98 46 bc 97 09 8b 3b
       -0.011712032 -0.016565368 -0.01212132 0.0042430866
0003a0 7c 91 9c 3b dc 46 e9 3c 39 78 31 bb 59 38 54 bc
       0.0047780853 0.028476171 -0.0027079715 -0.012952887
0003b0 fc 06 19 bc d8 3b 70 bb c1 d9 82 3c 0d 6a 56 3a
       -0.009340044 -0.0036656763 0.015972974 0.0008179255
0003c0 90 80 09 3c fe cb 50 3c 50 04 ef 3a eb 56 21 3a
       0.008392468 0.012743948 0.0018235538 0.00061546144
0003d0 22 55 25 3c be 6c 93 39 6f 8d 16 3c 59 f8 b0 3a
       0.010091098 0.00028119044 0.009188994 0.0013501748
0003e0 bc 2b 46 bc 9a ee f6 bb 3f e1 f9 3b a3 8c c3 ba
       -0.012095388 -0.0075357677 0.0076257284 -0.0014919232
0003f0 0b 43 0b 3c 3f 70 71 3b a3 df 91 3b cc 36 47 3c
       0.008499871 0.0036840586 0.0044517084 0.012159061

batchnorm.weight f4 [40]
000000 59 0f 87 3f f0 1c 84 3f 94 55 86 3f 8b b7 86 3f
       1.0551559 1.0321331 1.0494866 1.0524763
000010 2c 71 83 3f ab 8a 7a 3f 80 3b 7b 3f 4e 42 88 3f
       1.0268912 0.9786784 0.98137665 1.0645235
000020 14 eb 85 3f 73 69 86 3f 7b 67 7e 3f dc e3 84 3f
       1.0462365 1.050093 0.9937665 1.0382037
000030 69 2e 84 3f ac 8b 82 3f 8c e3 83 3f 39 e7 87 3f
       1.0326663 1.0198874 1.0303817 1.0617439
000040 6a b6 85 3f 5e 6f 84 3f d7 3b 83 3f f1 60 80 3f
       1.0446293 1.0346487 1.0252637 1.0029584
000050 c8 7c 86 3f 86 ba 80 3f 2f 13 81 3f 49 96 87 3f
       1.050683 1.0056922 1.0083979 1.0592738
000060 54 a2 86 3f 78 1a 86 3f 45 46 7d 3f 32 2f 81 3f
       1.0518289 1.0476828 0.9893535 1.0092528
000070 28 7c 81 3f b1 b6 82 3f 79 e2 87 3f 69 9e 86 3f
       1.0116014 1.0212003 1.0615989 1.0517093
000080 5a e0 7d 3f 45 b2 7f 3f a8 30 7e 3f 74 56 82 3f
       0.9917046 0.9988139 0.99292994 1.0182633
000090 33 63 88 3f d4 24 81 3f 1d 00 87 3f 4f e1 81 3f
       1.0655273 1.0089364 1.054691 1.0146884

batchnorm.bias f4 [40]
000000 01 68 13 bd 86 40 80 bd ef 18 56 3d 54 db ba ba
       -0.035987858 -0.06262307 0.052269872 -0.0014256039
000010 05 44 b2 b9 d0 e9 c8 3c 41 0e 6c 3c 6b 27 bf 3c
       -0.00034001484 0.024525553 0.014407695 0.023334226
000020 47 03 88 3d f0 d9 b9 3c 54 f7 a5 3b ea ac 23 bd
       0.0664125 0.022686929 0.005064884 -0.039959826
000030 0a c3 a9 3d 23 30 19 bd 98 5d 01 be eb 27 ed 3d
       0.08289154 -0.037399422 -0.1263336 0.115798794
000040 78 f9 eb 3c 30 cd 18 3d 30 80 c0 bd 48 cd aa 38
       0.02880548 0.037305057 -0.0939945 8.144468e-05
000050 15 07 52 3d 60 3c 07 3e 51 d0 13 bc f3 8e db 3d
       0.051276285 0.13206625 -0.0090218345 0.10720625
000060 8b d6 3e 3d 08 f0 db bd d9 68 0e be 65 cf 90 bc
       0.046591323 -0.10739142 -0.13907184 -0.017677018
000070 ef b1 33 bd bb f2 01 bd e4 37 59 bd b5 4a 14 3d
       -0.043870863 -0.031725626 -0.053031817 0.03620406
000080 56 0b 30 bc 10 a9 8e 3d fd 9f 2a bc d2 26 57 bc
       -0.01074489 0.0696584 -0.010414121 -0.013131814
000090 82 ae 50 be f7 34 1b 3e ce 7d 11 be 86 27 c2 bd
       -0.2037907 0.15156923 -0.14208147 -0.09480195

batchnorm.running_mean f4 [40]
000000 db bb 0f bd ee 76 dd 3c 67 39 1f 3d 95 c7 27 3d
       -0.035091262 0.02703425 0.038873103 0.04096182
000010 b1 a8 b0 bc 1c f1 6a 3c 51 00 fa 3c d8 60 8c bc
       -0.021564813 0.0143397115 0.030517729 -0.017136022
000020 29 9f 27 ba 5a 7e 85 bb f1 9c c8 3c 4a af b4 bc
       -0.0006394261 -0.0040739 0.024488898 -0.02205624
000030 c7 68 ef bd fd c2 85 bd 2a 48 4a 3c e0 24 e1 bc
       -0.116899066 -0.06531332 0.012346307 -0.027483404
000040 ce e2 23 3c b2 f0 e7 bb a8 f8 7c bd 1d f2 84 3c
       0.010002805 -0.0070782537 -0.061760575 0.01622873
000050 5f e9 a4 bc 38 f6 59 3d 36 69 05 bc 81 42 81 bb
       -0.020130811 0.053213328 -0.00814276 -0.0039446955
000060 83 29 07 bd b3 9a a4 3d 8e 57 77 bd a2 14 2d 3c
       -0.032998573 0.08037319 -0.060386233 0.010564001
000070 b2 f5 b6 bc c7 ea 10 bd c7 d3 42 3b bb 59 a6 3c
       -0.022333954 -0.03538015 0.002972828 0.020306459
000080 7d ef 18 3d 3b da 51 bd f1 96 8e bc cd b0 33 3c
       0.03733777 -0.05123351 -0.017405959 0.010967446
000090 10 84 6d 3b 4e b8 8e bc 58 26 97 3c fb 78 1e bd
       0.0036242045 -0.017421868 0.0184509 -0.038689595

batchnorm.running_var f4 [40]
000000 a2 83 5b 3e 5d aa 92 3e 5b 13 1c 3e 08 00 e8 3e
       0.21436933 0.28645602 0.15241759 0.45312524
000010 98 97 8e 3e 04 9d 9a 3e 95 1a 71 3e 51 f0 cc 3d
       0.27850032 0.30197918 0.23545296 0.10006774
000020 bb 3c 19 3e 5f 4c 7e 3e 5d 73 6b 3e 8d 51 0a 3e
       0.14964573 0.24833821 0.22993226 0.13507672
000030 7c 5a cd 3d fa 86 c5 3e 6d 62 13 3f dc 2c 8b 3e
       0.10027024 0.3857954 0.5757206 0.27182662
000040 25 93 d8 3d 5d 46 a0 3e c5 2d 2f 3e 42 50 32 3e
       0.105749406 0.31303683 0.17107303 0.17413428
000050 27 76 10 3e b4 86 02 3f 1a 1d 37 3e 40 8d 77 3e
       0.14107572 0.5098679 0.17882195 0.24174976
000060 88 0a 36 3e 5b d7 69 3e cf 5e 1c 3f 41 45 47 3e
       0.17777455 0.22836058 0.61082166 0.19460012
000070 b6 7e 0d 3f f2 a6 79 3e de cd b0 3e 53 02 80 3e
       0.5527147 0.24380091 0.34532064 0.25001773
000080 9c 20 7b 3f c6 d1 e6 3e c0 e8 5e 3e 55 1a 9f 3e
       0.9809663 0.4508192 0.21768475 0.31074777
000090 c2 6d 7b 3e 9a 07 9a 3e 7f c6 1c 3e 3a d6 d9 3e
       0.24553588 0.30083925 0.15310095 0.42546254

dense.weight f4 [4, 2840]
000000 e1 4a f3 bb 55 06 82 3b 51 f4 aa bc 65 ed 27 bd
       -0.0074246977 0.00396804 -0.020868452 -0.04099788
000010 d8 4e 14 bd 1c 1b 2a bc 97 40 56 bb d7 8d 8d 3c
       -0.036208004 -0.01038244 -0.0032692307 0.017279549
000020 5d 3c 14 3d c3 c1 a3 3c 5c 7d a2 3b 1c 1e 98 3b
       0.03619038 0.019989854 0.0049587917 0.004642261
000030 f3 c9 98 3b 35 58 69 3c 2d c8 23 bc f5 ec c5 bc
       0.004662746 0.014242222 -0.009996456 -0.024160841
000040 f1 19 ce bc 4d 9b bd 3c 41 b4 cd ba 3f e0 ce 3c
       -0.025158854 0.023145342 -0.0015693979 0.025253413
000050 3f e1 62 3b 30 88 52 3b 94 af 09 bc 18 78 b5 bb
       0.003461912 0.003212463 -0.0084036775 -0.005537998
000060 6a 28 83 3c af ea 5c bc 71 71 3d 3c 92 dd 9a 3c
       0.016010482 -0.013483687 0.011562691 0.018904481
000070 1c 3a 2b 3c 1b f4 a2 3c 99 73 74 bb 44 89 13 3c
       0.010450866 0.01989179 -0.0037300347 0.009004895
000080 88 04 61 bc 35 68 bf 3b 3e b1 40 3d f3 97 73 3c
       -0.0137339905 0.00584128 0.04704403 0.0148677705
000090 8c ac 93 3c 9e 7a 27 3d 26 39 81 3c aa a2 8b 3c
       0.018026613 0.04088842 0.01577432 0.017045338
0000a0 af 54 eb 3c 0f 3d d8 3b ab 15 93 3c 4c d3 22 3c
       0.028726904 0.0065990756 0.017954668 0.009938072
0000b0 e0 68 df ba 7c 43 cd 3a dc 7f 16 3b e2 fe 01 3c
       -0.0017044805 0.0015660371 0.0022964394 0.007934304
0000c0 bb 6c df 3b 18 0d 20 ba b5 55 33 bc 41 e8 91 3b
       0.0068183816 -0.0006105467 -0.010945727 0.0044527357
0000d0 8e ed 27 3c 34 02 9e bb 22 00 08 3d db 55 72 3b
       0.010249509 -0.00482204 0.03320325 0.0036977443
0000e0 bd 25 50 3d 1d 28 84 3d ed 77 38 3d 8d c0 23 3d
       0.05081724 0.064529635 0.045036245 0.039978553
0000f0 cb d2 1e 3d ee 7f 19 3c ea 47 36 bc 24 c0 86 bc
       0.038775247 0.00936888 -0.011125544 -0.016449042
000100 75 d9 82 bc e9 d7 b5 ba fa d5 86 3c f7 d2 01 3d
       -0.015972832 -0.001387355 0.016459454 0.031695332
000110 33 00 fa 3c 64 35 0b 3d c9 aa 93 3c 99 21 e0 3c
       0.030517673 0.033986464 0.018025773 0.02735977
000120 6a 27 10 bd 8c bc 49 bd 1d a5 2a bd e2 57 5d bd
       -0.03519384 -0.049252078 -0.04166137 -0.05403889
000130 59 c9 db bc bc 8f 13 bb 68 3a dc 3c 03 27 a0 3c
       -0.026829408 -0.0022516092 0.026883319 0.019549852
000140 df b5 49 3b e1 13 72 3c d9 64 b0 3c 71 a7 10 bc
       0.003077857 0.014775247 0.021532463 -0.008828984
000150 dc ef 7c bc b1 5e aa 3c 8e 92 70 bc 90 a5 55 bc
       -0.015438046 0.020797106 -0.014683379 -0.013039961
000160 ce a3 29 3b b5 39 7b bc 46 d2 e1 bc 47 a9 1d bc
       0.0025884989 -0.015333583 -0.027566087 -0.009622878
000170 90 e2 00 bc cc e7 26 bc c8 30 c9 bc fa 08 b4 bb
       -0.007866517 -0.010187101 -0.024559394 -0.005494234
000180 7d bc c2 bc 7d 6f 28 bc 12 b6 b7 bc 25 6d 86 bb
       -0.023771519 -0.010280487 -0.022425685 -0.0041023665
000190 f5 2e 12 bc 0a 70 af bc c2 08 cd bc e3 8f e8 bc
       -0.008922328 -0.02141573 -0.02502859 -0.028388923
0001a0 af c0 ac bb b5 92 50 3c 62 39 30 3d 03 ef 40 3c
       -0.005271993 0.01273029 0.043023475 0.011775735
0001b0 87 f7 36 3c 3e 9a b1 3b ae b2 77 3c 99 e4 54 ba
       0.011167414 0.0054199984 0.015118284 -0.0008121222
0001c0 19 12 cd 3c 5f 01 de 3b 14 ee e0 3c 23 54 90 bb
       0.025033044 0.006775066 0.027457274 -0.004404561
0001d0 cc 62 ac bc 3f 17 35 bc c8 2d 54 bb e7 a7 64 bc
       -0.021043204 -0.011052906 -0.003237592 -0.013956047
0001e0 34 bc 92 3c f6 ec 3d bc 41 f6 96 bc 0e c2 83 bc
       0.017912008 -0.01159214 -0.01842797 -0.016083743
0001f0 22 a5 ce bc 58 18 9e bc 56 1d ef bc a0 dd 84 3c
       -0.025225226 -0.019298717 -0.029188793 0.01621896
000200 d6 ed 96 bc b4 db 9a 3b 53 54 a5 3a 1e b3 12 3c
       -0.018423956 0.0047258977 0.0012613632 0.008953838
000210 e5 52 b7 bb 62 a5 74 3c 7b ac b0 bc 91 cd 7f bc
       -0.0055945986 0.014932008 -0.02156662 -0.015612976
000220 d5 95 32 bc 79 eb e1 bc ad 8a 03 3b 3c aa ba 3b
       -0.010899981 -0.027578102 0.002007167 0.005696563
000230 31 33 82 3c 83 9f 99 ba e9 06 49 3c 88 11 a6 3b
       0.01589355 -0.0011720512 0.012269714 0.005068008
000240 02 58 1d 3b d8 28 56 3b c9 34 d8 3b 13 3d 18 3d
       0.0024008756 0.0032678153 0.0065980894 0.03716762
000250 a6 26 24 3d 7a 7b 97 3c 0d 1a 68 3c 3a 9d bb ba
       0.04007592 0.018491495 0.014166367 -0.0014313825
000260 7a 8f 32 3c 5f 6d a9 bb 50 24 52 3c 35 b6 a5 3b
       0.010898465 -0.0051705088 0.01282604 0.005057121
000270 be bf 4e 3c 74 4b 9c bc 55 90 a4 bc 24 cc 8c bc
       0.012618957 -0.019078948 -0.020088354 -0.017187186
000280 30 b9 00 bd 6f ac 54 3b 0b 16 5f bc 0a b0 68 bc
       -0.03142661 0.0032451411 -0.013616095 -0.014202127
000290 45 40 f8 bc 44 d5 fc bc 9c fe c0 bb ae 3d af bc
       -0.030304084 -0.030863412 -0.005889727 -0.021391716
0002a0 1f a7 cc bc 00 54 0c bd 69 a7 85 bb ba 5a c8 bc
       -0.024982033 -0.034259796 -0.0040787947 -0.024457324
0002b0 52 f0 42 bd a9 cb 4e bd 4c 01 45 bd 9b 1d 19 bd
       -0.04759247 -0.050487194 -0.04809694 -0.03738175
0002c0 82 89 36 bd 14 fa 1e bd 9c d8 0a bd a0 19 82 bc
       -0.04456473 -0.03881271 -0.03389798 -0.01588136
0002d0 75 b0 1b bd 55 dd 98 bc 5b ee fd bc d2 b0 c1 bc
       -0.03801008 -0.018660227 -0.030997446 -0.023643885
0002e0 de 56 d1 bc c4 97 1a bd da c0 02 bc 63 ae 98 bc
       -0.025554117 -0.03774239 -0.00798055 -0.018637842
0002f0 8c f2 43 3c d1 3e 71 3c a2 e3 09 bc ce 50 4c bc
       0.011959683 0.014724449 -0.008416088 -0.012470437
000300 0c 56 1e bd 5e fa 61 bc d3 0c 2f bc b5 4e 01 bd
       -0.03865628 -0.013792602 -0.01068421 -0.0315692
000310 54 05 0c bd 84 1f ad bb 32 58 26 3b 5b b2 20 3d
       -0.03418477 -0.005283298 0.0025382158 0.039232593
000320 e5 a1 9a 3c 96 17 7e bc 85 36 3f 3c 74 70 bf bc
       0.018876025 -0.015508553 0.011670713 -0.023369052
000330 71 3c 5b bd 05 8f 04 bd 11 c6 3b bd 89 40 41 bd
       -0.05352444 -0.032362957 -0.045843188 -0.047180686
000340 15 e8 8a bc 0b 6f 32 bc 07 b7 33 bb 99 d4 92 3a
       -0.016956368 -0.0108907325 -0.0027422325 0.0011202275
000350 98 75 c7 3b c4 f8 a0 3b 99 e7 eb ba c8 26 7a bc
       0.0060870163 0.0049124677 -0.0017998099 -0.015268035
000360 67 58 a1 bc 8d 79 af ba c2 ab 74 3c f4 a7 00 3d
       -0.019695474 -0.0013387665 0.014933528 0.031410173
000370 38 b7 74 3c d0 9c e9 3c 31 19 0c 3d 0e 1c 38 3d
       0.014936261 0.028517157 0.034203712 0.04494863
000380 93 82 68 3d 47 65 93 3c c0 b1 7e bc ed 06 a1 bc
       0.05676515 0.017992629 -0.015545309 -0.019656623
000390 be c9 5c bd 0a 0e 53 bd 19 86 cf bc ce 19 2f bd
       -0.053903334 -0.05152706 -0.025332497 -0.04274922
0003a0 2c c0 91 bc 25 6a b7 bc 48 83 f5 bc 3f a1 e4 bc
       -0.01779183 -0.02238948 -0.029969826 -0.02790892
0003b0 1f 09 0e bd 7d 3e 6f bd 09 8d 87 bd 9d b7 13 bd
       -0.034676667 -0.058409203 -0.06618697 -0.03606378
0003c0 74 65 55 bc e5 6b 8d bc 58 96 54 bc e0 5b 81 3c
       -0.013024677 -0.017263362 -0.012975298 0.01579088
0003d0 94 a8 30 bd d9 7b f5 bc 41 bf 4e bd cd 1b e7 bc
       -0.04312952 -0.029966282 -0.050475363 -0.028211499
0003e0 cc 00 f9 bc c7 9e e6 bb ff fa e2 bb be f7 59 bc
       -0.030395888 -0.0070379707 -0.0069268937 -0.013303695
0003f0 e0 05 19 3b 12 2a 85 bc 75 6a 3f bd b0 60 30 bd
       0.002334945 -0.016255412 -0.046732385 -0.04306096

dense.bias f4 [4]
000000 df 97 af ba 66 f8 c7 bb ea 4a 29 3b dd b5 aa 3c
       -0.0013396702 -0.0061026094 0.0025832006 0.020838672
