EEG-ATCNet/results_pytorch_gpu2/saved models1/run-1/subject-4.pth (torch, 194183 bytes, 9 tensors)

conv1.weight f4 [40, 1, 1, 25]
0	0x3d7d0479	0.061771844
1	0xbd2fea4e	-0.04294806
2	0xbc82387c	-0.015896074
3	0x3d657e02	0.056028374
4	0xbdc782a4	-0.097417146
5	0x3d8ebeb8	0.069699705
6	0xbc9dddc9	-0.019270794
7	0x3d72b5fa	0.059255578
8	0x3c962970	0.018330306
9	0xbc33372b	-0.010938446
10	0x3d06734d	0.032824803
11	0x3c11966b	0.00888596
12	0x3d2ac359	0.041690204
13	0xbd236131	-0.03988761
14	0xbbaded03	-0.005307795
15	0xbbf647bb	-0.007515875
16	0x3c939432	0.018015001
17	0x3a813611	0.0009858032
18	0x3dc65ef0	0.09686077
19	0x3d10215d	0.035188068
20	0xbd208e5f	-0.039198276
21	0xbd848380	-0.06470394
22	0xbc7c1306	-0.015385395
23	0xbd3763fc	-0.044773087
24	0xbd067d9b	-0.03283463
25	0x3b6c2ce8	0.0036037508
26	0x3d8420a3	0.064515375
27	0x3d71be6f	0.059019502
28	0xbdda5e74	-0.10662547
29	0x3d894861	0.06703258
30	0x3cef1375	0.029184083
31	0x3dd15359	0.102209754
32	0x3d8d5410	0.06900799
33	0xbdd1949f	-0.10233425
34	0xbdd83efb	-0.105588876
35	0xbd5fa6e6	-0.054602526
36	0x3dc35623	0.09537914
37	0xbc917701	-0.01775694
38	0x3d4043bc	0.046939597
39	0xbd472e54	-0.048628166
40	0x3de2437f	0.1104803
41	0xbd2daef1	-0.042403165
42	0x3db0e193	0.08636775
43	0x3baf6804	0.005352976
44	0xbd58e815	-0.052955706
45	0x3d77ebf1	0.060527746
46	0xbd5ba974	-0.0536284
47	0x3d11e074	0.035614446
48	0xbce55c6a	-0.027998168
49	0xbc1a77a2	-0.009427937
50	0xbdde6a1f	-0.10860085
51	0xbd64daff	-0.055872913
52	0x3d62f4dc	0.055409297
53	0xbcf50702	-0.029910568
54	0x3dd6f3c0	0.104957104
55	0x3dab471c	0.083631724
56	0xbbf6921e	-0.0075247427
57	0xbd989302	-0.074499145
58	0x3d84fb32	0.06493224
59	0x3d04016d	0.032227922
60	0xbd93a00c	-0.07208261
61	0x3d8dbd85	0.069209136
62	0x3d856276	0.065129206
63	0x3dc46559	0.09589643
64	0xbd7d686c	-0.061867163
65	0xbc98d142	-0.01865447
66	0xbb163ffb	-0.002292632
67	0x3c826c7f	0.015920876
68	0xbdab84f2	-0.08374967
69	0xbda20e53	-0.079128884
70	0x3d6d7d06	0.05798056
71	0xbcdee8c9	-0.02721061
72	0x3d535b9b	0.051601034
73	0x3b97c9d7	0.0046322155
74	0x3d0c7138	0.03428766
75	0x3cd6c6cf	0.026217846
76	0x3d2ade40	0.04171586
77	0x3d631b47	0.055445936
78	0xbdcabefb	-0.09899708
79	0x3d64804b	0.055786412
80	0xbd9fa63f	-0.07795381
81	0xbda9f63b	-0.08298918
82	0x3b841947	0.0040313336
83	0xbcb402a4	-0.021973915
84	0x3d78fb8f	0.06078678
85	0xbd849a80	-0.06474781
86	0xbdc4ccd3	-0.096093796
87	0x3da91451	0.08255828
88	0xbc482369	-0.012215474
89	0x3d894a23	0.067035936
90	0x3d2596e0	0.04042709
91	0xbd9cc7b7	-0.0765528
92	0x3ce0c78a	0.027438898
93	0x3d01e3eb	0.0317115
94	0xbd8ac306	-0.06775479
95	0xbd444e3b	-0.04792617
96	0x3d29c6be	0.0414493
97	0x3cbe5bf6	0.02323721
98	0xbd30bcc8	-0.043148786
99	0xbcf3f282	-0.029778723
100	0x3dccae68	0.09994203
101	0xbc989dd1	-0.01862994
102	0x3d82502d	0.063629486
103	0x3d416068	0.04721108
104	0xbd94ac8b	-0.072594725
105	0xbdc2caa8	-0.0951131
106	0x3dd1a7a7	0.10237055
107	0x3b605334	0.003422928
108	0x3d93e9fe	0.07222365
109	0x3ca2d135	0.019875148
110	0x3d0437bc	0.032279715
111	0x3da14f68	0.07876474
112	0x3dc886f6	0.09791367
113	0xbd9f93fe	-0.07791899
114	0x3c07fb8b	0.008299719
115	0x3d9bff57	0.076170616
116	0x3d97b563	0.07407644
117	0x3d7f68dc	0.06235586
118	0xbdadb6f3	-0.084821604
119	0xbdade212	-0.08490385
120	0xbd94ba64	-0.07262114
121	0x3bdcf6f0	0.0067433044
122	0x3dd3c62e	0.10340534
123	0xbd99f282	-0.07516958
124	0x3d56c19b	0.05243073
125	0xbd78753f	-0.06065869
126	0xbdd1929e	-0.10233043
127	0xbcba51db	-0.02274411
128	0x3d835bd5	0.06414
129	0x3dd45d12	0.10369314
130	0xbd857a1a	-0.0651743
131	0x3cd7fb6f	0.02636501
132	0x3dc6f4e5	0.09714679
133	0x3d9a8fea	0.07546981
134	0x3d9167b1	0.07099856
135	0x3da46409	0.08026893
136	0x3d91996a	0.071093395
137	0x3cf3f7d2	0.029781256
138	0xbd9783af	-0.073981635
139	0xbdba52cd	-0.09097824
140	0xbd4cc516	-0.049992643
141	0xbc43a2dd	-0.011940685
142	0xbd8867e7	-0.06660443
143	0x3d22c509	0.03973869
144	0x3d0941b6	0.033509932
145	0xbcbeb446	-0.02327932
146	0x3d36152a	0.044453777
147	0x3d1feff6	0.039047204
148	0x3d8e27a7	0.06941157
149	0x3d9acbdd	0.07558415
150	0xbd1e700f	-0.038681086
151	0x3dd6c7ab	0.104873024
152	0xbc6f8c06	-0.0146207865
153	0xbbb87c0f	-0.0056300233
154	0xbdd73773	-0.10508623
155	0xbd93e0f3	-0.0722064
156	0xbd85a455	-0.065254845
157	0xbd431cad	-0.04763477
158	0x3d9e946e	0.077431545
159	0xbd1108bb	-0.035408717
160	0xbda6355c	-0.08115646
161	0x3d2d943d	0.0423777
162	0x3d0f1777	0.034934487
163	0x3d90be08	0.070674956
164	0xbd6bc0d2	-0.057556935
165	0x3cada362	0.021196071
166	0xbd309849	-0.04311398
167	0xbcef0f61	-0.029182138
168	0xbdba65ef	-0.091014735
169	0xbd5b32d4	-0.05351527
170	0xbd1bb339	-0.038012717
171	0x3d315c81	0.04330111
172	0x3c89212c	0.01673945
173	0x3cd261e0	0.025681436
174	0x3ddced57	0.107874565
175	0x3dd5dd91	0.10442651
176	0x3d949e95	0.072568096
177	0x3afe7bd3	0.0019415565
178	0xbd9b4adf	-0.0758264
179	0x3dace446	0.08441977
180	0xbcdd78cb	-0.027035138
181	0xbbddf178	-0.00677317
182	0xbdbabb79	-0.09117789
183	0xbc95349d	-0.018213565
184	0xbd89613f	-0.06708001
185	0x3dd4735c	0.103735656
186	0xbdbc2492	-0.09186663
187	0xbdac3f7c	-0.08410546
188	0xbb3cd732	-0.002881479
189	0xbd7004d1	-0.058598343
190	0x3d1ec88c	0.038765475
191	0xbd2b44b8	-0.041813582
192	0xbd4977ae	-0.0491864
193	0x3c119098	0.0088845715
194	0x3da7bf8c	0.081908315
195	0xbd98db29	-0.074636765
196	0x3d5af2fe	0.05345439
197	0x3d936eb6	0.07198851
198	0x3ddc089b	0.10743829
199	0xbd9ca933	-0.0764946
200	0x3cc9e8fe	0.024647232
201	0xbda4bb13	-0.08043494
202	0x3dbd1292	0.09232058
203	0xbd3588a6	-0.04431977
204	0x3d81d11d	0.06338713
205	0x39dd5219	0.00042213572
206	0xbc2d6cda	-0.010585034
207	0xbb829bb6	-0.0039858473
208	0x3c943ed6	0.018096369
209	0x3d52477d	0.051337708
210	0x3c90f02a	0.017692644
211	0x3d06ee94	0.03294237
212	0xbdc9dde3	-0.09856775
213	0x3da1b282	0.07895376
214	0x3dc3b0b9	0.095551915
215	0x3db967b1	0.09052981
216	0x3da74241	0.08166934
217	0xbd9aa684	-0.075512916
218	0xbd1a6824	-0.037696972
219	0x3dcbb728	0.09947044
220	0xbda30760	-0.07960391
221	0x3dcf57c2	0.1012416
222	0xbdae0e07	-0.08498769
223	0xbd9f9224	-0.07791546
224	0x3d551b00	0.052027702
225	0xbd9a2df4	-0.07528296
226	0xbcb098b2	-0.021557186
227	0x3dabc914	0.08387962
228	0x3dba4d5a	0.09096785
229	0x3ddaa417	0.10675829
230	0xbca80c3f	-0.020513652
231	0xbdaa27dd	-0.083083846
232	0x3ddebc72	0.10875787
233	0xbcb28d4f	-0.021795897
234	0xbd2b5dd1	-0.041837517
235	0x3cf5f5d5	0.030024448
236	0xbd92f8ca	-0.07176359
237	0x3d9d5371	0.07681931
238	0x3d977444	0.07395223
239	0xbda93ad3	-0.08263173
240	0xbdb08a23	-0.086200975
241	0xbbd88a26	-0.0066082655
242	0x3d4c70f4	0.049912408
243	0xba9464fd	-0.0011321601
244	0xbd5c6c0c	-0.05381398
245	0x3b4f3c10	0.0031621493
246	0xbdcfb973	-0.101427935
247	0xbd9a5918	-0.075365245
248	0xbd916edc	-0.07101223
249	0x3dc06b61	0.09395481
250	0x3dc81c64	0.0977104
251	0xbd11ee1c	-0.03562747
252	0x3bfe5bc7	0.0077624056
253	0x3d581e31	0.052763168
254	0x3c86faf9	0.016477095
255	0xbd56e21b	-0.052461725

conv1.bias f4 [40]
0	0xbd30b09f	-0.04313719
1	0xbe1d3593	-0.15352468
2	0xbdf72bdf	-0.120689146
3	0xbdd48501	-0.10376931
4	0xbc0424a3	-0.0080653755
5	0x3d9ff0bb	0.078095876
6	0x3dc50efb	0.09621998
7	0xbdc73ae8	-0.09728032
8	0xbd0478b8	-0.03234169
9	0xbe1cf3c7	-0.15327369
10	0x3e1948a9	0.14969124
11	0x3e4b49e9	0.19852413
12	0x3e486dca	0.19573131
13	0x3da57dc9	0.08080632
14	0xbd3117fe	-0.04323577
15	0xbbc70a3e	-0.006074219
16	0x3d95a9e0	0.07307792
17	0xbe31c1ee	-0.17359135
18	0x3c4f6187	0.01265753
19	0xbe292519	-0.16518058
20	0xbe4a0b30	-0.1973083
21	0xbbe397b8	-0.0069455765
22	0xbd83e6ff	-0.064405434
23	0xbe01a5f5	-0.12660964
24	0x3d13045c	0.03589283
25	0x3c152b87	0.009104616
26	0x3ce2d33d	0.027688617
27	0xbde9138f	-0.11380684
28	0xbe4c1205	-0.19928749
29	0x3bb87c92	0.0056300843
30	0xbda54678	-0.080700815
31	0xbd86c038	-0.065796316
32	0x3e15d89b	0.1463341
33	0x3d1029fa	0.035196282
34	0x3db648c8	0.08900601
35	0xbd63b8bc	-0.0555961
36	0xbe236134	-0.15955049
37	0x3d2909b6	0.041269027
38	0xbe087646	-0.13326368
39	0x3cc9dda3	0.024641817

conv2.weight f4 [40, 40, 22, 1]
0	0xbc8db00c	-0.01729586
1	0x3c17ebcf	0.00927253
2	0xbc888816	-0.016666453
3	0x3c36210e	0.011116279
4	0x3c0fe801	0.008783341
5	0x3c4132e6	0.01179192
6	0x3bd49af4	0.0064881984
7	0x389ec1c5	7.5701195e-05
8	0xbbacd032	-0.0052738423
9	0xbb90b7b3	-0.00441643
10	0xbc2fa0f6	-0.010719528
11	0xbc94da67	-0.018170549
12	0x3c78839e	0.015168099
13	0xbb62fc89	-0.0034635386
14	0x3b7d7923	0.003867694
15	0xbb627a6c	-0.0034557832
16	0x3ae0a8ef	0.001714019
17	0xbc4c975a	-0.012487257
18	0xbc94c0b1	-0.018158289
19	0x3c204b74	0.009783614
20	0x3ba11285	0.004915538
21	0x3bdbc823	0.0067072078
22	0xbc7da9c1	-0.015482367
23	0x3b7c64e9	0.0038512296
24	0xbc6b43b7	-0.014359406
25	0x3843005d	4.649196e-05
26	0xbafe5a8b	-0.0019405646
27	0xbc70460d	-0.014665139
28	0xbc969928	-0.018383577
29	0x39fcab57	0.00048192844
30	0x3c7bda21	0.01537183
31	0x3c73e6a4	0.014886532
32	0xbc4d4818	-0.0125293955
33	0xbbb7162e	-0.005587361
34	0xbc914b36	-0.017736059
35	0xbc7cde3f	-0.015433847
36	0xbc02e973	-0.007990229
37	0x3c7b0ca9	0.015322843
38	0xbbd91ec1	-0.0066259806
39	0xba70e36e	-0.0009189163
40	0x3c82378e	0.015895631
41	0x3ad66d96	0.0016359563
42	0x3c5605df	0.013062923
43	0x3c4dc42e	0.01255898
44	0x3cb32025	0.021865914
45	0x3bfc2728	0.0076950975
46	0xbc128803	-0.0089435605
47	0xbc1fd8af	-0.009756251
48	0xbbf7475c	-0.0075463485
49	0x3c473689	0.012158998
50	0x3c428e88	0.011874802
51	0x3bca186f	0.0061674635
52	0xbc57f270	-0.01318036
53	0xbc56f134	-0.013119031
54	0x3c5d88ff	0.013521432
55	0xbb9e54b1	-0.0048318733
56	0xbca02bf1	-0.019552203
57	0xbb95bfdc	-0.0045699906
58	0xbc067e0d	-0.008208764
59	0xbb26f93a	-0.002547814
60	0x3b91961f	0.0044429447
61	0x3b854454	0.0040669832
62	0xbca6b7b9	-0.020351278
63	0xbbdaa9f8	-0.006673094
64	0xbc6b241d	-0.014351872
65	0x3bc5593a	0.0060225995
66	0x3ba5a61f	0.0050552036
67	0x3bdb220e	0.0066874092
68	0x3c3b2e4f	0.011424615
69	0x3bbb1efe	0.0057104817
70	0xbc77dabb	-0.015127833
71	0x3c1219c6	0.008917278
72	0xbc77ce9d	-0.015124944
73	0xba9226c9	-0.0011150475
74	0x3a6db56a	0.00090678653
75	0x3cb83ac6	0.022488963
76	0xbbe35259	-0.006937307
77	0xbc474cf5	-0.012164344
78	0xb9a5c2a3	-0.00031616268
79	0x3bd87423	0.0066056415
80	0x3ca0e2e1	0.019639434
81	0x3ca634a9	0.020288782
82	0x3ca0bd90	0.01962164
83	0x3c38d792	0.011281865
84	0x3a7eb69e	0.0009716543
85	0x3b0c175d	0.002137623
86	0xbb785f10	-0.0037898459
87	0x3c150322	0.009094985
88	0xbc22afb1	-0.009929583
89	0x3c096f44	0.008388344
90	0x3c56db2a	0.013113776
91	0x3c8c61a1	0.017136397
92	0xbc98362b	-0.018580517
93	0x3c498817	0.012300513
94	0xbc480539	-0.012208276
95	0xbaf296a9	-0.0018508035
96	0x3c750452	0.014954643
97	0x3c0809aa	0.008303085
98	0xbbeff85c	-0.007323308
99	0x3c076e50	0.008266047
100	0xbca221e4	-0.019791551
101	0x3c3ed124	0.011646543
102	0x3c667357	0.014065585
103	0xbb44d587	-0.0030034499
104	0x3a49b338	0.0007694247
105	0xbbc9de7c	-0.0061605554
106	0xbc71be9d	-0.014754918
107	0xbc38d274	-0.011280645
108	0xbb71bdf0	-0.0036886893
109	0xbc8f6b00	-0.017507076
110	0xbc16643c	-0.009179171
111	0x3ba9d9ed	0.0051834495
112	0xbbd60712	-0.0065316046
113	0xbba2bd25	-0.0049663954
114	0x3a554a8b	0.0008136413
115	0xbc4d0114	-0.012512464
116	0x3ca11c35	0.01966677
117	0xbba66cd2	-0.0050788904
118	0xbc26a610	-0.010171428
119	0xbbd99902	-0.0066405544
120	0xbc8719ea	-0.016491849
121	0x3bd0bb6e	0.0063699996
122	0x3c4ef3e3	0.012631389
123	0xbc609760	-0.013707966
124	0xbc47c127	-0.012192047
125	0x3c4c9306	0.012486225
126	0xbc8a87d4	-0.016910471
127	0x3a858862	0.001018774
128	0xbcab306e	-0.020897117
129	0xbcb24425	-0.02176101
130	0xbbc18abb	-0.0059064305
131	0xbc8475e2	-0.016169492
132	0x3c145742	0.009054007
133	0xbb9f23a6	-0.0048565445
134	0x3b2af5e0	0.0026086494
135	0xbbc1f082	-0.0059185633
136	0x3c451a7d	0.012030241
137	0x3cac4cdd	0.021032745
138	0x3a643f33	0.0008706927
139	0xbbe9980d	-0.0071287216
140	0xbc44b06b	-0.012004952
141	0x3cb8c1b7	0.022553308
142	0x3c4e5364	0.012593124
143	0x3c48897b	0.012239809
144	0x3be66198	0.007030677
145	0x3c709e01	0.014686109
146	0x3c498eb2	0.012302088
147	0x3c642e17	0.013927004
148	0x3c8482a7	0.016175581
149	0x3beea837	0.0072832364
150	0x3ca13bf4	0.019681908
151	0x3c787f2d	0.01516704
152	0x3b274f61	0.0025529491
153	0xbbbd2423	-0.00577213
154	0x39792a9b	0.00023762362
155	0x3c74baf3	0.01493715
156	0x3c4ee81b	0.01262858
157	0xbbe278b6	-0.0069113625
158	0xbafcbeab	-0.0019282898
159	0x3c0f8193	0.00875892
160	0x3c176bfe	0.009242056
161	0x3ca2198d	0.019787574
162	0x3c374267	0.011185265
163	0x3c07d1c4	0.008289758
164	0x3bd652a4	0.0065406132
165	0xbc6df553	-0.014523822
166	0xbbaa8af9	-0.005204555
167	0x3bbc89e7	0.005753744
168	0xbbfb4632	-0.00766828
169	0xbc350590	-0.0110486895
170	0x3c726c19	0.01479628
171	0x3c04008d	0.008056772
172	0xbc145cd2	-0.009055333
173	0x3bc9eb33	0.006162071
174	0x3c6f7e6c	0.014617544
175	0x3c74b2fb	0.01493525
176	0x3c94bd26	0.0181566
177	0xbb9ec57f	-0.0048453207
178	0x3c132010	0.008979812
179	0xbc51f483	-0.012814644
180	0xbb83fe75	-0.0040281364
181	0xbc664bf7	-0.014056197
182	0xbb91d243	-0.004450114
183	0x3c1cb9d4	0.009565789
184	0x3bf16967	0.0073673013
185	0xbc398336	-0.011322787
186	0xbbdaa299	-0.006672215
187	0xbbd02cdf	-0.0063530053
188	0xbc1b4654	-0.009477217
189	0xbc42a4c5	-0.011880104
190	0x3c1cf177	0.009579054
191	0x3c1c106a	0.009525398
192	0x3c4823dd	0.012215582
193	0xbc440c87	-0.011965877
194	0x3c1a2a4d	0.009409499
195	0xbc0fa1b3	-0.008766579
196	0xbbd097b6	-0.0063657416
197	0xbbc32663	-0.005955504
198	0xbb0e3a6e	-0.0021702307
199	0xbc2e8597	-0.0106519675
200	0x395515f0	0.00020321435
201	0xbc52f73a	-0.012876326
202	0x3c18f669	0.0093360925
203	0xbc324294	-0.010880131
204	0xbc34dcca	-0.011038968
205	0xbc7ce943	-0.015436473
206	0x3c2ed5df	0.010671108
207	0x3c469bd8	0.012122117
208	0xbc437546	-0.011929816
209	0xbbe88e3d	-0.0070970342
210	0x3c96d886	0.018413793
211	0x37da31c2	2.6010795e-05
212	0x3c3db036	0.0115776565
213	0xbc58a033	-0.013221788
214	0x3c40904c	0.011753153
215	0x3c5a4550	0.013322189
216	0xbc113918	-0.00886371
217	0xbad31376	-0.0016103822
218	0x3c66ad7c	0.014079448
219	0x3aaea1a4	0.0013323319
220	0x3c020665	0.007936095
221	0x3b449de5	0.003000134
222	0xbb91e74c	-0.0044526216
223	0xbc06d8c2	-0.00823039
224	0x3c8a8c3d	0.016912574
225	0xbb7eac1b	-0.0038859907
226	0x3c8ecf8c	0.01743295
227	0x3c81714b	0.015801093
228	0xbc1fdd24	-0.009757314
229	0xb8c41a6d	-9.3509305e-05
230	0xbbd638d0	-0.0065375343
231	0xbb4829c2	-0.0030542468
232	0x3c0cfb54	0.008604843
233	0x3bf40bc7	0.007447693
234	0xbc66ef5f	-0.014095156
235	0xbc3e8eb6	-0.011630705
236	0xbc8052c1	-0.01566446
237	0xbc9331ea	-0.017968137
238	0x3bdaa692	0.0066726888
239	0xbc7a6d7e	-0.015284894
240	0xbb4aba88	-0.0030933935
241	0xbb63c290	-0.003475342
242	0xb8483c01	-4.77396e-05
243	0xbb93cee8	-0.004510749
244	0x3bb68d12	0.005571016
245	0xba1f469d	-0.0006075891
246	0x3c3c336e	0.011486871
247	0x3ba01066	0.0048847673
248	0xbb5c3bf4	-0.003360507
249	0xbabe523c	-0.0014520357
250	0x3c0ac513	0.008469838
251	0x38c5d431	9.433216e-05
252	0x3c3503e1	0.011048288
253	0xba2ee344	-0.00066714385
254	0x3b5d7686	0.003379257
255	0x3c2dfbff	0.010619163

batchnorm.weight f4 [40]
0	0x3f7fb055	0.99878436
1	0x3f8013dc	1.0006061
2	0x3f80bcbf	1.0057601
3	0x3f80b4b7	1.005515
4	0x3f80779d	1.0036503
5	0x3f804455	1.0020853
6	0x3f803115	1.0014979
7	0x3f8007e3	1.0002407
8	0x3f8092a8	1.0044756
9	0x3f7f5335	0.9973634
10	0x3f7ff1e8	0.99978495
11	0x3f8061aa	1.0029805
12	0x3f7f2bc7	0.99676174
13	0x3f7f99db	0.9984414
14	0x3f8094a2	1.0045359
15	0x3f80b337	1.0054692
16	0x3f808e7b	1.0043482
17	0x3f80362d	1.0016533
18	0x3f805cc0	1.0028305
19	0x3f804a2b	1.0022634
20	0x3f8042ec	1.0020423
21	0x3f8056c6	1.0026481
22	0x3f7faaa4	0.9986975
23	0x3f808b63	1.0042537
24	0x3f805847	1.002694
25	0x3f80a55a	1.0050461
26	0x3f804838	1.002204
27	0x3f8067a3	1.0031627
28	0x3f807154	1.0034585
29	0x3f80294e	1.0012605
30	0x3f806d22	1.0033305
31	0x3f806090	1.0029469
32	0x3f80b50c	1.0055251
33	0x3f80777a	1.0036461
34	0x3f800493	1.0001396
35	0x3f7f9b42	0.9984628
36	0x3f80deec	1.006803
37	0x3f80bc6c	1.0057502
38	0x3f801025	1.0004927
39	0x3f8015c9	1.0006648

batchnorm.bias f4 [40]
0	0xbba8330b	-0.005133038
1	0xbb52a0f4	-0.0032139393
2	0xbb32a87c	-0.002726107
3	0xbb1e65cc	-0.0024169562
4	0xbb16fcf6	-0.002303896
5	0xba5d4baa	-0.0008441756
6	0xbba92d13	-0.005162844
7	0xba60e828	-0.0008579516
8	0xb9242295	-0.00015653142
9	0xbb835a30	-0.004008554
10	0xbbd610c4	-0.0065327603
11	0xbb281c41	-0.0025651606
12	0xb88ad6ee	-6.6203866e-05
13	0xbb81a523	-0.0039564534
14	0xbb7e4738	-0.0038799774
15	0x3bc24a09	0.005929236
16	0xba16309c	-0.0005729289
17	0xbbb6d587	-0.0055796537
18	0xbb176c89	-0.0023105463
19	0x3ac83766	0.0015275299
20	0xbb20afb2	-0.0024518785
21	0xbabe5259	-0.0014520391
22	0xba9746c8	-0.001154148
23	0x3a227d0a	0.0006198442
24	0x3aa443f5	0.001253246
25	0x3b08e031	0.0020885582
26	0xba59ce18	-0.00083086034
27	0xbb44701b	-0.0029974047
28	0x3abe2c29	0.001450901
29	0xbafa3cca	-0.0019091603
30	0x3b0b7fba	0.0021285848
31	0x3ba25abf	0.0049546654
32	0x3aea42e2	0.0017872716
33	0x3b25e2bd	0.0025312149
34	0x3ba50386	0.0050358204
35	0x3b0a61e8	0.0021115486
36	0xb99f23c1	-0.00030353482
37	0xbb2acb70	-0.00260612
38	0x3b31b898	0.0027118083
39	0x3b824335	0.003975297

batchnorm.running_mean f4 [40]
0	0x3d26b010	0.04069525
1	0xbc813832	-0.015773866
2	0x3dce8139	0.10083241
3	0x3d073626	0.033010624
4	0xbd009a66	-0.031397246
5	0x3d8b13c2	0.06790878
6	0x3c7ea5af	0.015542432
7	0xbc7e7b76	-0.015532365
8	0x3d200383	0.03906585
9	0x3c1f7473	0.0097323535
10	0x3d0a23f6	0.0337257
11	0xbae1f840	-0.0017240122
12	0xbbc215de	-0.005923017
13	0xbd06a429	-0.0328714
14	0x3bb75ff5	0.0055961558
15	0x3dae0adb	0.08498164
16	0xbd054afd	-0.032542218
17	0xbd8cb654	-0.06870714
18	0x3d542ca2	0.051800378
19	0xbd28b762	-0.041190512
20	0xbd45bf36	-0.048278056
21	0x3dc2145f	0.09476542
22	0x3dcbee77	0.09957593
23	0x3d1a6c54	0.037700966
24	0x3cc0045e	0.023439582
25	0xbc988116	-0.01861624
26	0xbd92683b	-0.07148787
27	0xbcdd0c85	-0.026983509
28	0xbcca3ed9	-0.024688171
29	0xbc10c660	-0.008836359
30	0x3d067174	0.03282304
31	0x3c876e6c	0.016532145
32	0x3cd29589	0.02570607
33	0xbd25e5c2	-0.040502317
34	0xbd1f08d4	-0.03882678
35	0x3c482135	0.012214948
36	0xbc998148	-0.018738404
37	0x3d11fe78	0.03564307
38	0xbd6662ba	-0.056246497
39	0xb987ba9d	-0.00025888244

batchnorm.running_var f4 [40]
0	0x3d8c738d	0.06857977
1	0x3dbee1a9	0.09320385
2	0x3e058a1a	0.13040963
3	0x3d566cbb	0.052349787
4	0x3d87cbbe	0.066306576
5	0x3d9d9f90	0.0769645
6	0x3c27c486	0.010239726
7	0x3e3b89a0	0.18314219
8	0x3d76f89b	0.060295682
9	0x3df648a7	0.12025576
10	0x3d398784	0.045295253
11	0x3e88700d	0.26647988
12	0x3e04631b	0.1292843
13	0x3dc1bae5	0.094594754
14	0x3d3e372a	0.046439327
15	0x3df8a30c	0.12140474
16	0x3e11c62d	0.14235754
17	0x3e0aeb09	0.13566221
18	0x3dc8a232	0.09796561
19	0x3de855f3	0.113445185
20	0x3d17a6c9	0.037024293
21	0x3e0f278a	0.13979927
22	0x3e27d232	0.16388777
23	0x3de0d7b6	0.109786436
24	0x3d7eea01	0.062234882
25	0x3db625e6	0.08893947
26	0x3d054f90	0.03254658
27	0x3da7bedb	0.081907
28	0x3d5be0f7	0.05368134
29	0x3d186fb7	0.037215915
30	0x3d276e6f	0.040876802
31	0x3d09df97	0.033660498
32	0x3cee4ae1	0.02908844
33	0x3d02091d	0.031746972
34	0x3e09f7b6	0.134734
35	0x3cf726ba	0.030169833
36	0x3d3454dd	0.044026244
37	0x3dd71ddb	0.10503741
38	0x3e55baf8	0.20872104
39	0x3ce1dec4	0.027572043

dense.weight f4 [4, 2840]
0	0xbb73e6ee	-0.0037216502
1	0x3ca31853	0.01990906
2	0x3c461a2a	0.012091199
3	0x3c04eff0	0.008113846
4	0x3a7d719b	0.00096681126
5	0x3bedf1e7	0.007261503
6	0x3b995346	0.0046791164
7	0x3b001657	0.0019544566
8	0x3c71c918	0.014757417
9	0x3c91485f	0.017734705
10	0xbc88457e	-0.016634699
11	0xb9c88fb5	-0.00038254043
12	0xbb045e1e	-0.00201977
13	0x3c43b790	0.01194562
14	0xbbc23120	-0.0059262663
15	0xbc851bbd	-0.016248578
16	0xbc61566d	-0.013753516
17	0x3c2dbf6d	0.0106047215
18	0xbc1994c4	-0.009373847
19	0x3c90830c	0.017640613
20	0x3c03dc48	0.008048125
21	0x3ae2695d	0.0017273832
22	0xbc808412	-0.015687976
23	0xbc3e56de	-0.01161739
24	0x3c57caad	0.01317088
25	0xbc81beda	-0.015838075
26	0x3c41c7ca	0.011827419
27	0x3c74fc6f	0.014952763
28	0xbc3d1fbf	-0.011543213
29	0x39c23e9a	0.00037049205
30	0xbc30fe7a	-0.010802859
31	0x3c48e818	0.012262367
32	0xb954fc86	-0.00020311968
33	0xbc58ec54	-0.013239939
34	0x3c6dd540	0.014516175
35	0xbc470135	-0.012146284
36	0xbc1e95c4	-0.009679262
37	0x3c31a6b0	0.010842964
38	0xbb8c9b75	-0.004290993
39	0x3c24f672	0.010068523
40	0x3c94d1a5	0.018166373
41	0x3b33dbc7	0.002744423
42	0x3c6b88ef	0.014375909
43	0x3bbd4cd8	0.0057769828
44	0xbb2c4684	-0.0026287148
45	0xbbaed05c	-0.005334897
46	0xbb8a69ca	-0.004224037
47	0xbc86e82f	-0.016468136
48	0xbca26494	-0.01982335
49	0xbc9423b5	-0.018083433
50	0xbc2bf87b	-0.010496254
51	0xbc0bc5c6	-0.00853104
52	0xbba5da67	-0.005061436
53	0xbb9ea97d	-0.004841982
54	0x3c6d5d89	0.014487633
55	0xbc8ca6c7	-0.01716937
56	0x3c5a3819	0.013319039
57	0x3c81e761	0.0158574
58	0x3b35590a	0.002767148
59	0x3ca941a3	0.02066118
60	0x3c4945e4	0.01228473
61	0xbc532a02	-0.012888433
62	0xbc2c81f8	-0.010529034
63	0xbca2238e	-0.019792344
64	0xbb68d4c8	-0.0035527218
65	0x3bc939e6	0.0061409352
66	0x3c80ac5a	0.015707184
67	0x3c16d677	0.009206406
68	0x3c84c28a	0.016206045
69	0x3c2c1dbf	0.010505139
70	0x3b6b9cb2	0.0035951552
71	0x3ca8eea3	0.020621603
72	0xbbc62444	-0.0060468037
73	0xbc2edf28	-0.010673322
74	0xb89e20a3	-7.540106e-05
75	0xbc8ee92b	-0.017445168
76	0x3c8b2331	0.016984554
77	0x3c3a6b33	0.011378097
78	0x3c85782c	0.016292654
79	0x3b8a5724	0.0042218138
80	0xbc8964c7	-0.016771687
81	0x3c2dae5a	0.010600651
82	0x3c8b8537	0.017031295
83	0xbc4264ff	-0.0118649
84	0xbc455efa	-0.01204657
85	0x3c7f6557	0.015588126
86	0xbc7fd1b5	-0.015613963
87	0xbb973b56	-0.0046152277
88	0xbbbb223c	-0.005710868
89	0xba7424e7	-0.000931336
90	0xbc5f0c1c	-0.013613727
91	0x3c15f388	0.009152301
92	0xbb1b67df	-0.0023713035
93	0xbc1eaf0e	-0.009685291
94	0xbc8fae33	-0.01753912
95	0x3ca96472	0.020677779
96	0x3c12ae0a	0.008952627
97	0x3ab6054e	0.0013887079
98	0xbbfccecc	-0.007715082
99	0x3b4b0a92	0.0030981642
100	0xbc81d524	-0.015848704
101	0xbc2f7e19	-0.010711216
102	0xbc27c26f	-0.010239228
103	0xbc8181dc	-0.015808992
104	0xbc698195	-0.014252086
105	0xbb3d8abe	-0.0028921808
106	0x3c4c571d	0.012471941
107	0x3b7b8a8e	0.0038382146
108	0x3bf7c46f	0.0075612585
109	0x3bcef000	0.0063152313
110	0x3cad1f62	0.021133129
111	0x3beff45f	0.0073228325
112	0x3c08074e	0.008302523
113	0xbbd6ccb4	-0.0065551642
114	0x3c5381cc	0.012909364
115	0xbb756b02	-0.0037447815
116	0xbba6c3ed	-0.005089274
117	0xb93c97a8	-0.00017985574
118	0xbb280dbf	-0.002564296
119	0xbc83b83f	-0.016079066
120	0x3c63d6f3	0.013906228
121	0xbbe474c8	-0.006971929
122	0xbbe1df03	-0.00689304
123	0xbc0b26f5	-0.008493175
124	0xbc9f3814	-0.01943592
125	0x3b903b33	0.0044015883
126	0xbc056399	-0.008141422
127	0x3c4d0521	0.01251343
128	0xbca37ce0	-0.019957006
129	0x3c14d08b	0.009082924
130	0x3be0a3e9	0.006855477
131	0x3ca13f59	0.019683527
132	0xbc2ef672	-0.010678874
133	0x3c9d34da	0.01919024
134	0x3b470341	0.003036693
135	0xbb48b985	-0.0030628156
136	0x3bbadd21	0.00570263
137	0xbc5494f5	-0.012974967
138	0x3cb31761	0.021861734
139	0xbc63cd7d	-0.013903973
140	0x390feccb	0.00013725755
141	0xbc350aac	-0.011049908
142	0xbab26c3c	-0.0013612579
143	0xbb47bb13	-0.0030476495
144	0xbc120728	-0.008912839
145	0x3a2a1637	0.00064882956
146	0xb918cc92	-0.00014572058
147	0x3cb2cde9	0.021826701
148	0x3c98d22c	0.018654905
149	0xbbe29d92	-0.0069157565
150	0x3af100aa	0.0018387039
151	0xbbeb65f0	-0.0071837828
152	0xbc84fcc5	-0.016233811
153	0xba17f554	-0.00057967496
154	0x3b6bb532	0.0035966155
155	0x3c6a1b08	0.014288671
156	0x3c45df60	0.0120771825
157	0xbc73ac3d	-0.014872608
158	0xbbbd1187	-0.0057699117
159	0xbbfc7bd5	-0.0077051916
160	0xbc33a322	-0.010964187
161	0x3c5f65e6	0.013635134
162	0x3b0e69d7	0.0021730566
163	0x3adeca8f	0.0016997623
164	0x3b67aceb	0.003535087
165	0xbc7473e8	-0.014920212
166	0x3b96398d	0.0045844973
167	0x3c286e47	0.010280198
168	0xbc1be7ac	-0.009515684
169	0xbc7675dd	-0.015042749
170	0x3b391364	0.0028240317
171	0xbbfb8e96	-0.0076769097
172	0xbb79019e	-0.0037995349
173	0xbbc7a744	-0.0060929377
174	0xbc017ad2	-0.007902818
175	0xbc678a75	-0.014132132
176	0x3b6c36cc	0.0036043404
177	0xbc3a820a	-0.011383543
178	0x3ae06f6e	0.0017123052
179	0x3c176617	0.009240649
180	0xbc5fac6a	-0.013651947
181	0xbbc20eef	-0.0059221904
182	0xbb025786	-0.0019888594
183	0x3c14fe55	0.009093841
184	0xbc166e2b	-0.0091815395
185	0xbc267c29	-0.010161438
186	0xbc0e6f84	-0.00869358
187	0xbabb8cde	-0.001430895
188	0x3cb0eaf1	0.021596404
189	0x3c8b96f0	0.017039746
190	0x3abe01ad	0.0014496349
191	0x3bcd4b0a	0.006265049
192	0xbbed5329	-0.0072425795
193	0xbc010773	-0.007875311
194	0x3a382ec8	0.0007026014
195	0x3b23b111	0.0024977366
196	0xbc6802b5	-0.014160802
197	0x3c1237fd	0.008924481
198	0x3c965bd8	0.018354341
199	0x3c8ad337	0.016946418
200	0x3bfea1e0	0.007770762
201	0x3be3d5ba	0.0069529684
202	0x3c06f1f0	0.008236393
203	0xbb887c40	-0.0041652024
204	0xbc364313	-0.01112439
205	0x3c54c0d9	0.012985432
206	0x3bbe6c15	0.005811224
207	0xbbfdf3da	-0.0077500166
208	0xbba17db7	-0.0049283165
209	0xbbdca3e7	-0.006733406
210	0x3c5286ca	0.012849519
211	0xb986f2f3	-0.00025739483
212	0xbc0f1195	-0.008732219
213	0x3bec51b0	0.0072118863
214	0xbaf5d28c	-0.0018754764
215	0xbbd48915	-0.006486068
216	0xbc299ab7	-0.010351828
217	0xbc06f4f3	-0.008237111
218	0x3c653bdb	0.013991321
219	0x3c503f8c	0.012710463
220	0xbc9f0c8c	-0.019415163
221	0x3a344df4	0.0006878071
222	0x3b02e49a	0.0019972683
223	0x3c3d75e5	0.011563753
224	0x3c806d46	0.015677106
225	0xbb4e05ae	-0.003143649
226	0xbc81e47b	-0.015856018
227	0x3a54cfd3	0.00081181264
228	0xbc714fc4	-0.01472849
229	0xbca1219c	-0.019669347
230	0xbc80b637	-0.015711887
231	0xbc54c5a2	-0.012986572
232	0xbc7e91a6	-0.015537655
233	0xbc8a1742	-0.016856793
234	0xbc88d04d	-0.016700888
235	0xbaa9a4b4	-0.0012942762
236	0xbc7d86a9	-0.015474
237	0xbc3a1325	-0.0113571035
238	0xbc2ba2f3	-0.010475862
239	0xbb2c57cf	-0.0026297455
240	0x3c2b9668	0.010472871
241	0x3c3d60e5	0.011558746
242	0x3b145e25	0.0022639122
243	0x3c81b5eb	0.015833816
244	0xbc21ef03	-0.009883645
245	0x3c4454f6	0.011983147
246	0xbc2e565a	-0.010640705
247	0xbc27d54a	-0.010243723
248	0xbbf32609	-0.0074203056
249	0x3b66db99	0.0035226105
250	0x3bef096a	0.0072948234
251	0xbba5708f	-0.0050488184
252	0x3c36fed3	0.011169153
253	0x3c6e8834	0.014558841
254	0xbc6093a3	-0.013707074
255	0xbc365175	-0.011127819

dense.bias f4 [4]
0	0x3c05415c	0.008133259
1	0x3c877cfe	0.016539093
2	0xb9f15a9d	-0.00046034614
3	0xbc513d66	-0.012770986
